best_model_classif_caus.pt (torch, 115967 bytes, 15 tensors)

phi.0.weight f4 [32, 25]
00000000: ce16 003e 4fc0 e83d 6cee f1bc c3f3 e23d
00000010: a23f 19be cbd0 2a3e d879 bfba 9c29 e83a
00000020: 7bc8 25be 3d1e 27be e233 dbbd c05c 4b3e
00000030: 68ca 60bd 1aec 303e 56b4 4f3e 7e71 cabd
00000040: 5564 e33d 5740 813d 0403 173e d0b0 84bd
00000050: edcf d13d 6902 f4bd ddbf 133e e9e6 d6bd
00000060: 2633 21be d674 41bd d002 163e 19f6 8fbd
00000070: 9308 b0bd 7c51 1a3e 43f0 b8bd 3164 33be
00000080: 882f 6ebe e375 e5bd b7ae 35be 50b4 8e3c
00000090: f236 35be 73c5 f7bd 4cdb 55be b485 73be
000000a0: dbfa 9d3d cac1 253c b7e8 123e 4085 0bbe
000000b0: 3598 ba3d 6c4f 643d da5f b23c 9c58 b6bd
000000c0: ab65 fa3d 96e2 55bd 4113 383e 023f aebd
000000d0: cab9 893d 864f 4a3e accf 46bb da64 5fbd
000000e0: f889 913d b808 3c3e 01a2 53bd 9cea 16bd
000000f0: 09a2 0e3e 1f52 f83d 76ed ad3d 20ce 35bd
00000100: c9c6 abbd a29b 09be 3dbb 12be 8e25 913d
00000110: f3d8 263e 9188 d93d 3d88 2e3d 0b2b 0dbe
00000120: fbef 123d 9b55 9c3d 59e8 353e 99a9 26be
00000130: c033 0cbd 3a17 5dbc da36 babd 8768 d63d
00000140: 04df 33be 3bfd b6bd ae1a 753d 04bf a8bd
00000150: 64d7 e83d 608f 1d3e fb01 133e d617 d5bb
00000160: b5e7 39be 8f2c 74bd 0ef4 133e 6a1b dd3d
00000170: 7cfb 153d 7988 20be cacc 203b ecbc 263e
00000180: ceae 0ebe 8a6a 40be b601 a5bd c5d0 c73d
00000190: eef6 133e 6b14 b1bd 6289 07be eb9d aabd
000001a0: 1936 9e3c 7d0e 133e dabb 07be 6096 e6bd
000001b0: e585 2fbd e0c7 d8bd 1c2f ce3d d5ea a53d
000001c0: e2ed 0f3e 8adc e3bd e500 1fbc 4ed2 32bd
000001d0: 6268 ecbd 6084 143e 5f45 afbc 482a f2bc
000001e0: e918 25bd 044b 5fbd d158 4e3e bed6 d5bc
000001f0: 4612 fdbc ae23 883d d199 083e d1b8 6c3e
00000200: b9d7 d43d a6e3 453d cdf6 913d cf96 003e
00000210: 11e6 d13d 7c5f 403b a4b9 4fbd bfc0 50bd
00000220: b27a 5fbd 6dce 05be ec30 6a3e ce7b 373d
00000230: 7118 833e 26d5 4d3e 8ac3 81bd 3e89 6cbd
00000240: 22a6 cfbd de92 c3bb 4e31 e5bd 9885 fcbd
00000250: 82aa b13d 23e6 563e fb18 c9bd 5738 183d
00000260: d02f b1b9 cc52 f83d 8cd4 df3d 06b2 de3d
00000270: fef3 4d3e 18ca 33bc 282b 32be ad31 9f3d
00000280: 9943 64bd 6be5 103e 8202 fc3c ea73 2c3e
00000290: f52a 2abe 2ce4 383e 4595 523e adfb 923d
000002a0: f258 fa3d e587 383d 359a 003e 1531 333e
000002b0: bb01 a1bd f242 013e 7e4c 193e 9358 fabd
000002c0: f64d 4f3e 3a06 99bc 986e 3d3e 7a8c 21be
000002d0: ed0b fdbd d4d2 b13d 85be fd3c cba0 9bbd
000002e0: 81ce d1bd 563f 3a3e c4be 113e 1112 29bd
000002f0: 9825 eebd 82b5 633e 3870 f03d dfda 623e
00000300: 1c63 d9bc f2d2 2d3d cd70 1dbe dfe9 bfbd
00000310: a08f ca3d 7802 6cbb d7ee 103e 0042 8a3d
00000320: 1702 1cbd 8fb2 07bd 93f2 1e3e 3070 a83a
00000330: 9871 4b3d 3182 d4bc 0a67 97bd 4932 5b3e
00000340: a42f ddbd 20f9 653e ffec a0bd 92a8 a0bd
00000350: 20b1 34bd 3149 95bd 7720 04bd 294f 023e
00000360: 60a4 58bd ee51 003e 5157 823e b901 863d
00000370: 7fa8 98bc aa35 753e f00a 48bd 4379 473d
00000380: 8ba1 bfbd 82c8 323e e522 e9bc e469 9b3d
00000390: 7267 febd 11b4 283e ac14 ea3d 4218 e5bd
000003a0: c020 073e fcb9 c9bd c619 a1bd 502a 80bd
000003b0: 2cce 0b3e d461 86bd f3e5 f4bd bad9 bcbc
000003c0: 9012 af3a 6645 3ebd 57d0 d33d de13 5b3e
000003d0: a887 a83d 2326 5b3e 51b8 e13d 2741 263e
000003e0: b06d 753d e3c8 543e 2aee ed3d 7a32 eebc
000003f0: 3073 67be f5b0 2abe 0091 063e a3bd 60be
0.125087 0.11364805 -0.029532634 0.1108165 -0.1496568 0.1668121 -0.0014608456 0.0017712596
-0.16189758 -0.16320129 -0.10703255 0.198596 -0.05488053 0.17277566 0.20283636 -0.09884928
0.11103121 0.063111 0.14747244 -0.06479037 0.10244737 -0.11914522 0.14428659 -0.10493261
-0.15742168 -0.047230564 0.1464951 -0.07029361 -0.085953854 0.15070146 -0.09030201 -0.17518689
-0.23260319 -0.11204126 -0.1774243 0.017419964 -0.17696741 -0.12098207 -0.20884436 -0.23781472
0.077138625 0.010117004 0.14346586 -0.1362505 0.091110624 0.055739805 0.021774221 -0.0890362
0.12226423 -0.052218042 0.17976095 -0.085081115 0.067248896 0.19756898 -0.0030336184 -0.05453954
0.071063936 0.18362701 -0.05166817 -0.036844835 0.13928999 0.12125038 0.08492558 -0.04438603
-0.08387525 -0.13438275 -0.14329238 0.07087241 0.16293697 0.10621751 0.042610396 -0.13785951
0.035873394 0.076335154 0.17764415 -0.16275634 -0.03422904 -0.013494307 -0.09092493 0.10469156
-0.17565542 -0.08935019 0.059839897 -0.08239558 0.113692075 0.15386724 0.14356224 -0.0065030856
-0.18154795 -0.059612807 0.14448568 0.107962444 0.036616787 -0.1567706 0.0024536126 0.16283005
-0.1393387 -0.18790641 -0.08056967 0.097566165 0.14449665 -0.086464725 -0.13236001 -0.08330902
0.019312905 0.14360996 -0.13255253 -0.112591505 -0.0428523 -0.10584998 0.10067579 0.08101431
0.14055589 -0.11126049 -0.009704803 -0.043657593 -0.11543347 0.14503622 -0.021395383 -0.029561177
-0.04030696 -0.0545149 0.20151068 -0.026103374 -0.030892503 0.0664743 0.13339926 0.23117377
0.10392708 0.048312806 0.07127152 0.12557529 0.1024896 0.0029353788 -0.05071415 -0.050965067
-0.05456037 -0.13067026 0.22870225 0.044795804 0.25604585 0.20100841 -0.06336124 -0.05774807
-0.10139109 -0.0059684357 -0.11191045 -0.123301685 0.086751 0.20986228 -0.09819218 0.037163105
-0.00033795694 0.12125167 0.10929212 0.10873799 0.20112607 -0.010973476 -0.17399275 0.07773147
-0.05572853 0.14150016 0.030762915 0.16841093 -0.1661795 0.1805579 0.20564754 0.071769096
0.12223996 0.045051474 0.12558825 0.17499192 -0.07861658 0.12623194 0.14970586 -0.122239254
0.20244583 -0.018679727 0.1849922 -0.15776244 -0.1235579 0.086827904 0.030974636 -0.07599028
-0.102444656 0.18188223 0.14232928 -0.041276995 -0.11628264 0.22237208 0.11740154 0.22153805
-0.026536517 0.0424375 -0.15375061 -0.09370779 0.098906755 -0.0036012214 0.1415361 0.0675087
-0.03808793 -0.03312927 0.15522222 0.0012850817 0.04966888 -0.025940986 -0.073927 0.21405901
-0.10800102 0.22458315 -0.078577034 -0.07844652 -0.044114232 -0.07289351 -0.032257523 0.1272551
-0.052891135 0.12531254 0.25457242 0.06543297 -0.018635033 0.23946252 -0.048838556 0.04869963
-0.09356984 0.174593 -0.028459022 0.075885564 -0.124220744 0.1647494 0.11429724 -0.111862674
0.13196087 -0.09849927 -0.07866244 -0.062580705 0.13652867 -0.06561628 -0.11957922 -0.023053039
0.0013356972 -0.046452902 0.10342472 0.21394297 0.082289994 0.21401267 0.11021484 0.16235791
0.05991906 0.20779757 0.11617692 -0.029076803 -0.22602534 -0.16669066 0.1314125 -0.2194734

phi.0.bias f4 [32]
00000000: f8bc 6abe cb40 85bd fbf7 033e 05a5 353e
00000010: 4276 923d 9ae8 543d 3c31 57bc 1026 aabd
00000020: 86ed 34bd 0346 ed3d ccb7 e4bd 1e65 1abd
00000030: 6076 89bd 020a f2bd 7818 1cbc 5e05 02be
00000040: 7a00 5c3d 0b84 013e 8e53 f4bd 5ec6 773c
00000050: dea7 67be e99b 753d 52b8 03be e01a ff3d
00000060: 06b6 96bd 0e91 97bd b83b 69bb 2d0d 59be
00000070: 6ef2 d03c 2b80 b73d 0c8f e73d d21e ddbd
-0.22923648 -0.06506499 0.12887566 0.17738731 0.07151462 0.05197964 -0.013134297 -0.08308041
-0.044171833 0.11585619 -0.11167869 -0.03769409 -0.06712031 -0.11818315 -0.009527318 -0.1269736
0.053711392 0.12648027 -0.11929999 0.015122978 -0.2262263 0.05996314 -0.12863281 0.12456298
-0.07358937 -0.07400714 -0.0035588574 -0.21196432 0.025506224 0.08959993 0.11306581 -0.10796894

phi.2.weight f4 [32, 32]
00000000: 1206 8b3b b4e9 28be 87d9 ae3d d83b 103e
00000010: 5a49 e33d 006a e63d a469 443e dc10 543c
00000020: 0e17 84bd d8c5 493d cba7 893d b2da acbd
00000030: 1488 0f3e 2dcf b33d dad6 01be 4a01 a8bd
00000040: bc13 32be 846e 03be ecf0 14be c312 0cbe
00000050: 3e68 493d 8503 80bc 16a8 743c e045 df3d
00000060: 9f42 bb3d 9f0a 07be 6996 123e 1af1 5f3e
00000070: 6e3e cbbd 09bd dabd 2049 953d 97a7 cabd
00000080: 42c9 333e e0ba dc3d a9a1 053e d9e5 a1bd
00000090: 6e7a 163c a169 1cbe 24f3 24bd 349d 5e3d
000000a0: 86e0 90bd 4cf8 19bd f328 053e 6be2 443e
000000b0: b9b7 123e 6eab 63bd 78b9 8a3d 8c62 28be
000000c0: c370 e1bd d9c3 403e a09f 05be 28bf 5d3e
000000d0: ce21 ffbc 5498 203e 00c5 b538 22a9 723c
000000e0: 351d 803d d683 cd3c abfc 20be 5612 1e3d
000000f0: 8b08 0bbe 0e03 063e f4d2 443d 220e a5bd
00000100: 3961 b43d 36ae 1dbc 3a04 da3d 1314 6dbd
00000110: d8ae 153e f650 013e 6761 f43d ec62 acba
00000120: 3a80 58bd f4d4 893d efc3 9b3d e652 99bd
00000130: d5a1 b0bd f0a6 bfbd 35bd 15bd 6683 d7bd
00000140: 877a e83d 006e e23c 91e9 143e bfb5 0bbe
00000150: 05c6 233e b5c0 8fbd 986a 2abe 56cd c5bd
00000160: 1e60 7d3d 5f2d 473e f6d4 993d 63ef 1c3e
00000170: 945e 493d 0815 32be 55f5 edbd 3216 e53c
00000180: f629 88bd 6422 c93c 8b0d 253d e11b 3bbd
00000190: 72cc a03d 02de 0cbe 0dc4 8cbd 636c 6c3d
000001a0: 682b 543c 44e3 7f3d 9858 e63d df35 403c
000001b0: f6dd 1bbe 0873 513b 863f 933c 0158 443c
000001c0: 14ff 3cbd 38ea 98bc 08b8 37be 9050 c53d
000001d0: 3507 2dbd 7582 90bd e8b0 9c3c 10d1 5b3b
000001e0: 47be b9bd 3a2f 43bd a675 883d 2330 d6bd
000001f0: 9d7e 2dbe f8e7 f5bd d7d1 2cbe d8ac 3dbd
00000200: 0d40 ec3c 0ac1 14bd f125 2cbe 00d5 58be
00000210: 31b4 573d e786 713d 999a d23d 86b7 0f3e
00000220: 950f d03d d444 743d f28d aebd dc8a bfbc
00000230: a5d6 cd3c bd55 6fbe 8396 6abe 3c6d e53d
00000240: 01f6 2dbe d938 f4bd a7bb da3d 075b 273d
00000250: 9adb 973b d0f8 6bbd df5c 66be 07ec 3ebe
00000260: 036e 7dbb 0d53 02be 27c5 683d e041 bdbd
00000270: 9453 a83c 59be 4abe 65c3 bd3d 0de5 06be
00000280: 86bd ebbd 0396 27be 6083 a1bc 4a43 00bd
00000290: e189 413d 37b2 7a3d 0f75 69bc 2e6a b23d
000002a0: dccd 393d cdf0 4abe a49c cfbd c807 0b3e
000002b0: 997e 61bd 8e6b eabd 96b6 58bd f02c 893d
000002c0: 2655 5b3d 040d 30bd 819f c0bd c8c9 0cbe
000002d0: 45b6 64be b37f 19be ca7f c23c 8cf9 9cbc
000002e0: a7a2 cdbb e74c 13be 5f2f 7abd 2eed ec3c
000002f0: 0f46 32bd 1ab3 0fbd bc7c 08bd af7c ffbd
00000300: 5881 f3ba bb0c 0cbe db47 843d 8226 2c3d
00000310: b4df 11bd 7b6e ad3d 540e 97bd 827a 213d
00000320: 605a a63c 91b8 4bbe eee2 3ebe 6cdb 7e3c
00000330: e1d8 3bbe 1247 45bd 9f4c 5c3d 092b e4bc
00000340: 2961 6ebd 1acd d7bd 58ff e5bd 9e40 d53d
00000350: 710c bebd 7538 08bc 9b96 b9bd 42cc f1bd
00000360: 45b1 c23d 1ca1 4f3e ec82 0ebd c415 d8bd
00000370: dc03 eabd 74aa 29be c8cc 4d3d d412 c43b
00000380: 8c2d f13c d33d 053e 0b57 dfbd c7b8 8fbd
00000390: 2bbd 173e fa3b d53c fe77 ef3c c5aa cebd
000003a0: d64d b73d 34af 103e c414 e83d 6ba9 3a3d
000003b0: b629 00be ac15 d23d 4c43 653d 26b4 2c3e
000003c0: b33a ca3d 890f 1cbe 8b21 893d 5032 80bc
000003d0: 2a39 1e3d 9d3c 07be 24a5 673d 59ae dabd
000003e0: 907e 2cba 04c4 47bd 65bc 00be 01d7 94bc
000003f0: ad3a 11be 0a0e d6bd 6a17 9f3c c76c 8ebb
0.004242667 -0.164954 0.08537584 0.14085329 0.11097975 0.11250687 0.19180924 0.012943473
-0.0644971 0.049260944 0.06721457 -0.0844015 0.14016753 0.0877975 -0.12679616 -0.08203371
-0.1739034 -0.12835127 -0.1454503 -0.13679032 0.04917168 -0.015626678 0.014932653 0.109019995
0.09143566 -0.13187645 0.1431519 0.21869317 -0.09924017 -0.10680587 0.07289338 -0.098952465
0.17557243 0.10777831 0.1304995 -0.07905168 0.009184463 -0.15274669 -0.04027094 0.05434914
-0.070740744 -0.03759031 0.13003902 0.19226997 0.14327897 -0.05558341 0.067736566 -0.16443843
-0.11007836 0.1882471 -0.13049173 0.21654952 -0.031144049 0.15683109 8.667447e-05 0.014810832
0.06255571 0.025087278 -0.15721385 0.038591705 -0.13577478 0.13087103 0.048052743 -0.08059336
0.08807606 -0.009624055 0.106453374 -0.057880472 0.14617479 0.1262854 0.119326405 -0.001315204
-0.05285666 0.06730071 0.07605731 -0.07486515 -0.08624617 -0.09358013 -0.036557395 -0.10523109
0.11351495 0.027640343 0.14542224 -0.1364355 0.15993507 -0.07019178 -0.16642225 -0.09658305
0.061859243 0.19450901 0.07511322 0.15325694 0.049162462 -0.17390835 -0.11619059 0.027964685
-0.066486284 0.024552532 0.04029612 -0.045680884 0.07851495 -0.13756564 -0.06873331 0.057720553
0.012949802 0.062472597 0.11247367 0.011731594 -0.1522139 0.0031959433 0.017974626 0.011983872
-0.0461417 -0.018666372 -0.17941296 0.09634507 -0.0422432 -0.07056133 0.019127324 0.003354136
-0.09069496 -0.04765246 0.06663065 -0.104584 -0.1694283 -0.12007135 -0.16876923 -0.046307415
0.028839136 -0.03631691 -0.16811348 -0.21175003 0.05266208 0.058966544 0.102833934 0.14034852
0.10159222 0.059635952 -0.08523168 -0.023381643 0.025126765 -0.2337255 -0.22908978 0.112024754
-0.16988374 -0.11924905 0.10680323 0.040858295 0.004634333 -0.057610333 -0.22496365 -0.18644725
-0.0038670308 -0.12726994 0.056828644 -0.0924108 0.020547666 -0.19799174 0.09265784 -0.13173313
-0.11510758 -0.16365819 -0.019715965 -0.03131417 0.047250632 0.061205115 -0.0142491 0.087116584
0.04536234 -0.1981842 -0.10137299 0.13577187 -0.055052374 -0.11446296 -0.052908503 0.06698024
0.053548 -0.042981163 -0.09405423 -0.13748848 -0.22335155 -0.1499012 0.023742575 -0.019161962
-0.006275493 -0.14384805 -0.061080333 0.02892169 -0.043523844 -0.035082914 -0.03332208 -0.124749534
-0.0018577976 -0.13676731 0.06459018 0.04202891 -0.03561373 0.08468338 -0.0737578 0.039423473
0.020306766 -0.19894625 -0.18641254 0.015555244 -0.18344451 -0.04816348 0.05378401 -0.027852552
-0.058198128 -0.10537167 -0.112303436 0.104127154 -0.09279717 -0.008314242 -0.09061929 -0.11806537
0.09506468 0.20276302 -0.034792826 -0.105510265 -0.11426517 -0.16568929 0.050244123 0.00598369
0.029440664 0.13011865 -0.10905274 -0.07017665 0.14818256 0.026029576 0.029232021 -0.100911655
0.08950393 0.14129335 0.11332086 0.045571726 -0.12515911 0.1025804 0.055972382 0.16865596
0.09874477 -0.15240301 0.06695851 -0.01564899 0.038628735 -0.13206716 0.056553975 -0.106777854
-0.00065801386 -0.04877092 -0.12571867 -0.018168928 -0.1418254 -0.104518965 0.019420344 -0.0043464634

phi.2.bias f4 [32]
00000000: aee4 c4bc bfa2 d2bc 049b 09bd 536d bcbd
00000010: ead6 a43d ed55 4c3d dc78 95bd 20bb dd3d
00000020: bee4 b03d 6dad 9abd 555f 4fbe 679d 7cbc
00000030: b62f 2e3e aa77 d6bd f095 193d 9abf 0ebe
00000040: e49b e1bd acc1 8fbd 75b3 34bd 756d 81bd
00000050: 2cf2 ecbc 38ba 05bc 6a0c 443e d933 b73d
00000060: 207c 7fbd b953 11be d7ed 0e3d 6b91 c1bd
00000070: db41 35bd fcac 32be 2c46 f53d c21d 2c3d
-0.024034824 -0.025712369 -0.0335951 -0.092005394 0.08048804 0.049886633 -0.07298443 0.10826707
0.08637379 -0.075526096 -0.2025121 -0.015418387 0.17010388 -0.10472043 0.037496507 -0.13940278
-0.11016062 -0.07019362 -0.044116456 -0.063197054 -0.02892407 -0.008162074 0.1914536 0.08945436
-0.062374234 -0.14192094 0.03489479 -0.094515644 -0.044252258 -0.17448801 0.11976275 0.042020567

phi.4.weight f4 [28, 32]
00000000: efa7 483e 2375 c3bd 5bab 493e e2ac 223d
00000010: a7e8 c1bd 6a1c d8bd cd6d 1d3e 8b8a 623d
00000020: 26a7 19bd 9c33 193e ca08 0bbe 9e61 fbbd
00000030: 3cd2 33be 2e10 d13d 3c69 083c a4d9 d4bb
00000040: 510c 023c 368f eabd b996 74bd 1e45 df3d
00000050: c500 613e d8e8 8abd 70b0 7a3d cbe8 273c
00000060: 2746 35be e361 8bbd 8485 d2bd 37a0 3b3e
00000070: 4a69 b7bd d17b 04be d722 6b3e a974 02be
00000080: a163 5bbd fcda e1bd 5a31 47be 1b26 843d
00000090: 6569 57bc 2e27 e43c 9652 00be 8dfd 25be
000000a0: 84fb 803d 34b1 243e 2a81 0e3e 6271 8b3d
000000b0: 34dd 083e 072b 363e 9a62 5e3c 7d4f 33be
000000c0: 434e b23d ac91 51be b9e4 073e 105d b1bd
000000d0: 233d 04be d6ba 01be a46f 8abb 5b7d ad3d
000000e0: 2041 c63d ebad e33d 1529 e0bd 3493 65be
000000f0: 0d36 273c 84e8 4ebe e5b4 abbd 4439 05bd
00000100: 2edd 65bd 2fa8 33bd abdc 8a3d 3af1 a1bd
00000110: d6e1 81bc fca7 6dbe d60c 41be bdf0 46be
00000120: 01b3 e43c b6a4 6cbd ad65 05be 94e6 d63c
00000130: a499 9cbd 8264 44be fbf3 07bd b31b 9e3d
00000140: f38c 17be fc88 38bc 8a57 32be 9ad8 fbbd
00000150: f63d 95bc dbba 9cbd 6e40 a43b 9cd3 63be
00000160: 84c1 a83d d411 b5bb 4651 36be 525c 89bd
00000170: 726d bfbd da98 33be a263 a63d 652b 2abe
00000180: 5435 d03d 0837 6bbd e830 85bd 297e ce3d
00000190: 5ddc 9cbd 181f 023e aa94 1dbe 8af1 bdbd
000001a0: 3f3c a7bd 630b 033e 2e20 eabd da52 b1bd
000001b0: e8a8 43be 2e2f cc3b e0eb 053e 3306 733d
000001c0: 4a3b c6bc 2d7d bebd e2e1 cb3d b757 fc3d
000001d0: fea4 02be a867 0fbb 320f dabd 97b2 fd3d
000001e0: c94d c1bd eae7 c33d 289b 17bd eb10 bd3d
000001f0: 27fc e2bd 7d41 dc3d 6d2c 2abe 47b2 293e
00000200: 36ff adbd c860 36be a47e 093e 597a 123d
00000210: 5689 ffbc a026 bcbd 9932 c43d dd94 343e
00000220: 6c7c 3bbc f001 3f3c b253 0b3d 5982 7ebd
00000230: 7b34 4ebe ea27 3ebc d09b 133e 166f 203e
00000240: 0f1a 263e 011c 2f3d b525 bfbd 0106 58be
00000250: 6dca 0bbe c86a 283d bf23 963c e6c3 bebd
00000260: dd59 143c 38c8 cdbd 62b5 afbd c5b6 433e
00000270: c8f9 9d3c 8776 003d 4af2 403e 7056 40be
00000280: d8a9 c3bd 4484 50bd 7e16 283e cac4 acbd
00000290: d105 18bd 1baf f83d 6a4f dabc 398d f0bd
000002a0: 4f4c d93d cfad b0bd 0eb1 9e3d 7c62 55bd
000002b0: f88c cabd 3417 f03c 9c42 ffbd 4125 c2bd
000002c0: 0a20 23bd 6690 e83d bb65 73bd 81a3 1cbe
000002d0: 04c3 bebc 11cd a6bd 23f5 2c3e 73c0 09be
000002e0: 7056 fa3b a7ae f43c 68bd 283e 4626 34bd
000002f0: 5e30 253e 3888 8abd 3558 02be 7ac7 993d
00000300: ba82 163d c44b 013e 425d ec3d aaf2 983d
00000310: 7fa6 ba3d 1648 1ebe f1f4 a63d 434a 0cbd
00000320: 2f8b fdbd b021 913c 728a b5bd ca56 a23d
00000330: 91c5 ecbd 486b 9e3d 42bf babd c2c2 2f3d
00000340: eb9a 93bd f44c abbd b3b5 293e e50c 85bd
00000350: 492b 123e c22c f53b c1bb 543e 40aa 773d
00000360: cfa8 fc3c 9bb6 083d 3c67 f2bd f1a5 30be
00000370: 64dd 23bd eace 08be 7e78 133c e62c 19be
00000380: 721c 8b3b 8715 0a3e f486 563d 8035 853d
00000390: 57eb e13d 939c 913d f344 cc3d c006 b1bd
000003a0: 1426 523d e33a b13c 51b6 4c3d 4771 403d
000003b0: 45d8 13be f53b c93d b007 1b3a ecc3 28bb
000003c0: e40b 13bd 00e9 bbbc dc13 8c3d 1a12 d0bc
000003d0: 8c04 e1bd 990b 393e 34f2 9dbd 92e9 433c
000003e0: 0099 f0bb e802 f93d b039 4abe 0483 05be
000003f0: 3a5c 4abd ae05 a1bd 0181 3abd 8928 d0bc
0.19595312 -0.095438264 0.19694273 0.039715655 -0.09468203 -0.105522946 0.15373917 0.055307906
-0.03751292 0.14961094 -0.13577572 -0.122744784 -0.17560667 0.10208164 0.008325871 -0.0064956713
0.007937507 -0.114530966 -0.059714053 0.10901855 0.2197295 -0.06782693 0.06120342 0.010248373
-0.17702542 -0.0680578 -0.10279372 0.18322836 -0.08955629 -0.12937857 0.22962509 -0.12739815
-0.05356181 -0.11028096 -0.1945242 0.064525805 -0.013147687 0.027850714 -0.12531504 -0.16210003
0.06297973 0.16083223 0.1391646 0.068087354 0.13365632 0.17789851 0.013573313 -0.17510791
0.087063335 -0.20465726 0.13270845 -0.086603284 -0.12913947 -0.12668929 -0.0042247344 0.08471175
0.0968039 0.111171566 -0.10945336 -0.22419435 0.010205758 -0.20205885 -0.08384112 -0.032525316
-0.056119137 -0.043861564 0.0678037 -0.079073384 -0.015854757 -0.23208612 -0.18852553 -0.19427772
0.027917387 -0.057774268 -0.13027067 0.026232995 -0.07646492 -0.19178966 -0.033191662 0.07720127
-0.14799862 -0.011263128 -0.17416206 -0.12297173 -0.018218022 -0.07652827 0.0050125634 -0.22248691
0.08240035 -0.005525807 -0.17804441 -0.06707062 -0.09347047 -0.17538777 0.08124472 -0.16618116
0.101664215 -0.05742553 -0.06503469 0.10082657 -0.076592185 0.12707174 -0.15388742 -0.092745855
-0.08165788 0.12797312 -0.11431919 -0.08658381 -0.19107401 0.00623121 0.1307826 0.059332084
-0.024198193 -0.09301219 0.09955193 0.12321418 -0.12758252 -0.0021881852 -0.106474295 0.12387579
-0.094386645 0.095657185 -0.037013203 0.092317425 -0.110832505 0.107546784 -0.1661851 0.16571914
-0.08495943 -0.17810357 0.13427216 0.03576121 -0.031193417 -0.09187055 0.09579963 0.17634912
-0.011443239 0.011658177 0.034015365 -0.062136028 -0.20137207 -0.011606196 0.14414907 0.15667376
0.16220878 0.042751316 -0.09333364 -0.2109604 -0.13651438 0.04111746 0.018327592 -0.093147084
0.009054628 -0.10047954 -0.08579518 0.1911269 0.019284144 0.031363036 0.18842426 -0.18782973
-0.095538795 -0.05090739 0.1641483 -0.08435972 -0.037114922 0.12142774 -0.026649196 -0.11745686
0.10610258 -0.08626901 0.07748614 -0.052095875 -0.09890169 0.02930794 -0.124638766 -0.09479762
-0.039825477 0.11355667 -0.05942319 -0.15296747 -0.02328635 -0.08144582 0.16890387 -0.1345232
0.0076396987 0.029868437 0.16478503 -0.043981813 0.16131732 -0.06764263 -0.12728961 0.0750875
0.036745764 0.12626559 0.11541225 0.074681595 0.09113788 -0.15457186 0.081521876 -0.03425051
-0.12380063 0.017716259 -0.08864297 0.0792671 -0.1156112 0.07735306 -0.09118511 0.042910345
-0.07207283 -0.08364287 0.16573219 -0.064966 0.14274324 0.007482142 0.20774747 0.060465097
0.030842213 0.03337727 -0.11836097 -0.17250802 -0.040006056 -0.13360181 0.009000896 -0.14958534
0.0042453343 0.13484775 0.052374795 0.06504345 0.11031216 0.07109942 0.099740885 -0.086438656
0.051305845 0.021634525 0.049978558 0.04698303 -0.14437969 0.09825889 0.0005913926 -0.0025751544
-0.03590001 -0.022938251 0.068397254 -0.025399256 -0.109871954 0.1807083 -0.07712212 0.011957543
-0.007342458 0.121587574 -0.19748569 -0.1303826 -0.04940436 -0.078624114 -0.045533184 -0.025409954

phi.4.bias f4 [28]
00000000: 7ff3 433e e370 4ebd 1ecf a1bc 0262 0dbd
00000010: c7f2 b5bc 653c dabd 10f4 de3d f39f 2a3e
00000020: 25f3 5d3d 4ba4 9abc 2c6e 883d e0d2 433b
00000030: 5aca b93b fd00 8dbd 300d 52be 39db 0e3e
00000040: 9409 e03d 5299 38be f63a d83d 5872 473e
00000050: e0b2 9cbd 01e4 2d3e 6eae bd3d 4705 4cbd
00000060: d04c 903d 14f5 76bd d97c 823d 52c7 ed3d
0.19135855 -0.050400626 -0.019752081 -0.034517296 -0.022210492 -0.106560506 0.10886395 0.16662578
0.05418696 -0.01887717 0.066616386 0.002988033 0.005669874 -0.06884954 -0.20512843 0.13950814
0.10939327 -0.18027237 0.10558121 0.19477212 -0.07651305 0.16981508 0.092617854 -0.04980972
0.07045901 -0.06029232 0.06371469 0.11610283

phi.6.weight f4 [10, 28]
00000000: 652a 26be 2a60 db3d 54cc e6bd 9ed7 dc3c
00000010: 28cc bebd dda8 07be c1a1 babd f7fd 5d3d
00000020: 8e9e 97bd 71de 803d 17cc 10be bddf 8c3d
00000030: 065d 85bb b54d 39bd 06af 1bbe e7f2 fb3d
00000040: 89b2 39bc d3f6 02bd bb4a a43d 88b8 563d
00000050: b8ae 1ebb afa3 e43d 5c58 6bbc d084 08bd
00000060: 3e3e 7a3d 9fb1 fb3c ed55 cb3d fdc4 1c3e
00000070: 63d6 94bd f970 953d 7dcb 06be 2c72 dabd
00000080: 1c2f f1bd 1ec5 333e 0b5f c83d 986e 3a3e
00000090: d971 d73d 73a5 e0bd a0f2 f63c 8123 80bd
000000a0: 6bc4 37bd 9c46 d2bd e712 0fbd ee8c 45bd
000000b0: f36e 763d 7431 c03d 92d3 bc3d 756e e43d
000000c0: 1a93 413d 682b 843d 2d63 d83d c2dd 65be
000000d0: bcac cabb a153 c23d 4632 f4bd 965a 443c
000000e0: 90fb 433d 7ab2 f73d 7d1c fdbd 4aef 36bc
000000f0: 6f54 993d 1276 9cbb a770 a6bd 2444 72bc
00000100: e10f 32be 9b93 653d e27e 35bd df88 f2bd
00000110: 702d 753d 874a 4abe 6965 9b3d 56e9 f8bc
00000120: 4391 df3d b3ab 103e f392 53bd ada2 02be
00000130: dd95 f13d 5c3d b43d 56f9 7cbd d847 77bd
00000140: e81b ec3d 505a cd3d 5ff6 e23d 90c3 adbd
00000150: 57b0 50be 9001 e63b 5886 1dbd 007a e93d
00000160: 3d9b b03c 0b72 073d 1b7f b83d a683 9d3d
00000170: 93a4 733d 9b50 f53d 85cb fbbd c27b eabc
00000180: a41d 83bd e9cf d13d ca10 26be 8a1a ebbd
00000190: 6abd 05bd aee3 52be 8bd8 ea3d 0be9 adbc
000001a0: aa70 18be 7029 59ba b478 61be b33c 5f3d
000001b0: 5911 26be 655c 0e3e a648 813c fd55 5d3d
000001c0: 250e 48be 1c3d 343d a063 ccbd e379 983d
000001d0: 868c 17be b00c 3ebc 7e50 99bd 60d9 13bd
000001e0: d68e 83bd 9f1a f23c b0f0 b43d 6496 fe3d
000001f0: 845e d43d 36fa 9f3b eb41 dabd ee6c 2fbc
00000200: a31e 11bc 6f61 63bd 62e0 a1bd e880 88bd
00000210: d9cf 19bd ec40 21bd c674 893d e644 a4bd
00000220: 1432 223b 3c1b abbb 26f3 ff3c b18a c63c
00000230: a1cc 303e 0a94 313e b941 f83d 7dda d1bd
00000240: 4088 633b d44a 333d 2838 10bd 7276 8bbc
00000250: b3a6 3b3d 6aa0 3a3d 60cc 9ebd fad8 e7bc
00000260: 5d79 2dbe 44ca 60bd d5ed 48be 2126 f6bc
00000270: dcca 5b3b b760 353e 373e f0bd 999e e6bc
00000280: 2751 57be 5030 873d 2b00 1bbe 6786 3ebd
00000290: 7ea3 453d b48a 2ebd 80d3 e33d 1c62 533c
000002a0: 41bc 40be 3c43 c2bd aac7 293d be0a b33d
000002b0: ccba 36bb 3264 06be 3ec0 b63d 3de3 8f3d
000002c0: 40ab a83d de6b 3fbe 9a81 a83d faad b33d
000002d0: f677 253e a1a9 64be 5d0a a0bd 32d6 273e
000002e0: c7d9 f6bd f4d7 3bbb 929e 2f3e c48f b93c
000002f0: 2748 b13c 6300 05bd 3a9e 05bd 2556 9bbd
00000300: 40f1 ea39 ac68 983d 469e aabd dbc1 ab3d
00000310: 9c7c 123e 8067 adbd dc65 b5bd f921 d6bd
00000320: 7c99 293d 3463 09be f713 c6bd 4005 7cbd
00000330: 882c b73d 94a1 4dbc ce78 04bd b618 ed3c
00000340: 946b 7e3d 9016 593e e718 2abe 6083 98bc
00000350: 6ac8 ce3c ed4e 77bd 013f 203d 10b7 d83b
00000360: 61dd 3c3d cd6e 0d3e 2360 113e 4d9c 013e
00000370: b49d 4bbe 2a29 343e d839 c2bd 6c51 f0bb
00000380: f9b2 42be 1ea8 8ebc d6ec b7bc 787d e5bc
00000390: 3053 a93d 2408 cfbc 38ea 56bd 0127 28be
000003a0: f58c b53d 3a8f e7bb 92fb 123d a66c 1d3e
000003b0: 1eea 243e 49a5 e23d 0aa2 be3d de86 09bd
000003c0: 3f90 8e3d 50ea 1dbe 9be1 e8bd 2154 07be
000003d0: 2d6c 49be 802d 5f39 b489 de3d b7ab 233e
000003e0: b9dc 40bd 34a4 573d c8b8 2abd ccfc 81bc
000003f0: b09c f03d 5722 6ebd 5843 cd3c b082 043e
-0.1622711 0.10711701 -0.11269441 0.026958283 -0.093162835 -0.1324801 -0.09112883 0.054197278
-0.07403289 0.06292427 -0.14140354 0.06878612 -0.004069927 -0.045240123 -0.15203485 0.12302189
-0.01133407 -0.03197367 0.08022066 0.052422076 -0.0024213027 0.11164033 -0.014364328 -0.033329785
0.061094515 0.030724345 0.099284984 0.1530952 -0.072674535 0.072969384 -0.13163562 -0.10666308
-0.117765635 0.17555663 0.09783753 0.1820625 0.105197616 -0.10969057 0.03014499 -0.06256772
-0.044865053 -0.10267374 -0.034930136 -0.048230104 0.060164403 0.093844324 0.09220041 0.111538805
0.047259428 0.064535916 0.10565791 -0.22447875 -0.0061851423 0.09488607 -0.119236514 0.011984488
0.04784733 0.120945886 -0.12358949 -0.011165449 0.074868076 -0.0047748173 -0.081269555 -0.014786754
-0.1738887 0.05604897 -0.044310458 -0.11842512 0.059857786 -0.19754992 0.07587702 -0.0303847
0.10916378 0.14127998 -0.051653814 -0.12757368 0.11796162 0.08800766 -0.061761223 -0.06037125
0.1152876 0.10026991 0.11082148 -0.08484566 -0.20379768 0.0070192292 -0.0384582 0.11400223
0.021558398 0.033067744 0.090086184 0.076911256 0.059483122 0.11978265 -0.12294678 -0.028623465
-0.06402138 0.10244734 -0.16217342 -0.11479671 -0.032651342 -0.20594665 0.114670835 -0.021229288
-0.14886728 -0.0008284068 -0.22018701 0.054501247 -0.16217555 0.13902433 0.015781712 0.054037083
-0.19536646 0.04400359 -0.099799395 0.07445123 -0.14799699 -0.011599705 -0.07486056 -0.036095977
-0.06423728 0.02955371 0.0883497 0.124310285 0.1036959 0.0048821224 -0.10657104 -0.010707123
-0.008857402 -0.05551284 -0.07904126 -0.06665212 -0.037551735 -0.039368555 0.06711726 -0.08020954
0.0024749087 -0.0052217524 0.031243872 0.024236055 0.1726556 0.17341629 0.121219106 -0.102467515
0.0034718663 0.043772534 -0.035209805 -0.017024253 0.045813274 0.04556314 -0.07753825 -0.028301705
-0.16940828 -0.054880396 -0.19621976 -0.030047478 0.0033537662 0.17712675 -0.117306165 -0.028151797
-0.21027051 0.06601012 -0.15136783 -0.046514895 0.04825162 -0.042612746 0.11124325 0.012901809
-0.18821813 -0.0948548 0.04145018 0.08742283 -0.0027882336 -0.13124159 0.08923386 0.07025764
0.08235788 -0.18693492 0.082278445 0.08773418 0.16159043 -0.22330333 -0.07814477 0.16390303
-0.120532565 -0.0028662654 0.17150334 0.02265156 0.02164085 -0.032471072 -0.0326216 -0.0758479
0.00044811703 0.074418396 -0.083309695 0.08386584 0.14305347 -0.08467007 -0.08857319 -0.104556985
0.04140614 -0.13416749 -0.09671777 -0.061528444 0.089440405 -0.01255073 -0.03234177 0.028942447
0.062114313 0.21200013 -0.16611062 -0.018617332 0.02524205 -0.060378004 0.039122585 0.0066136196
0.04610956 0.13811798 0.1419683 0.1265728 -0.19884378 0.17593828 -0.09483689 -0.007333925
-0.19013585 -0.017414149 -0.0224518 -0.02801393 0.0826782 -0.025272436 -0.052469462 -0.16421129
0.08864776 -0.0070666345 0.035884447 0.15373477 0.16104934 0.11066682 0.0930825 -0.033575885
0.069611065 -0.15421414 -0.11371156 -0.13215686 -0.19670172 0.00021283887 0.108661085 0.15983473
-0.047085498 0.05264683 -0.041680127 -0.015867613 0.11748636 -0.058138218 0.025056526 0.12940478

phi.6.bias f4 [10]
00000000: 3267 0cbe 1ba6 e03d 2deb 0cbd 62f8 94bc
00000010: 1c5a d63d f4e0 bcbd fe46 9abd c3fb a6bd
00000020: 7395 dc3d 053b 2a3d
-0.13711241 0.10969182 -0.03440397 -0.018184844 0.10466406 -0.09222594 -0.07533072 -0.081534885
0.10770693 0.04156019

psi.0.weight f4 [128, 11]
00000000: aa5b 7bbd 01c2 59be d0e0 7bbc 609a 5a3e
00000010: d347 d33d 38c0 fd3d d8e7 3dbe 184d 543d
00000020: 3d85 69be e0f1 20be 08e9 5ebe aeb3 b03d
00000030: 2271 10bd 95c2 30be 07b2 be3d 4bba 2dbe
00000040: 0669 1bbe a8e3 90ba c9ab 3b3d 9c5b 8f3b
00000050: 827a 283e 5c99 ea3c 94a1 193e b7de 623d
00000060: 15b5 7e3d 4000 11ba 998c 13bd 8af9 a1bc
00000070: 6247 233e a433 47be 4022 dc3d aa57 163e
00000080: 8d3e 3cbe ef47 09be cdff aa3c 4ba0 9ebe
00000090: 2c6b cc3d 2cc7 9cbd ebf1 9d3d 38df eebd
000000a0: 86a7 8b3e f005 53be d818 85be e84f 453e
000000b0: 84df c03c be52 9ebe c377 43be a0e0 39be
000000c0: 8437 d63d a508 3ebe 0f13 323e 1878 e8bd
000000d0: 8226 c63d 20c0 3cbe 1390 bf3d 36c0 643e
000000e0: b05e 0d3e 0802 223e 4900 4a3e a741 923e
000000f0: dc88 853d d2bd be3d cff9 7e3e ecec 8d3e
00000100: b43c 973e b985 9b3e 82d9 1b3e 9043 4cbe
00000110: aa05 423e 720e 5fbe 3d4e fd3d 7454 463e
00000120: ea30 4a3e 407e 03be fe09 a3bd 28a1 68bb
00000130: eb21 e0bd 8ac9 123e c6f1 6c3d b9ad 9abe
00000140: 608c 9fbd aadd 673d 539e 0f3e bdac 32bd
00000150: 2140 023c 467f b13d 5ffb 693e 8eea b0be
00000160: 00b3 3dbd f246 39be 0616 b63d 6e42 cbbd
00000170: a588 213e c89b 90ba 0ad6 27be fdae afbd
00000180: d785 c0bc 0854 aa3d 0144 a23d f5c4 1a3e
00000190: 6ca9 1abe 1e5d e8bd 89ec 803e 3b17 e2bd
000001a0: 7e29 6bbe ee55 3e3e 7c9a 833c ea1d 8dbe
000001b0: 0a97 4bbd 9e41 0d3e 793f 84be 196e 1b3e
000001c0: ff36 2c3e b940 07be f7f4 32bd 13b0 dc3d
000001d0: ae30 85be 580b 523e 3201 893d ed75 f63c
000001e0: ebb4 06be 4a00 3fbe 0f23 49be 9764 e8bd
000001f0: a8b1 80be a0a4 67bd 2c7a cfbc 9ee6 b4bd
00000200: 4172 80be bcbe 93bd 577d 9bbe af91 6ebe
00000210: 2ba9 813e 934c 89be a1c6 453d ef03 86be
00000220: 8b27 593e baf7 853d c03a 7ebd 0528 703e
00000230: 0fee 1a3e 5e9a d9bc 18a3 5b3d 071c f43d
00000240: 52f0 ecbd 0e89 60be 16ae 89be 2a2e 94be
00000250: b881 a53e fad0 0b3e 688a 2bbe 376e 9d3d
00000260: 7aac 7ebe 2843 833d 6a0a 6ebe a4fb 36be
00000270: cded 18be 19b5 8f3e dbf0 de3d 0bb4 07be
00000280: 2e1f fcbd 9dab ce3d badf d2bd ea5d 493e
00000290: ca4f 2a3e aa89 6e3d 94da 163e 331b 08be
000002a0: 6f86 e5bc c4a1 87be 57b0 98be 8fe2 6dbe
000002b0: b04e b7be f81b a23e 291a 20be 0cd6 efbd
000002c0: 1a61 b03d 66dd 5dbe 3a2e 103e a4a0 1fbd
000002d0: a737 293e 7bae 18be 54c5 81be 243f 3c3e
000002e0: f7bf 5ebe f71f 163d ae0d 0e3e dc39 2dbe
000002f0: 02f1 913e e2ec 9b3c 8ae5 87bd a1da d0bd
00000300: dcdb 64bd 043f 5abd 6812 6c3a 28e6 6a3e
00000310: e34f 093e 0a14 be3d d3ba a73e 2a62 94bb
00000320: 4a62 813e ed60 4abe 5a3a 35be 19a3 80be
00000330: cea2 6b3e 4448 853e 6b12 77bd d533 febd
00000340: bdaa 86bd 74f8 84bd 7c82 83be 0c1a ddbd
00000350: d8d6 1c3e f88b 29be 8989 7d3e b953 833d
00000360: 3eb3 c23d a629 6fbe 60fa dbbd 80d9 9bbc
00000370: 5bcc 1c3e 9476 3bbe df2d 90bd ef9e 5a3e
00000380: 3f67 073e cc84 4d3e 77f0 7a3e 191e d8bd
00000390: d237 30be aa6f b83c 45a7 48be 8882 1dbe
000003a0: 27ea abbe 0ee5 613d 9ce4 623e 3238 8fbd
000003b0: af53 60be c426 92be 97ee 423e 0aa0 b5be
000003c0: ff27 07be d545 6dbd b3aa 613d 1d69 f33d
000003d0: 189f 933d 30be c53d fe1b 0cbe 39d9 acbd
000003e0: d256 80be 06db 7cbd 2618 2dbe 62a4 063e
000003f0: 8c31 06bd 2100 20be 356c 18be a624 443e
-0.061366715 -0.21265413 -0.015373424 0.21347952 0.10316434 0.123901784 -0.18545473 0.051831335
-0.22804733 -0.15717268 -0.21768582 0.08628021 -0.03526414 -0.17261727 0.093113 -0.16965596
-0.15176782 -0.0011054175 0.045818124 0.0043749344 0.16452983 0.02863758 0.15003043 0.05538818
0.062184412 -0.0005531348 -0.036022756 -0.01977231 0.15945199 -0.19453293 0.1074872 0.14681879
-0.18383236 -0.13406347 0.020873928 -0.3098167 0.09981379 -0.076551765 0.07712158 -0.11663669
0.27276248 -0.20607734 -0.25995517 0.19268763 0.02354408 -0.30922502 -0.19088654 -0.18152094
0.104598075 -0.18557985 0.17390083 -0.11351031 0.096753135 -0.18432665 0.09353652 0.22338948
0.13805652 0.15821087 0.19726671 0.28565714 0.065202445 0.09313549 0.24899982 0.2771982
0.295385 0.3037546 0.15219691 -0.19947648 0.18947473 -0.21782854 0.123684384 0.19368154
0.19745222 -0.1284113 -0.0796089 -0.0035496447 -0.10943969 0.14334694 0.05784776 -0.30210665
-0.07790446 0.05660788 0.1402524 -0.043621767 0.00794986 0.086668536 0.22849797 -0.3455395
-0.046313286 -0.1809347 0.088909194 -0.0992478 0.15774782 -0.0011032755 -0.16390243 -0.08578298
-0.02350132 0.08316809 0.07923127 0.15114196 -0.15103692 -0.11345886 0.25180462 -0.11039587
-0.22965047 0.18587467 0.016064875 -0.27561885 -0.04970459 0.13794562 -0.25829676 0.15178718
0.16817854 -0.13208283 -0.043690648 0.10775771 -0.26013702 0.2051214 0.06689681 0.030085528
-0.13154952 -0.18652454 -0.1964228 -0.11347311 -0.2513554 -0.056553483 -0.02532681 -0.08833049
-0.2508717 -0.07214114 -0.30369064 -0.23297761 0.25324377 -0.26816234 0.04828513 -0.26174876
0.2120649 0.06541391 -0.062067747 0.23452766 0.15129875 -0.026562866 0.053622335 0.11919408
-0.11569275 -0.21927282 -0.2689063 -0.2894147 0.3232553 0.13653937 -0.16752017 0.076870374
-0.24870482 0.064092934 -0.2324616 -0.17869431 -0.14934464 0.28067854 0.10885783 -0.13252275
-0.123106346 0.100913264 -0.10296579 0.19664732 0.16632 0.058236755 0.14731818 -0.13291626
-0.028018204 -0.26490605 -0.29822037 -0.23230956 -0.3580222 0.31661963 -0.1563498 -0.11710748
0.08612271 -0.21666488 0.14080134 -0.03897156 0.16525136 -0.14910309 -0.25345862 0.18383461
-0.21752916 0.036651578 0.13872406 -0.16916603 0.28504187 0.019033853 -0.06635578 -0.1019795
-0.055873737 -0.053282753 0.00090054283 0.2293936 0.1340938 0.09281166 0.32759723 -0.0045283036
0.252703 -0.19763537 -0.1769804 -0.25124434 0.23011324 0.26031697 -0.0603203 -0.1241223
-0.065755345 -0.06492701 -0.2568549 -0.10795984 0.15316331 -0.165573 0.24759497 0.06412453
0.09506844 -0.23355731 -0.107411146 -0.01902461 0.1531233 -0.18306953 -0.07039999 0.21349691
0.13222979 0.20070189 0.24505793 -0.10552616 -0.17208794 0.022514183 -0.19595058 -0.15381825
-0.33577082 0.055150084 0.2215752 -0.0699314 -0.21906923 -0.285452 0.19036327 -0.35473663
-0.13198851 -0.057927925 0.055094432 0.11885283 0.07208079 0.09655416 -0.13682553 -0.084398694
-0.2506624 -0.061732315 -0.16903743 0.13148645 -0.032762095 -0.15625049 -0.14885028 0.19154605

psi.0.bias f4 [128]
00000000: b7bc 3abe f580 81be 988e c439 e315 ba3d
00000010: 0ae9 89be c30a 78be 9aac 45be a261 89bc
00000020: f8a6 e5bc 66e8 5fbe a69d 1ebe 3abb fb3d
00000030: 5485 ec3c 2c27 9fbe 6c6e 833e 7b37 663e
00000040: 0dd4 71be 0ea0 68be 47a5 60bd 9e01 2fbe
00000050: c3d4 d6bd 664f dc3d fe9b 603e 0ff9 323e
00000060: 98f0 8bbc 7ed5 643e c92c 413e f572 dcbd
00000070: bfba 263e 4da1 52be c695 aa3e 2bd2 04bd
00000080: fd2a 77be 98e8 50be 09c5 a6bd 0201 92be
00000090: 69b8 adbd 4649 3b3e 77c7 973d 5a57 033d
000000a0: b546 9f3d 9ace 4f3e 8ee3 643e cbf3 eb3d
000000b0: cbde a9be 0923 513e 1708 6f3e 026b 0b3e
000000c0: 14e8 5dbe 5f90 4a3e 7177 03be a81d 34be
000000d0: 10a6 00bc fc01 93be 12b0 003e 9971 d63d
000000e0: 8407 743e 3c42 3b3e 0149 973e 556c 28bd
000000f0: ec77 963e ced4 c8bd 7d18 9d3e 228e 98be
00000100: 553d 0a3e 4811 003e 3c96 2dbe a3ba 863e
00000110: b76f 3e3e 0615 213e a7de 4c3d 2310 59be
00000120: 6e37 973d c7bc 4e3e de82 5c3e d8b8 8abd
00000130: 67f2 7d3e 5759 ef3d 5dbf f8bd c049 1f3e
00000140: 13c1 55be f6e6 933e 83be 203e 674f e1bd
00000150: 7e9d 3bbd 291c 4f3e 34cb fabc c1ee 573e
00000160: 565f 37be 6f42 263c 1002 0cbe 9fe5 54be
00000170: 25f4 833e 56e4 2b3d a207 d13d 9bf3 813d
00000180: 376f a03e ab98 8dbe 7be9 463d b102 84be
00000190: 9c8a 363c 0925 f1bc f2e9 11be a5b8 2cbe
000001a0: ef5e 53bc 7cfd 6bbe 231f afbd 5c48 ad3a
000001b0: 5588 5a3d 90ce 963e 8d59 ab3d 4c98 6d3e
000001c0: c8cb a13d 79f8 883e 5975 e53d cb92 9a3b
000001d0: 7f95 b53d ce37 56be 9053 9e3e 2b9e 3dbe
000001e0: f2bd 75be cb25 5e3b 7f13 34be 0000 743e
000001f0: 93a5 81be 9f68 38be e575 fabd eccf 56be
-0.18236051 -0.252937 0.00037490274 0.09086206 -0.26935607 -0.24222855 -0.19304124 -0.016770188
-0.028033718 -0.21865997 -0.15489826 0.1229157 0.02887217 -0.31084573 0.25670183 0.22482102
-0.23616047 -0.22717306 -0.05484512 -0.1709046 -0.104898 0.107573316 0.21934506 0.17477821
-0.017082497 0.22347066 0.1886474 -0.10764114 0.16282175 -0.20569344 0.33317393 -0.032426994
-0.24137492 -0.20401227 -0.0814305 -0.28516394 -0.08482439 0.1828967 0.07411092 0.032065727
0.07777158 0.20293656 0.2235243 0.11521109 -0.3317779 0.20423521 0.2334293 0.13615039
-0.21670562 0.19781636 -0.12838532 -0.17589438 -0.007852092 -0.2871245 0.12567165 0.10470886
0.23830992 0.18286985 0.29547885 -0.04111894 0.29388368 -0.09806214 0.30682746 -0.2979594
0.13499959 0.12506592 -0.16951841 0.26314268 0.18597303 0.15730676 0.050017025 -0.21197562
0.07383619 0.201892 0.21534297 -0.067735374 0.247995 0.11686962 -0.12145875 0.15555477
-0.20874433 0.28887147 0.15697674 -0.11001473 -0.045804493 0.20225586 -0.030614473 0.21087171
-0.17907462 0.010147675 -0.13672662 -0.20790718 0.25772205 0.041965805 0.10206534 0.06345292
0.3133485 -0.2765554 0.048562508 -0.25783303 0.0111414455 -0.029436605 -0.142494 -0.16867311
-0.012901052 -0.23045915 -0.08550861 0.0013220417 0.053352673 0.2945447 0.0836669 0.23202628
0.07900196 0.2675207 0.11204023 0.004717206 0.08866405 -0.20919725 0.30923128 -0.18517368
-0.2399824 0.0033897038 -0.17585562 0.23828125 -0.25321636 -0.1800866 -0.12229518 -0.20977753

psi.2.weight f4 [128, 128]
00000000: ac29 bb3c afba e03c c0f4 323d 9cbd 473c
00000010: f8ae 2bbc d465 cc3c ee02 62bd 1277 da3d
00000020: 2685 083d 461a f4bd 554f 40bc 127a d2bc
00000030: 442d 92bd 004c bd3c 270b db3c 0bfe f03d
00000040: a6d6 613c 325e 7dbd 82d8 ec3b 7388 0abe
00000050: 0baa 5d3d 46c7 e4bb 7920 d1bc af5c 53bd
00000060: c899 24bd 4514 093e 434a 1b3d 37f6 f43d
00000070: e801 8d3c e253 a5bb 83bf 443d 6922 cdbc
00000080: 3871 913c 6e33 82bd be5c 41bd 1bc1 333d
00000090: 86ed b9bb 22af 943c 105c 9e3d 6a96 f4bc
000000a0: 2ded 7ebd dedc 433d cae2 273d 06d6 cfbd
000000b0: 9b6e cbbd 3a02 a93d aa7e 373d dc04 723c
000000c0: 80a7 9a39 1e2b 463d a2b6 80bc a157 863d
000000d0: 5d63 8b3d 2e46 66bd 36a0 8a3d c4ce c93d
000000e0: 3a9d d53d 7c68 903d 9173 aa3d 6353 8dbd
000000f0: ee51 d03d 9a0a a6bd eaf4 5bbc e285 cdbd
00000100: 4371 a53c ca2a a63d d132 9f3d f658 9b3d
00000110: 4c23 f13d 5df7 bf3d 0c71 8dbd a2b9 25bc
00000120: 5cc0 813d 06e4 4f3d 09c1 87bc 2872 49bd
00000130: 6a1e fe3b ad01 a4bd 35c4 f0bd 6b62 efbc
00000140: 109b 843a 0a69 ad3d 9d89 703d 0439 a33d
00000150: b870 d93a 4600 8b3d 2fcd cbbd 9aa9 9e3c
00000160: 1ea7 aabd 8ed0 36bd 0c80 f83c cc89 7c3c
00000170: 4a58 ff3d 1846 afbd 0c86 823d 9b89 a03d
00000180: c92e a33d ce6b b6bd b35d 56bc 7768 06bc
00000190: 3429 e5bc d0f4 00be dff9 6abd a620 eb3c
000001a0: a2e4 22bd e83e a8bc a459 8d3c 5888 ab3c
000001b0: 056b 05be f7b1 0f3e 38ff 183c 7a0b 31bd
000001c0: d9fc 4c3d d2d5 f43d 8c58 c73c cf6f 623c
000001d0: bf67 fe3d f630 7dbd aeb0 843d 066c 483d
000001e0: c79c bdbd 6d1d 133d 45bf c4bc 7d9a c4bc
000001f0: 0fee 56bd c9d7 5bbd 2a00 b7bd e8f3 3cbd
00000200: 4ce6 c83d 81ca a33d caf0 8f3c 0c04 f1bd
00000210: 30fa f93d aca3 ad3d bee5 83bc aa3d ec3d
00000220: 0ebd fe3c 9633 a73b 05fa 7d3c d5c8 eebd
00000230: 72f9 11bd d545 df3d 7475 b93c 6dc3 adbd
00000240: 8564 34bc cd42 eb3d bab1 eabb 0d96 fb3c
00000250: 14c6 44bb 8b9e cbbd 7446 3dbb 131c 44bc
00000260: 8098 23bd 5bd4 c2bd c4f6 e9bc f4da f63d
00000270: 0c32 76bd 82ad 983d 9452 b0bd 62f8 bfbc
00000280: 6cd3 20bd 02b3 4ebd 645b 14bd 4693 9e3d
00000290: d301 60bc b5be 82bd 36fa 693d 6bcc fabc
000002a0: e4af d23b 0035 f0b9 ca8e ddbd 36c8 bfbd
000002b0: aa79 903c 5291 c5bd 2696 323c b1ba ec3c
000002c0: 700a bfbc 0756 ddbc f7c7 203c 606e 9cbd
000002d0: f232 f9bd 1283 8f3d 7037 1e3d 40b4 c0bd
000002e0: e662 333d ca70 013d c5ad 5cbd ac9f 7dbd
000002f0: 939c 37bd 2edc 5a3c 9822 7fbb aa5a 8d3c
00000300: 5474 cbbd 565b 94bd b465 933d 98d9 0dbb
00000310: cf66 e8bd 8dfc dcbd 40ee 083d e4ed 373d
00000320: 6f68 96bd e6e3 d7bb 1441 64bc 64a6 b43c
00000330: ae77 83bd f2bc 9b3d 0862 65bc 2b7b dcbc
00000340: 816d d63d 428e bcbd f78f 383d 6cb2 21bd
00000350: fad8 823d 32ff 9d3c 589c dd3d f004 3cbb
00000360: 0b4d 4cbd ffef 3bbc 281f 03bd ad6b 25bd
00000370: 4cac 97bc dcd7 f9bc a6ef cb3c ec9a 3cbd
00000380: e95a f0bd 805d e13d 2309 bbbd 3208 8b3d
00000390: e639 333c 4d92 86bd f1aa 783d cf70 c13d
000003a0: daff f03b 8812 a73b 10d6 8a3d 1087 b3bb
000003b0: 8483 ffbd ad1f b9bc 8656 92bd 00cb 07b9
000003c0: 2f1d 853c e7b6 32bd c112 353d f182 dcbd
000003d0: fdbb 043e 3c4d 2abd 56c2 f8bc c6db db3c
000003e0: 2049 5fbc f08d 97bd 025d c13d e565 323d
000003f0: a571 3b3d 37f6 ad3d f347 c73d 8e89 edbb
0.02284702 0.027432768 0.043690443 0.0121912025 -0.0104787275 0.0249509 -0.055178575 0.10667242
0.033330105 -0.11919074 -0.011737664 -0.025692973 -0.0713754 0.023107529 0.026738716 0.11767205
0.013784086 -0.06185741 0.007227958 -0.13528614 0.054117244 -0.006981763 -0.02552818 -0.05160206
-0.04018572 0.13386638 0.03791262 0.11961024 0.017212823 -0.0050454 0.048034202 -0.025040822
0.017754182 -0.06357466 -0.047207586 0.04388533 -0.005674067 0.018149916 0.07732403 -0.02985688
-0.062237907 0.047818057 0.040987767 -0.101482436 -0.09933206 0.08252378 0.04479853 0.014771666
0.00029497966 0.048380964 -0.015712086 0.06559683 0.068060614 -0.056219272 0.06768839 0.098538905
0.10430379 0.07051179 0.08322824 -0.069006704 0.10171877 -0.08107491 -0.013425091 -0.10035302
0.020195609 0.0811363 0.07773364 0.07585327 0.117743105 0.09373353 -0.069063276 -0.010115059
0.06335518 0.05075457 -0.016571539 -0.049181134 0.0077550905 -0.08008132 -0.117561735 -0.029221734
0.0010117013 0.084673 0.05872499 0.07969859 0.0016589379 0.067871615 -0.09951245 0.019367982
-0.08332656 -0.044632487 0.030334495 0.015413713 0.12468012 -0.08558291 0.06373224 0.07838746
0.07967908 -0.08907281 -0.013083863 -0.008203617 -0.027973749 -0.12593389 -0.057367202 0.028702091
-0.039768822 -0.020537809 0.017254658 0.020939037 -0.13029106 0.14032732 0.009338193 -0.043223836
0.05004582 0.119548455 0.024334215 0.013820603 0.12422132 -0.06181427 0.064790115 0.048931144
-0.092584185 0.035916734 -0.024016986 -0.023999447 -0.052473124 -0.053672586 -0.08935578 -0.046131045
0.09809551 0.07997609 0.017570872 -0.1176835 0.122059226 0.084784836 -0.01610076 0.11535199
0.031096008 0.005102585 0.015501504 -0.116593994 -0.03563828 0.10901991 0.022639014 -0.0848454
-0.011010294 0.114873506 -0.0071623 0.030711198 -0.003002529 -0.09942349 -0.0028881105 -0.011969584
-0.039940357 -0.0951316 -0.02856005 0.12053481 -0.060106322 0.07454969 -0.086095005 -0.023433868
-0.039264128 -0.050463684 -0.03621997 0.07742934 -0.01367231 -0.06384031 0.057123385 -0.030615052
0.006429659 -0.00045815855 -0.108182505 -0.09364359 0.017636139 -0.09646858 0.010900056 0.028897615
-0.023320407 -0.02701856 0.0098133 -0.0763824 -0.1216792 0.070074216 0.038627088 -0.0940938
0.04379549 0.031601705 -0.053876657 -0.061919853 -0.044827055 0.013358159 -0.0038930532 0.017255146
-0.09934297 -0.072439834 0.07197133 -0.0021644589 -0.11347734 -0.10790358 0.033430338 0.044904605
-0.07344138 -0.006588447 -0.013931531 0.022051997 -0.064193115 0.07604398 -0.014000423 -0.0269142
0.10470105 -0.09206821 0.04505917 -0.039476797 0.06389041 0.019286726 0.10820836 -0.0028689466
-0.04987816 -0.011470794 -0.032012135 -0.04038589 -0.018514775 -0.030498438 0.024894547 -0.046046183
-0.1173609 0.11004162 -0.09132602 0.067886725 0.010939097 -0.065708734 0.060709897 0.09445345
0.0073547186 0.0050986446 0.067791104 -0.005478747 -0.124762565 -0.022598112 -0.07145409 -0.00012950227
0.016249267 -0.04363146 0.04420734 -0.107671626 0.12962337 -0.041577563 -0.030366104 0.026838195
-0.013628274 -0.07400119 0.09441568 0.043554205 0.045762677 0.084942274 0.0973052 -0.007249064

psi.2.bias f4 [128]
00000000: 7abd d43d 952e 0dbd 634b 1fbd 502b 07bb
00000010: d87e cf3c 265f 153c 0596 27bc def5 55bd
00000020: e8ac 8f3b 98d4 a5bc 3569 34bc e75d 833c
00000030: b34a 863d 3b6c 05be aaa5 9bbd 3acc 67bc
00000040: b8e7 80bd 2bcc 1ebd 4e33 9bbd 2e04 e0bc
00000050: 1c22 393c 7bdc a3bd ad01 14bd d5ba acbd
00000060: 605f e0bd 7948 e2bd e441 94bc 182e e8bd
00000070: 1f26 083d aab5 30bd 80fd 453d 7b5c 1cbd
00000080: c790 793d ae43 95bd 40d9 81bc d242 0cbc
00000090: f77b 623d 9635 97bd 5c2b f1bc 0852 05bd
000000a0: 645f 5d3d a3c3 08be 76f7 f63d b0c8 3abd
000000b0: 91d2 a23d 5c37 183b a232 9abc da5a 4b3d
000000c0: 7a16 9c3c 54d0 053e f92d bd3d 3b2b 013e
000000d0: cd97 99bc dc55 a13c 1a30 76bd a107 b63d
000000e0: 0f36 50bb c355 d93c 58a6 013e ba6e 0bbd
000000f0: e8ee 893d 0407 1ebc 8fb1 003e 4f3f 8bbd
00000100: 8271 e3bc 1c28 a03c 3392 9f3d 988c b4bc
00000110: f0d1 1c3d 25c7 323d 9c24 bb3c 8066 f3bd
00000120: 4be9 bc3d 5cb3 ac3d 64fe d8bd cc77 8fbd
00000130: 10e0 f9bd be40 d0bd 7d71 97bd 453b f93c
00000140: cfe4 f3bd 707f 783b abf2 86bc b1d8 f7bd
00000150: f63c 80bc 7135 973d e432 e7bc ccaf 263d
00000160: 9099 833d 9f28 053c abb7 e8bd 1d55 acbc
00000170: 977a fb3c 1da7 e63c d450 cdbd 86b3 f6bd
00000180: a372 1b3d c425 13bd c817 223d ac9d c8bd
00000190: 4627 4f3c 5806 09be a223 10be 7fde bb3d
000001a0: 489b 903d 1ff2 553d 7f58 963d 9a3a bbbc
000001b0: 4cc1 d33d 0a23 da3d 2aba 8d3c 4a3f 51bd
000001c0: 3ca1 b43b a359 2d3d 91f5 4bbd 2d60 fb3d
000001d0: 4a6a b63c 7a34 bdbd d3b9 58bd 8f9f 013e
000001e0: e02a f3bd dad9 18bd 6452 a6bd a5c2 8d3b
000001f0: c255 6f3c 2771 4fbc 9115 f0bd 4282 86bd
0.10387702 -0.034468252 -0.038890254 -0.0020625181 0.025329039 0.009116923 -0.010228639 -0.05223643
0.0043846257 -0.020242974 -0.011011411 0.016035987 0.065572165 -0.13029568 -0.07599957 -0.0141478125
-0.06294197 -0.03876893 -0.07578145 -0.027345743 0.011299636 -0.08001038 -0.03613441 -0.08434073
-0.10955691 -0.11048979 -0.018097825 -0.11336917 0.03323948 -0.043142 0.04833746 -0.038174134
0.060929086 -0.072882995 -0.015850663 -0.008560853 0.055294003 -0.073832676 -0.02943962 -0.032548934
0.05404605 -0.1335588 0.12058918 -0.045601547 0.079503186 0.0023226356 -0.018822972 0.04964719
0.019053686 0.13067752 0.09237284 0.12614147 -0.018749142 0.019694261 -0.060104467 0.08888174
-0.0031770503 0.026530152 0.12661111 -0.034041144 0.06735021 -0.009645227 0.12567733 -0.067991845
-0.027764086 0.019550376 0.07791557 -0.022039697 0.03828615 0.04364695 0.022844605 -0.11884785
0.092241846 0.084326476 -0.10595396 -0.07005271 -0.1220094 -0.101685986 -0.07394693 0.03042377
-0.11908876 0.0037917756 -0.016473135 -0.121018775 -0.015654068 0.0738324 -0.028222509 0.040694997
0.06425774 0.008127361 -0.11363157 -0.021036679 0.030698104 0.028155858 -0.10025182 -0.1204596
0.037951123 -0.035924688 0.03957346 -0.097956985 0.012643641 -0.13381326 -0.14076093 0.09173297
0.070608675 0.052232858 0.07341098 -0.022855092 0.10339603 0.106512144 0.017300684 -0.051085748
0.0055123847 0.042321812 -0.049794737 0.122742034 0.02226748 -0.09238525 -0.05291159 0.12658523
-0.11873412 -0.037317134 -0.081211835 0.004326182 0.014607849 -0.012661255 -0.117228635 -0.065678135
