classif_caus_model.pt (torch, 121663 bytes, 15 tensors)

phi.0.weight f4 [32, 20]
0	0x3dd8bef7	0.10583299
1	0xbe164fe0	-0.14678907
2	0x3d9b6311	0.07587255
3	0xbe169f25	-0.14709146
4	0xbe2f8a3b	-0.17142574
5	0xbe87388b	-0.26410326
6	0x3d265d3a	0.04061625
7	0x3d4d844a	0.05017499
8	0x3a297fde	0.0006465892
9	0x3dba86e1	0.09107757
10	0x3e38b086	0.18036088
11	0xbe39aad1	-0.18131568
12	0x3e065de4	0.13121754
13	0xbd5175e4	-0.05113782
14	0x3e3b7e43	0.18309884
15	0xbe196d28	-0.14983046
16	0xbe220541	-0.15822317
17	0xbdb47250	-0.08810866
18	0x3dadbb6d	0.08483014
19	0x3e1a55e6	0.1507183
20	0x3e0e3297	0.13886486
21	0xbe375fa4	-0.17907578
22	0x3e84b874	0.25921977
23	0xbdae0172	-0.084963694
24	0xbbe2e3e7	-0.0069241407
25	0xbd76e9fc	-0.06028174
26	0x3e2dbd51	0.1696675
27	0x3c91454f	0.017733244
28	0x3de132c7	0.10996013
29	0x3e34a819	0.17642249
30	0xbd9db55e	-0.07700609
31	0xbda7edf2	-0.08199681
32	0x3d43b2e0	0.04777801
33	0x3d4d9f28	0.05020061
34	0x3e35480f	0.1770327
35	0xbe331b7a	-0.1749095
36	0xbe1030f2	-0.14081171
37	0xbde1fd90	-0.11034691
38	0x3e3e8c81	0.18608285
39	0x3ddbbb97	0.10729139
40	0x3e4e05a6	0.20119342
41	0x3d12bdb3	0.035825443
42	0x3e7f1e59	0.2491392
43	0x3e337b16	0.17527422
44	0x3e2ff945	0.17184933
45	0xbe63b91b	-0.22238581
46	0xbd83fc27	-0.064445786
47	0x3e432716	0.19057879
48	0xbda61d7c	-0.081110924
49	0xbdbc2fc3	-0.09188797
50	0x3e2be11e	0.16785094
51	0xbc021bd9	-0.00794121
52	0xbe277cf6	-0.16356263
53	0xbe3d6dd6	-0.1849893
54	0x3d4ccf89	0.05000261
55	0xbcbb3b88	-0.022855535
56	0xbca00312	-0.019532714
57	0xbda254f3	-0.07926359
58	0x3e349125	0.17633493
59	0x3d3680d7	0.044556465
60	0x3e3c3c74	0.18382436
61	0x3d8a0306	0.06738858
62	0x3e2e2bb6	0.17008862
63	0xbe00297a	-0.12515822
64	0x3d9a5457	0.07535618
65	0xbdd9f727	-0.10642844
66	0xbc5fa953	-0.01365121
67	0xbe691af9	-0.22764196
68	0xbd633bfd	-0.05547713
69	0x3d971edd	0.073789336
70	0xbccd430f	-0.02505639
71	0x3dadb849	0.08482415
72	0x3e67653b	0.2259721
73	0xbe2459c4	-0.16049868
74	0xbd8f56a3	-0.069989465
75	0xbe110694	-0.14162666
76	0x3e28c76e	0.16482326
77	0x3e65dae9	0.22446789
78	0xbd881b17	-0.06645792
79	0xbe47d353	-0.19514208
80	0xbdd63338	-0.10458988
81	0x3be3a510	0.006947167
82	0x3c680b54	0.014162857
83	0x3e5ebe49	0.21752276
84	0xbc5f7825	-0.0136394845
85	0xbdffe6bf	-0.12495183
86	0x3d89abc5	0.067222156
87	0x3e220411	0.15821864
88	0xbe32f0ef	-0.17474721
89	0x3c308daf	0.0107759675
90	0xbe64c080	-0.22339058
91	0xbe4614ea	-0.19343916
92	0x3e56234f	0.20911907
93	0x3a9b98bc	0.001187108
94	0x3d6312f8	0.055438012
95	0xbe2778a9	-0.16354622
96	0xbe286d92	-0.16448048
97	0x3de98845	0.114029445
98	0x3d85f526	0.06540899
99	0x3dd0c2a2	0.10193373
100	0xbde79ef1	-0.113096125
101	0xbe3f633b	-0.18690197
102	0x3deffe1a	0.11718388
103	0x3e845d7a	0.25852567
104	0xbdf7f0d8	-0.12106484
105	0x3e8736e4	0.26409066
106	0x3d10c2f0	0.035342157
107	0x3d12cd0f	0.03584009
108	0xbdaf3943	-0.08555844
109	0xbdeba40d	-0.115058996
110	0x3e165343	0.146802
111	0xbe0bbe2b	-0.13646762
112	0xbdc6961a	-0.09696598
113	0x3e302f15	0.1720546
114	0xbb6cbde9	-0.0036123937
115	0x3e68ab79	0.22721662
116	0x3e22a770	0.15884185
117	0xbe1bfe77	-0.1523379
118	0xbda6d6a4	-0.08146408
119	0x3dd3997b	0.103320085
120	0xbe041079	-0.12896909
121	0x3e64828f	0.22315429
122	0xbb04a3aa	-0.0020239153
123	0x3e08c1f6	0.1335524
124	0xbde28dc6	-0.110621974
125	0x3d999669	0.074993916
126	0xbe413bd7	-0.18870483
127	0x3e05e9b5	0.13077433
128	0xbdd912eb	-0.105993114
129	0x3d19a186	0.037507556
130	0x3d855b17	0.06511515
131	0x3e2a38c8	0.16623223
132	0xbe1e6d2a	-0.1547133
133	0x3da449bc	0.08021876
134	0x3d958c1b	0.073021136
135	0xbdf01bdc	-0.11724064
136	0xbe750a7c	-0.2392978
137	0x3e1000c8	0.14062798
138	0xbe05f73c	-0.13082594
139	0x3e0c5bb4	0.13706857
140	0x3d0e7b9a	0.034785844
141	0xbdb29fa0	-0.08721852
142	0xbd479670	-0.048727453
143	0xbe306383	-0.1722546
144	0x3e82db1c	0.25557792
145	0x3e012d26	0.12614879
146	0xbe23411f	-0.1594281
147	0xbe6a7a42	-0.228982
148	0x3cc2f7d4	0.023799814
149	0x3c7294b6	0.014805963
150	0x3e658098	0.22412336
151	0x3e1f56e3	0.15560488
152	0x3dae2f60	0.0850513
153	0xbce8ebb1	-0.028432699
154	0x3e4695be	0.1939306
155	0x3e02e4f8	0.12782657
156	0xbe1ad7f6	-0.15121445
157	0x3e808b08	0.25106072
158	0xbde18765	-0.110121526
159	0x3df75478	0.12076658
160	0xbde0c31a	-0.10974713
161	0xbe5720e9	-0.21008648
162	0xbe006e53	-0.12542085
163	0xbddbea79	-0.107380815
164	0x3d74c8b8	0.059761733
165	0xbda9d6b2	-0.08292903
166	0x3e51c8d4	0.20486766
167	0x3d202cbb	0.03910516
168	0x3e225446	0.1585246
169	0x3dafdd2c	0.08587107
170	0x3d2843df	0.041080352
171	0x3c011627	0.007878817
172	0xbcae68f6	-0.021290284
173	0xbd56e058	-0.052460045
174	0xbe747324	-0.23872048
175	0xbc8d5c10	-0.017255813
176	0xbc863ff2	-0.016387913
177	0xbd9f6a61	-0.07783962
178	0xbe2d948d	-0.16951199
179	0x3e3caca6	0.18425235
180	0x3c96f6eb	0.018428287
181	0x3e13847f	0.14406012
182	0xbd22e65e	-0.039770477
183	0xbcab7000	-0.02092743
184	0xbd13d376	-0.036090337
185	0x3e542d58	0.20720422
186	0xbdf58328	-0.11987907
187	0xbe134642	-0.1438227
188	0xbe0fa0c9	-0.14026178
189	0x3d8446bf	0.06458806
190	0xbe21131e	-0.15729949
191	0x3e32cbcd	0.17460556
192	0x3d4dec46	0.050274156
193	0x3c014c28	0.007891692
194	0xbe4678a4	-0.19381958
195	0xbd73542c	-0.059406444
196	0xbd2da24b	-0.042391103
197	0x3d2f653b	0.04282115
198	0x3df33831	0.11875952
199	0x3dafb817	0.08580034
200	0x3cbda9f3	0.023152327
201	0xbe3dfa9b	-0.1855263
202	0xbe3415d6	-0.17586455
203	0xbde6d684	-0.11271384
204	0x3e38978a	0.18026558
205	0x3e487ed6	0.19579634
206	0xbd330295	-0.043703634
207	0xbe00e91f	-0.12588929
208	0x3e37d29b	0.17951433
209	0xbd8e2ecd	-0.0694252
210	0xbdbd8917	-0.092546634
211	0xbd3e4610	-0.046453536
212	0x3e09306e	0.1339738
213	0x3d7c8717	0.06165227
214	0x3e5b87f4	0.21438581
215	0xbe1751c9	-0.14777292
216	0x3dddd37d	0.10831354
217	0xbd9d0ca2	-0.07668425
218	0xbe192479	-0.1495532
219	0xbe51a4c1	-0.20473005
220	0x3db4d349	0.08829362
221	0xbdf41f44	-0.11920026
222	0xbe0819f2	-0.13291147
223	0x3cef62a3	0.029221838
224	0x3bd55cc4	0.0065113027
225	0x3c14cc19	0.009081864
226	0xbce8c410	-0.028413802
227	0x3e30a288	0.17249501
228	0xba93f918	-0.0011289446
229	0xbdd48185	-0.103762664
230	0x3e4950bf	0.19659708
231	0xbe2a86c8	-0.16652977
232	0x3d272d30	0.04081458
233	0x3ce51f24	0.02796895
234	0xbe22145b	-0.15828077
235	0xbd226ad6	-0.039652668
236	0xbe66b409	-0.22529615
237	0x3c034bd5	0.008013685
238	0x3da9f020	0.08297753
239	0xbcf5cc96	-0.03000478
240	0xbc4899e0	-0.012243718
241	0xbe6a2ae0	-0.22867918
242	0x3e309181	0.17243005
243	0xbe1cd0c9	-0.1531402
244	0xbd7dd880	-0.06197405
245	0x3e070d15	0.13188584
246	0x3e032af2	0.12809351
247	0xbe43d407	-0.19123851
248	0xbc91babb	-0.017789235
249	0xbddc8477	-0.10767453
250	0x3e89d82e	0.26922745
251	0xbe11681c	-0.14199871
252	0xbe1363e3	-0.14393573
253	0xbe6150fd	-0.22003551
254	0x3e4bfbc6	0.19920263
255	0x3e2f25a3	0.17104201

phi.0.bias f4 [32]
0	0xbd5a74b4	-0.053333953
1	0xbcc8307b	-0.02443718
2	0x3d23fc3a	0.040035464
3	0x3e12b3c4	0.14326388
4	0xbe656af1	-0.22404076
5	0x3cb4f08f	0.022087364
6	0x3e032ff1	0.12811257
7	0x3dcdf93f	0.100573055
8	0x3e18ddb2	0.1492832
9	0x3e325e83	0.17418866
10	0xbd3dc852	-0.04633362
11	0x3d9cdd89	0.07659442
12	0x3e2713e8	0.16316187
13	0xbce5a3a4	-0.028032131
14	0x3deecd3e	0.116602406
15	0x3e9ee77a	0.31035978
16	0xbda67911	-0.0812856
17	0xbc228969	-0.009920456
18	0xbc9a5130	-0.018837541
19	0x3e26ab46	0.16276273
20	0xbcbb3199	-0.022850798
21	0x3d970778	0.073744714
22	0xbd1bbec3	-0.03802372
23	0x3da82804	0.082107574
24	0xbdc9244a	-0.09821375
25	0x3ca3db8d	0.02000215
26	0xbe571451	-0.21003844
27	0x3c996ee6	0.018729638
28	0x3d71360d	0.058889437
29	0xbc1802cb	-0.00927801
30	0x3e2090bd	0.15680213
31	0x3dae85bc	0.085216016

phi.2.weight f4 [32, 32]
0	0xbc7df479	-0.015500181
1	0xbe224583	-0.15846829
2	0xbd972748	-0.07380539
3	0xbb69dfec	-0.0035686446
4	0x3db343ee	0.08753191
5	0x3e1253cb	0.14289777
6	0x3e20065b	0.15627424
7	0x3e21406f	0.15747236
8	0x3d0ef299	0.034899328
9	0x3d3cf64d	0.04613333
10	0x3e0f58e9	0.1399876
11	0x3d3fe05e	0.046844833
12	0xbdcb775c	-0.09934875
13	0x3e2d8045	0.16943462
14	0x3d158be8	0.036510378
15	0xbe56d73c	-0.20980543
16	0x3d1af7e7	0.037834074
17	0x3d9da9ce	0.07698403
18	0x3e059203	0.1304398
19	0xbc81d93d	-0.015850658
20	0x3de4604a	0.11151178
21	0xbd8f379a	-0.06993027
22	0xbdab354b	-0.08359774
23	0xbc3ef172	-0.011654245
24	0xbd37ce4a	-0.044874467
25	0xbdded826	-0.10881071
26	0xbde38b77	-0.11110585
27	0x3e5e0b8a	0.2168409
28	0xbdc40e7f	-0.095730774
29	0x3df51577	0.11966985
30	0x3e30aeba	0.17254153
31	0x3deb432e	0.11487423
32	0xbe202775	-0.15640052
33	0xbd540e16	-0.051771246
34	0x3cdd5138	0.027016267
35	0x3dca034c	0.0986391
36	0xbd9aba19	-0.075550266
37	0x3ded7bea	0.115959
38	0x3e6c7db2	0.23094824
39	0xbdaf3922	-0.08555819
40	0x3ddf561a	0.109050944
41	0x3ccd9d4b	0.025099417
42	0x3dca50ee	0.09878717
43	0x3e1fa57a	0.15590468
44	0xbd48d02c	-0.049026653
45	0x3dbd4a4e	0.09242688
46	0xbddd84b9	-0.108163305
47	0xbe0c212c	-0.13684529
48	0xbc398a85	-0.01132453
49	0xbdefe2ba	-0.117131665
50	0xbca200b7	-0.019775731
51	0x3de5f1c7	0.11227756
52	0x3e288671	0.16457535
53	0x3da5f2dc	0.081029624
54	0xbde3ae5c	-0.11117241
55	0xbdb52cbc	-0.08846423
56	0x3e24c30c	0.1609003
57	0x3db05ad9	0.08611078
58	0xbdaa7582	-0.08323194
59	0x3d7eb20b	0.062181514
60	0x3e192620	0.1495595
61	0xbdffee1e	-0.12496589
62	0xbdcdf0b8	-0.10055679
63	0x3cf5dbdc	0.030012064
64	0x3ce7aef2	0.028281663
65	0xbe233fc0	-0.15942287
66	0xbe28ce64	-0.16484982
67	0xbd2b3b44	-0.041804567
68	0x3dc1c6a0	0.09461713
69	0x3e148aa7	0.14506017
70	0x3e490f0a	0.19634643
71	0x3d33779f	0.04381525
72	0x3b728fa0	0.0037011877
73	0xbd903dcf	-0.07043039
74	0x3e3544c6	0.17702016
75	0xbd00baea	-0.031428255
76	0x3bc649ab	0.0060512624
77	0xbe09fa35	-0.13474353
78	0x3db544dc	0.088510245
79	0x3d78f56f	0.06078094
80	0xbe7dd522	-0.24788335
81	0xbe2bc884	-0.1677571
82	0x3dd6cb6b	0.10488018
83	0xbd103778	-0.03520915
84	0x3d22acc0	0.03971553
85	0xbdcaef2c	-0.099089
86	0xb8adf438	-8.294772e-05
87	0xbd0faa5c	-0.035074577
88	0x3c5e2efb	0.013561006
89	0xbdc57c3a	-0.09642835
90	0xbc97be14	-0.018523254
91	0x3d864ee1	0.06558014
92	0xbdcbd364	-0.09952429
93	0xbe117a07	-0.14206706
94	0x3cc02f1a	0.02345996
95	0x3e2c21c8	0.16809762
96	0x3e69803e	0.22802827
97	0xbcac940e	-0.021066692
98	0xbd16e1d0	-0.036836445
99	0x3e2d9fc8	0.16955483
100	0x3ddc61d4	0.10760847
101	0xbd4fae57	-0.050703373
102	0xbd82c2a2	-0.063847795
103	0x3cfc3bb4	0.030790187
104	0x3dbc8a4d	0.09206066
105	0xbd7b0f22	-0.06129373
106	0x3d862e49	0.06551797
107	0x3cdd8c01	0.027044298
108	0xbde6fc65	-0.11278609
109	0x3c8316c2	0.016002063
110	0x3ca3f5e3	0.020014709
111	0x3e6d3d53	0.23167925
112	0xbd4bf273	-0.049791764
113	0x3e5b5b5a	0.21421567
114	0x3d02b21d	0.031908143
115	0x3e44a24f	0.19202541
116	0xbdc70659	-0.097180076
117	0xbda4fc90	-0.08055985
118	0xbd23d9ed	-0.040002752
119	0xbdb1b044	-0.08676198
120	0x3d478854	0.048713997
121	0x3e2e75d6	0.17037138
122	0x3cd1a6fd	0.025592322
123	0xbd80cf99	-0.06289596
124	0x3e1bb462	0.1520553
125	0xbdf18faf	-0.117949836
126	0xbdc7cfa1	-0.09756399
127	0xbd50ce1d	-0.050977815
128	0xbc5c1839	-0.0134335095
129	0x3d6787ae	0.05652588
130	0x3dc9cfb1	0.09854067
131	0x3e333d13	0.17503767
132	0xbdda2264	-0.10651091
133	0x3e03e35c	0.128797
134	0xbb84e2e2	-0.004055367
135	0x3d46e842	0.048561342
136	0x3e03ddac	0.1287753
137	0xbe4ee960	-0.20206213
138	0x3d8f9c58	0.07012242
139	0xbdb8e21b	-0.09027501
140	0x3dbae6c7	0.091260485
141	0xbce24d3d	-0.02762472
142	0x3da80e36	0.082058355
143	0x3e32e97a	0.17471877
144	0xbc9a7fc8	-0.018859759
145	0x3e559f2c	0.208615
146	0xbe0b63d0	-0.13612294
147	0x3e292945	0.1651965
148	0xbd474fd4	-0.048660114
149	0x3d914573	0.070933245
150	0x3d956e56	0.072964355
151	0xbc57daf6	-0.013174763
152	0xbe25519d	-0.16144414
153	0xbd76700e	-0.060165457
154	0x3e4949be	0.19657037
155	0xbd347158	-0.044053406
156	0xbe2655da	-0.16243687
157	0xbd4f6908	-0.050637275
158	0xbdb0d49d	-0.08634303
159	0x3dd5006c	0.10400471
160	0x3d8c3e39	0.068478055
161	0xbd957740	-0.07298136
162	0x3dd4b371	0.10385788
163	0x3df42aa3	0.11922195
164	0x3bf0b5c5	0.0073458874
165	0xbcb3fcc5	-0.021971116
166	0x3be9d01a	0.0071354033
167	0xbd76caea	-0.060252108
168	0x3d6f0f5d	0.05836426
169	0xbe49aaf8	-0.19694126
170	0xbe68bdd5	-0.22728665
171	0x3d958bb7	0.07302039
172	0x3d569b0a	0.05239395
173	0x3ded88e2	0.11598374
174	0x3ddea8a8	0.108720124
175	0xbe213466	-0.15742645
176	0x3dd99e22	0.106258646
177	0xbe0aeb3d	-0.13566299
178	0xbd5916ad	-0.05300014
179	0x3dffac11	0.12483991
180	0xbe5731de	-0.21015117
181	0xbd4625e3	-0.048375975
182	0xbdfd83da	-0.12378664
183	0xbdcb8ca8	-0.099389374
184	0xbdaba038	-0.08380169
185	0x3e088011	0.13330103
186	0x3d56bbab	0.052425068
187	0xbddf8688	-0.10914332
188	0xbddc0632	-0.10743369
189	0x3ae9e89c	0.0017845812
190	0xbde43f03	-0.11144831
191	0x3da3b28d	0.0799304
192	0xbe03e9c3	-0.12882142
193	0x3e2f21e2	0.17102769
194	0xbdd2dd14	-0.102960736
195	0x3df1c267	0.118046574
196	0xbdcb712c	-0.09933695
197	0x3c9c218c	0.019058965
198	0xbd590f45	-0.052993078
199	0xbe5581b8	-0.20850265
200	0x3bdb87f1	0.006699555
201	0x3df8570c	0.12125978
202	0x3e0f0395	0.1396621
203	0xbd8b1b30	-0.06792295
204	0xbd310619	-0.043218706
205	0xbe3adc3c	-0.18248075
206	0xbd6d6dd7	-0.05796608
207	0xbc951528	-0.018198565
208	0x3d4ea39a	0.05044899
209	0x3caea967	0.021321012
210	0xbd80ed6b	-0.06295284
211	0x3df3d2d2	0.11905445
212	0xbe5d2ce8	-0.21599162
213	0xbe2305d2	-0.15920189
214	0xbe2bbfce	-0.16772386
215	0xbdb75482	-0.089516655
216	0x3cc7d6d9	0.02439444
217	0x3b3e1dc2	0.0029009436
218	0x3dceee31	0.10104025
219	0x3d0f57c0	0.034995794
220	0xbd8e930d	-0.069616415
221	0x3e160b55	0.1465276
222	0xbe57ec8e	-0.21086332
223	0x3dd7ef40	0.1054368
224	0x3e2a13ef	0.16609167
225	0x3ca38e6e	0.019965377
226	0x3da6b021	0.08139063
227	0xbdd3a892	-0.103348866
228	0xbe4dfead	-0.20116682
229	0x3c69422d	0.014236969
230	0x3d37a73c	0.04483722
231	0xbcbcc89c	-0.023044877
232	0xbdded2bf	-0.108800404
233	0x3dc8e993	0.09810176
234	0xbe2ea9f6	-0.17057022
235	0x3e5d2efc	0.21599954
236	0x3d34007c	0.043945774
237	0x3dc503bc	0.09619853
238	0x3bb1f219	0.0054304716
239	0x3b8c0d48	0.004274044
240	0x3e60d1ec	0.21955079
241	0x3d9ca619	0.07648868
242	0xbe2b1787	-0.16708194
243	0xbd25698b	-0.040383857
244	0xbdfebf6c	-0.124388546
245	0x3e2a4267	0.16626893
246	0x3d90ff93	0.07079997
247	0xbc6d1f6f	-0.014472826
248	0xbd84f4a4	-0.06491974
249	0x3bb832b1	0.0056212773
250	0x3e47aef5	0.19500335
251	0xbe157b36	-0.14597782
252	0xbda77829	-0.081772156
253	0x3e4611d1	0.19342734
254	0x3dd7675d	0.10517762
255	0xbb776979	-0.0037752076

phi.2.bias f4 [32]
0	0xbda933b7	-0.08261817
1	0xbe023072	-0.12713793
2	0x3d81d65e	0.063397154
3	0xbd5da106	-0.054108642
4	0x3dd0a332	0.10187377
5	0xbe540526	-0.20705089
6	0xbe336e8d	-0.1752264
7	0x3d8aeaeb	0.06783088
8	0xbd5033fd	-0.05083083
9	0x3d869dd3	0.06573071
10	0xbd20e5d4	-0.03928168
11	0x3d2290e4	0.03968896
12	0xbdcd15e1	-0.10013939
13	0xbddd4b7f	-0.10805415
14	0x3d2514d1	0.040303055
15	0x3d9a9f7a	0.07549949
16	0xbdfab0fb	-0.122407876
17	0xbdf5bfe7	-0.11999493
18	0xbe2c63a8	-0.16834891
19	0xbe2de619	-0.16982307
20	0x3dcebf4e	0.10095082
21	0x3cc7411f	0.024323044
22	0xbce41c83	-0.027845627
23	0x3c00b28f	0.007855072
24	0xbd624c0d	-0.05524831
25	0xbe0625eb	-0.13100402
26	0xbce34f04	-0.027747639
27	0xbd54f208	-0.05198863
28	0xbd877040	-0.06613207
29	0x3e310474	0.17286855
30	0xbe24aea2	-0.16082242
31	0x3e3155f0	0.17317939

phi.4.weight f4 [28, 32]
0	0xbd86abd2	-0.06575741
1	0x3c8beaaa	0.01707967
2	0xbdfd9f65	-0.12383918
3	0xbd53dd31	-0.051724616
4	0x3d06eddc	0.032941684
5	0xbd0fbeae	-0.035093956
6	0x3d9e418e	0.07727347
7	0xbdeae138	-0.11468738
8	0x3ba081d5	0.0048982897
9	0x3deefd04	0.11669353
10	0xbbc36d6d	-0.0059639723
11	0xbdd76944	-0.10518125
12	0x3e1bd8c9	0.15219416
13	0x3b94eb7e	0.0045446744
14	0x3db91718	0.09037608
15	0x3dd62a51	0.1045729
16	0xbbf63be9	-0.007514466
17	0xbd9c72f7	-0.07639115
18	0xbde56b8c	-0.112021536
19	0x3d307985	0.04308464
20	0xbe24b038	-0.16082847
21	0x3e20f8c7	0.15719901
22	0x3e44071c	0.19143337
23	0x3e26176c	0.16219872
24	0x3e167c1e	0.14695784
25	0xbc93b96b	-0.01803275
26	0xbda66449	-0.081245966
27	0xbe3132cf	-0.17304538
28	0x3e2040eb	0.15649764
29	0x3e2cc201	0.16870882
30	0xbe17a274	-0.14808065
31	0x3e51b9fb	0.20481102
32	0xbd8bd481	-0.06827641
33	0xbdc30dcb	-0.09524115
34	0xbe3772bb	-0.1791486
35	0xbb9136bb	-0.004431573
36	0xbe0d8f40	-0.13824177
37	0x3e189d9d	0.14903875
38	0x3e0188f1	0.12649895
39	0xbcd32e86	-0.02577902
40	0xbd88edfe	-0.066860184
41	0x3def3ee9	0.11681921
42	0x3d9608a6	0.07325868
43	0xbe308a13	-0.17240171
44	0x3e03f775	0.12887366
45	0xbc812048	-0.015762463
46	0xbe00d8e0	-0.12582731
47	0xbcfce5ce	-0.030871298
48	0x3c29fb46	0.01037485
49	0x3e07b249	0.13251604
50	0xbd263ee1	-0.04058731
51	0xbd09aa35	-0.033609588
52	0x3dc1d59e	0.09464572
53	0xbb9ec994	-0.0048458073
54	0xbd9bfdc0	-0.07616758
55	0x3d9d7aa6	0.07689409
56	0xbd8b044e	-0.067879304
57	0xbb136fe6	-0.0022497117
58	0xbe1cecfc	-0.15324777
59	0x3d996b48	0.074911654
60	0xbe2650b0	-0.16241717
61	0xbd2c959a	-0.04213486
62	0x3b91caaa	0.0044492083
63	0x3e532e26	0.20623073
64	0x3dfcfbad	0.12352691
65	0xbdf5b9d4	-0.119983345
66	0x3e235bb9	0.15952958
67	0xbdca7a57	-0.09886616
68	0x3d6c4290	0.057680666
69	0xbe163fd8	-0.14672792
70	0xbd835920	-0.064134836
71	0xbdf0b548	-0.11753327
72	0x3df366e0	0.11884856
73	0xbbdd56ac	-0.006754717
74	0x3d958c26	0.07302122
75	0x3d54ffbc	0.0520017
76	0xbc855201	-0.016274454
77	0x3e176392	0.14784077
78	0xbdaffe0e	-0.08593379
79	0xbd1cce05	-0.038282413
80	0x3dbfc670	0.09364021
81	0xbdaea0d6	-0.08526771
82	0xbe0b1f77	-0.13586222
83	0x3e00b811	0.12570216
84	0xbe3edb57	-0.18638359
85	0xbe640941	-0.22269155
86	0xbd841f47	-0.06451278
87	0x3d8bef57	0.0683276
88	0xbe67c734	-0.22634584
89	0xbd09a31d	-0.033602823
90	0xbd00f8de	-0.03148734
91	0x3dd754c8	0.105142176
92	0xbd68d472	-0.05684323
93	0xbcabab60	-0.020955741
94	0x3d3d22fa	0.046175934
95	0x3cf1e9ab	0.029530367
96	0x3d639370	0.05556053
97	0x3e449f54	0.19201404
98	0x3e094fb8	0.13409317
99	0xbd9276f8	-0.07151598
100	0xbe2b49e9	-0.16727413
101	0xbd020374	-0.031741574
102	0x3d04254f	0.032262143
103	0xbdc6d314	-0.09708229
104	0x3dfd1c07	0.123588614
105	0x3e43a3e3	0.19105487
106	0xbcb345fe	-0.02188396
107	0x3db1372e	0.08653103
108	0xbe6f872c	-0.23391408
109	0x3cc4a385	0.024003753
110	0xbe07d01e	-0.13262984
111	0x3ceb9760	0.028758705
112	0xbdf80af0	-0.12111461
113	0xbd7b0e24	-0.061292782
114	0x3de52459	0.111885734
115	0x3e37c411	0.17945887
116	0x3d642563	0.055699717
117	0x3c66a8cb	0.014078329
118	0x3c90939e	0.017648514
119	0xbe0d69d5	-0.13809903
120	0xbe1520f9	-0.1456336
121	0xbe019f8d	-0.1265852
122	0x3dc1aee7	0.09457188
123	0x3d055dd7	0.032560196
124	0xbda26546	-0.079294726
125	0x3e2805e3	0.16408496
126	0x3d525e10	0.051359236
127	0xbe388913	-0.1802104
128	0xbdcf6490	-0.10126603
129	0xbe373380	-0.1789074
130	0x3d24b26b	0.040209215
131	0x3e0d5a93	0.13804083
132	0x3e350983	0.1767941
133	0x3de293df	0.110633604
134	0x3e424d29	0.18974747
135	0x3cfe7f95	0.031066695
136	0x3be0aaa1	0.006856278
137	0x3e18ccd3	0.14921884
138	0x3e109d39	0.14122476
139	0x3e1cca0d	0.15311451
140	0x3e03365d	0.12813707
141	0x3dafd624	0.08585766
142	0x3e007a26	0.12546596
143	0x3e13f122	0.14447454
144	0xbd05c5fb	-0.032659512
145	0x3e105a8e	0.14097044
146	0xbd2d0696	-0.04224261
147	0x3d855f40	0.06512308
148	0x3e2d979c	0.16952366
149	0x3b2dc201	0.002651334
150	0x3d666d13	0.056256365
151	0xbddead4d	-0.10872898
152	0x3df44e89	0.11929042
153	0xbd191ae2	-0.037379153
154	0xbd426e6e	-0.047468595
155	0xbd1b111a	-0.037858106
156	0xbd583e54	-0.052793816
157	0x3e38e968	0.18057787
158	0x3dccb989	0.099963255
159	0x3e726374	0.23670751
160	0x3dd015cc	0.101604074
161	0x3dfe7f5e	0.12426637
162	0x3dba9fcf	0.09112512
163	0xbe020cea	-0.12700239
164	0x3e2bf4c6	0.16792592
165	0x3d474f22	0.04865945
166	0xbd0454c0	-0.032307386
167	0xbe1448e4	-0.1448093
168	0x3d4be44b	0.049778264
169	0x3d9213b3	0.071326636
170	0x3e10d1fc	0.14142603
171	0xbce796f8	-0.02827023
172	0x3c9795cc	0.018504046
173	0xbe3cb5d7	-0.18428741
174	0x3df72e82	0.120694175
175	0xbe00e762	-0.12588266
176	0xbe6557f4	-0.22396833
177	0x3d027152	0.031846352
178	0xbcf24930	-0.029575914
179	0xbe4c32aa	-0.19941202
180	0xbdb6cd1f	-0.089258425
181	0x3e414d4e	0.18877146
182	0xbd0b95cc	-0.034078404
183	0x3d3cd195	0.04609831
184	0x3b9267ce	0.004467941
185	0xbe2daae2	-0.16959718
186	0xbddeea60	-0.10884547
187	0x3e08b988	0.13352025
188	0x3e18d9d9	0.14926852
189	0x3de552f5	0.111974634
190	0xbd7d2ed2	-0.06181223
191	0x3df54464	0.11975935
192	0xbca8af82	-0.020591501
193	0x3cfa36c7	0.030543698
194	0x3e24e5ce	0.16103289
195	0x3e27e8f1	0.16397454
196	0x3e37ba65	0.17942198
197	0xbb90fbd6	-0.0044245524
198	0xbd821b39	-0.063528486
199	0x3e060f65	0.1309181
200	0x3e072c24	0.13200432
201	0x3e4b7512	0.19868878
202	0xbe29fc7d	-0.16600223
203	0xbd741a36	-0.05959531
204	0xbd9e7264	-0.07736662
205	0x3e2b458c	0.16725749
206	0xbd3573a6	-0.044299744
207	0xbd8b90fd	-0.06814764
208	0xbe3218a9	-0.1739222
209	0x3d2b96d7	0.0418919
210	0xbdb31988	-0.08745104
211	0x3cac8e65	0.021063993
212	0xbca851d1	-0.020546826
213	0x3cb103d2	0.021608267
214	0x3d259454	0.04042466
215	0x3def59f4	0.11687079
216	0x3e3a5c88	0.1819936
217	0xbe404766	-0.18777236
218	0x3d972976	0.07380955
219	0xbdf9c137	-0.12195056
220	0x3d525353	0.051348995
221	0x3e3055c6	0.1722022
222	0x3c37f84c	0.011228632
223	0x3db05948	0.08610779
224	0xbe206306	-0.15662774
225	0xbe4ef682	-0.20211223
226	0x3d5da878	0.054115742
227	0xbda52fa2	-0.08065726
228	0xbd54ab07	-0.051920917
229	0x3d2fae44	0.042890802
230	0x3d419e10	0.04726988
231	0x3e4fdb55	0.20298512
232	0x3de4b6b5	0.11167661
233	0x3df3a4e0	0.11896682
234	0x3e159b63	0.14610057
235	0x3dfe754c	0.12424716
236	0x3dc24d6c	0.09487423
237	0x3db970c2	0.0905471
238	0x3de34fb9	0.1109919
239	0x3e1c1f83	0.15246396
240	0x3e2db649	0.16964068
241	0xbc58dec4	-0.013236705
242	0x3d888d61	0.06667591
243	0xbd7e2797	-0.062049475
244	0x3dd59425	0.10428647
245	0x3df3431e	0.11878036
246	0x3e29ab87	0.16569339
247	0x3d7934f0	0.0608415
248	0x3da38c06	0.07985692
249	0xbe15184e	-0.14560053
250	0x3e35a846	0.17739972
251	0xbdae3248	-0.08505684
252	0x3df3f0a3	0.11911132
253	0xbcb4c5ef	-0.022067038
254	0x3d066136	0.03280755
255	0x3e39699a	0.1810669

phi.4.bias f4 [28]
0	0x3d49a6f7	0.049231496
1	0xbdd33bab	-0.10314115
2	0x3e0497df	0.12948559
3	0xbc8d3746	-0.01723827
4	0xbd03cc8f	-0.032177504
5	0xbe164ad1	-0.14676978
6	0xbd61868d	-0.05505996
7	0xbd25268a	-0.040319957
8	0x3d90bf7b	0.07067772
9	0x3d8816dd	0.06644986
10	0x3d0a43d5	0.033756096
11	0xbd96e1ba	-0.07367273
12	0x3d610c15	0.054943163
13	0xbc3f6b0b	-0.011683236
14	0xbb1f778b	-0.0024332728
15	0xbe132dc7	-0.14372931
16	0x3da37896	0.07981984
17	0xbe288cf4	-0.1646002
18	0x3cf8c2ee	0.030366387
19	0x3d3088f6	0.043099366
20	0xbe0353f2	-0.12824991
21	0xbd9711bb	-0.07376429
22	0xbdeb2e9d	-0.114835
23	0x3dcf0613	0.101085804
24	0x3df84581	0.12122632
25	0xbdbf913e	-0.093538746
26	0xbdf5bf64	-0.119993955
27	0xbc4f16db	-0.0126397265

phi.6.weight f4 [20, 28]
0	0x3df891c9	0.12137181
1	0x3e24d940	0.160985
2	0xbe38f2d6	-0.18061385
3	0xbe285273	-0.16437702
4	0x3ba6b51a	0.005087507
5	0xbe01f8c3	-0.12692551
6	0x3d3b866b	0.045782488
7	0xbe12d659	-0.1433958
8	0xbe0fa04b	-0.1402599
9	0xbcea89c9	-0.028630154
10	0xbdb4f29c	-0.088353366
11	0x3d82898c	0.06373891
12	0x3d27479d	0.04083978
13	0xbd22d36f	-0.03975242
14	0xbe16e749	-0.14736666
15	0x3cf73ef9	0.030181395
16	0x3d92b69f	0.071637385
17	0x3e414d7f	0.18877219
18	0xbd5d27ad	-0.053992916
19	0xbdfa7ef3	-0.12231245
20	0xbe02067a	-0.12697783
21	0x3df108df	0.1176927
22	0xbc1c0da0	-0.009524733
23	0x3e1f1346	0.15534696
24	0xbc627235	-0.013821174
25	0x3c4edf2f	0.012626453
26	0x3e28739b	0.1645035
27	0x3dee1e1b	0.11626836
28	0x3de96409	0.11396033
29	0xbdf473b7	-0.11936133
30	0xbdcf560e	-0.101238355
31	0x3d9d675e	0.07685731
32	0xbe47571a	-0.1946682
33	0xbdebf058	-0.11520451
34	0xbd3e6154	-0.046479538
35	0xbcc0554d	-0.023478175
36	0x3e3755c4	0.1790381
37	0xbd6378ae	-0.05553501
38	0xbc7b6ed2	-0.015346246
39	0x3da8a76e	0.0823506
40	0x3e6cfafd	0.2314262
41	0xbd2cb891	-0.042168204
42	0xbde99351	-0.114050515
43	0xbc549d0a	-0.012976894
44	0xbe1ca54f	-0.15297435
45	0x3de97361	0.1139896
46	0x3e60e668	0.21962893
47	0x3e422e39	0.18962945
48	0xbc8733ee	-0.016504254
49	0x3e3319b5	0.17490275
50	0xbd539c00	-0.051662445
51	0x3e2cc943	0.1687365
52	0x3d8c8b67	0.068625264
53	0x3d81e3ec	0.06342301
54	0x3e6a7c77	0.22899042
55	0x3ddb1f4e	0.1069933
56	0x3e12dcab	0.1434199
57	0xbe58e686	-0.21181688
58	0x3d8219ba	0.06352563
59	0x3ddc0650	0.107433915
60	0x3e1db5f3	0.1540144
61	0x3ddac1a8	0.10681468
62	0xbb14dabb	-0.0022713381
63	0xbde627fe	-0.11238097
64	0xbe07efc7	-0.13275062
65	0xbcb491eb	-0.022042235
66	0x3e33f2da	0.1757311
67	0x3da082f3	0.078374766
68	0xbe14bcc8	-0.1452514
69	0xbcfea065	-0.031082341
70	0x3e1c2c6e	0.15251324
71	0x3dcbac5d	0.09944985
72	0x3e337e3f	0.17528628
73	0xbe5f1131	-0.21783902
74	0xbd564288	-0.052309543
75	0xbd85bae2	-0.06529786
76	0x3d375707	0.04476073
77	0xbd68d1cd	-0.056840707
78	0xbd8639be	-0.06553982
79	0xbda0da61	-0.078541525
80	0x3d275625	0.04085364
81	0xbe2b01b3	-0.16699867
82	0xbd56a5ca	-0.052404203
83	0x3c30ddd7	0.010795078
84	0xbd746da1	-0.059674863
85	0xbdea35fb	-0.11436077
86	0xbe4ecd88	-0.20195591
87	0xbe13a1b1	-0.14417149
88	0xbe1bdc79	-0.15220822
89	0x3e36de95	0.17858346
90	0xbcc2c288	-0.0237744
91	0x3e05cf16	0.13067278
92	0xbc5207f7	-0.012819282
93	0x3dbd1ae1	0.09233642
94	0xbe188aac	-0.14896649
95	0x3dd90e72	0.10598458
96	0xbce0994a	-0.027416844
97	0x3d87ec85	0.066369094
98	0xbd837d9c	-0.064204425
99	0xbe0b3f16	-0.13598284
100	0x3e34de8d	0.17663021
101	0x3bd1c5e2	0.0064017633
102	0xbe31d5b8	-0.17366683
103	0xbde61930	-0.11235273
104	0x3dc437c4	0.09580949
105	0xbe2c247e	-0.16810796
106	0x3df96465	0.12177352
107	0xbe0b54cf	-0.1360657
108	0x3d180ca9	0.03712145
109	0x3d8544e4	0.065072805
110	0xbe3d8c02	-0.1851044
111	0x3d6496a5	0.05580773
112	0xbdd0820b	-0.10181054
113	0x3ae27719	0.0017277926
114	0xbdbbe265	-0.09174041
115	0xbd99c566	-0.07508354
116	0xbe3df968	-0.18552172
117	0x3dc0b51a	0.094095424
118	0x3d52b025	0.051437516
119	0xbe2dba88	-0.16965687
120	0xbdc5aca7	-0.096520714
121	0x3daef1fc	0.085422486
122	0x3e13c1d2	0.14429405
123	0x3b4f37c9	0.0031618944
124	0x3d352392	0.044223376
125	0x3de91622	0.113811746
126	0xbdaeb209	-0.08530051
127	0x3cedf899	0.029049205
128	0xbc12c5fe	-0.008958338
129	0x3d285399	0.04109535
130	0x3d213733	0.039359283
131	0xbdac5a82	-0.084157005
132	0xbe7fab6a	-0.24967733
133	0xbddfeece	-0.1093422
134	0xbe471d9f	-0.19444893
135	0x3dd980de	0.106202826
136	0xbdacae23	-0.084316514
137	0xbe1574a6	-0.14595279
138	0x3e4b0c83	0.19828992
139	0x3df18999	0.11793823
140	0x3d65d709	0.056113277
141	0x3ca3d788	0.020000234
142	0x3cf3e2e4	0.029771276
143	0x3e19e5e4	0.15029103
144	0xbe4242a0	-0.18970728
145	0xbda472a8	-0.080296814
146	0xbdf3bcda	-0.11901255
147	0xbe4b1018	-0.19830358
148	0xbc5e3b4e	-0.013563944
149	0xbdebae3a	-0.115078405
150	0x3cd966c3	0.026538258
151	0xbc0c5165	-0.008564328
152	0x3d80ef61	0.06295658
153	0x3dc8b553	0.0980021
154	0xbcaac579	-0.020846115
155	0x3d873651	0.06602157
156	0x3d4af989	0.04955438
157	0x3e40a56f	0.18813108
158	0x3d77e225	0.060518403
159	0xbe118435	-0.14210589
160	0xbe178210	-0.14795709
161	0x3d3f0eea	0.046645083
162	0xbe178bfb	-0.14799492
163	0x3e38c87a	0.18045226
164	0x3d48af37	0.048995223
165	0xbe2362bd	-0.15955634
166	0xbd7208e5	-0.059090514
167	0x3e2120e6	0.15735206
168	0xbccfe00d	-0.02537539
169	0xbc1f6bbf	-0.0097302785
170	0x3d5a6e51	0.053327862
171	0x3c0513be	0.008122383
172	0xbbf2e988	-0.007413093
173	0xbdb7ce49	-0.08974893
174	0xbe228621	-0.15871479
175	0xbda22089	-0.07916362
176	0x3bcf304b	0.0063228956
177	0xbdee5971	-0.11638153
178	0xbda05b27	-0.07829886
179	0x3df7d5dc	0.12101337
180	0x3e216adb	0.15763418
181	0x3cbf1eee	0.023330178
182	0x3e178d8c	0.1480009
183	0x3e295e4c	0.16539878
184	0xbc8ecc79	-0.017431485
185	0xbd2bf239	-0.04197905
186	0x3dcb8ce3	0.099389814
187	0x3e07f07d	0.13275333
188	0xbe7e75eb	-0.2484967
189	0x3d4ccd9e	0.05000078
190	0xbe17a8cc	-0.14810485
191	0xbde1cbde	-0.11025213
192	0x3c8c9aaf	0.017163603
193	0xbd92704a	-0.07150324
194	0x3e4be321	0.19910862
195	0x3e3c3ac5	0.18381794
196	0x3c733a53	0.014845449
197	0xbd26d3b5	-0.040729243
198	0x3db489fe	0.088153824
199	0x3e2486e4	0.16067082
200	0x3d5dabc6	0.054118894
201	0x3dea789f	0.11448788
202	0x3c4419c2	0.011969032
203	0x3dc2178e	0.09477149
204	0xbe1173b7	-0.14204298
205	0xbdfd4e08	-0.12368399
206	0xbda855bd	-0.08219478
207	0xbe24cae7	-0.16093026
208	0x3e48dd21	0.19615604
209	0x3d9245a4	0.07142189
210	0x3de9b703	0.1141186
211	0xbd1ec9eb	-0.038766783
212	0xbd31103b	-0.04322837
213	0xbdc07534	-0.09397355
214	0xbce26911	-0.02763799
215	0xbdc70e81	-0.09719563
216	0xbca37a8a	-0.019955892
217	0x3dc0e849	0.09419305
218	0x3d511ab4	0.051050857
219	0x3e4fa057	0.20276009
220	0xbdf48e48	-0.119412005
221	0xbdd27d19	-0.10277767
222	0x3ce8080b	0.028324148
223	0x3dac0686	0.08399682
224	0x3b4b5f87	0.003103228
225	0xbcdd6187	-0.027024044
226	0xbdf60799	-0.12013168
227	0xbc8c737c	-0.017144911
228	0x3e115712	0.14193371
229	0xbc949914	-0.0181394
230	0x3d677560	0.056508422
231	0xbdd39f60	-0.10333133
232	0x3de4be45	0.111691035
233	0xbd32abc3	-0.043620836
234	0x3ddcd880	0.107834816
235	0x3deb6b1e	0.1149504
236	0xbe47becd	-0.19506378
237	0x3d335179	0.04377887
238	0xbd6a4246	-0.05719211
239	0xbdbc41ad	-0.09192214
240	0x3c3233a3	0.010876569
241	0xbcc7ac72	-0.02437422
242	0x3d669c2f	0.056301292
243	0xbe41f5e6	-0.18941459
244	0xbcc78fdb	-0.024360588
245	0x3e3401b4	0.17578775
246	0xbd3af512	-0.045643874
247	0xbe168bd5	-0.14701779
248	0x3bc3d4a8	0.0059762783
249	0xbce4ded8	-0.027938291
250	0xbc819da6	-0.015822243
251	0xbcd44f11	-0.025916608
252	0xbc3f64f5	-0.011681785
253	0x3de35dd0	0.11101878
254	0x3e22e318	0.15906942
255	0x3e35136d	0.17683192

phi.6.bias f4 [20]
0	0x3cd61fbd	0.02613818
1	0x3e477739	0.19479074
2	0xbd75b778	-0.059989423
3	0xbe2ae1c5	-0.16687687
4	0x3e43e898	0.19131696
5	0xbd7c6a7d	-0.061624993
6	0x3db6c547	0.089243464
7	0x3e2b3c99	0.16722335
8	0x3dea7da6	0.11449747
9	0xbdef9477	-0.11698239
10	0xbdcecf28	-0.10098106
11	0xbdf1fff0	-0.11816394
12	0x3dc78411	0.097419865
13	0x3e233413	0.15937833
14	0xbe32576d	-0.17416163
15	0x3dc3deea	0.09564002
16	0xbcb9424e	-0.022614624
17	0x3e0ad639	0.13558282
18	0x3d663c5e	0.056209914
19	0xbd0abbbf	-0.033870455

psi.0.weight f4 [128, 21]
0	0x3d813cfb	0.06310459
1	0xbd8f9bac	-0.07012114
2	0xbe4e4a5a	-0.2014555
3	0x3e3e6877	0.18594538
4	0x3da2eda8	0.079554856
5	0xbe8693f2	-0.26284748
6	0x3d2f9261	0.042864207
7	0xbcaafdcd	-0.020872975
8	0x3a276782	0.00063859683
9	0xbd09a10d	-0.033600856
10	0xbd7f146a	-0.062275328
11	0xbe31d131	-0.17364956
12	0x3e0ef83b	0.1396188
13	0x3d4e8922	0.05042375
14	0x3db65126	0.089021966
15	0x3db4b545	0.08823637
16	0x3d1b2236	0.037874423
17	0x3e0b2df3	0.13591747
18	0xbe8768bb	-0.2644709
19	0x3de6aef7	0.11263841
20	0x3e11a925	0.1422468
21	0xbcb2a60c	-0.021807693
22	0xbdd614d2	-0.1045319
23	0x3d8c00e5	0.06836108
24	0x3dff32e4	0.124608785
25	0xbe38f69d	-0.18062826
26	0xbdf699a3	-0.12041023
27	0x3e26e71e	0.16299102
28	0xbe5ff67a	-0.21871367
29	0xbe4f0042	-0.20214942
30	0x3b5e9379	0.0033962412
31	0xbded4f06	-0.11587338
32	0xbdd9eb50	-0.106405854
33	0xbd20534f	-0.03914195
34	0xbd160f9b	-0.036635976
35	0x3e52aa4c	0.20572776
36	0xbda1ab9c	-0.0789406
37	0x3dcdcccb	0.10048827
38	0xbd9f48a8	-0.0777753
39	0x3cf3c8c1	0.029758813
40	0x3dfdeb7f	0.12398433
41	0x3cf55ecc	0.02995243
42	0xbd844db3	-0.064601324
43	0x3df89271	0.121373065
44	0xbda910c1	-0.08255149
45	0x3e1ef923	0.15524726
46	0xbe41e7e6	-0.18936118
47	0x3d51cb2c	0.05121915
48	0xbdecca69	-0.11562044
49	0x3deea423	0.116524
50	0x3e3940a9	0.18091072
51	0x3e3dd42a	0.18537965
52	0x3e57189d	0.21005483
53	0x3db876a5	0.09007005
54	0x3dd97742	0.1061845
55	0x3e3b5713	0.18294935
56	0xbe1f486e	-0.15554973
57	0xbdfb941a	-0.122841075
58	0x3dc14ee6	0.09438877
59	0x3cf6503b	0.030067554
60	0xbd6e480d	-0.05817418
61	0x3e117ac2	0.14206985
62	0x3c398ca7	0.011325038
63	0xbe005b03	-0.12534718
64	0xbe207a14	-0.15671569
65	0xbdb423e3	-0.08795907
66	0x3dcc7fce	0.09985314
67	0x3c50081c	0.012697246
68	0x3e6fab70	0.23405242
69	0x3cc04ce6	0.023474168
70	0xbe69a4e0	-0.22816801
71	0xbe7386a6	-0.23781833
72	0xbb62317f	-0.0034514365
73	0xbc8c327c	-0.017113917
74	0xbdf081c4	-0.11743501
75	0x3dbaa8bb	0.09114214
76	0x3dab1ec4	0.083554775
77	0xbe484888	-0.19558918
78	0x3e14d93e	0.14535996
79	0x3d630377	0.055423226
80	0xbe249f14	-0.16076308
81	0x3e63fe03	0.22264867
82	0x3d667cfa	0.05627153
83	0xbe28d015	-0.16485627
84	0x3d897b73	0.06712999
85	0x3dc17e20	0.094478846
86	0xbdd466e8	-0.1037119
87	0xbd8d0bd1	-0.068870194
88	0xbe1be6d6	-0.15224776
89	0x3de15ecc	0.11004409
90	0x3d45f5f9	0.04833028
91	0xbdfd2b7a	-0.12361808
92	0xbd2cf949	-0.042229924
93	0x3e2114ed	0.15730639
94	0x3c2120f9	0.009834521
95	0x3e38c57a	0.18044081
96	0xbe0224da	-0.1270937
97	0xbe3683c8	-0.17823708
98	0xbdf6510f	-0.120271794
99	0x3df79877	0.12089627
100	0xbd1993e9	-0.037494574
101	0xbe7e7b42	-0.24851707
102	0x3de28550	0.110605836
103	0x3dd94a6a	0.106098965
104	0x3d9df0fe	0.07711981
105	0xbdda460a	-0.1065789
106	0xbe51dece	-0.2049515
107	0x3d983b81	0.074332245
108	0x3dd75f6f	0.105162494
109	0xbe39ab36	-0.18131718
110	0xb9fd1f17	-0.00048279084
111	0xbb22fd70	-0.0024870299
112	0x3d224188	0.039613277
113	0x3e6a364b	0.22872274
114	0xbcd8a1f6	-0.026444416
115	0xbdca2a2c	-0.09871325
116	0xbe6f9110	-0.2339518
117	0xbd6413b0	-0.055682838
118	0xbbf58ba1	-0.0074934517
119	0x3e342946	0.1759387
120	0x3d91666a	0.07099612
121	0x3d55c57d	0.052190293
122	0xbc9cba09	-0.019131677
123	0xbe586727	-0.211331
124	0x3dec2e1a	0.11532231
125	0x3e050d0e	0.12993261
126	0xbdd3fa87	-0.10350519
127	0x3e155c87	0.14586078
128	0xbe820bdd	-0.25399676
129	0xbdfccc17	-0.123436145
130	0x3d89b9f0	0.06724918
131	0x3e5c700c	0.21527117
132	0x3d62824b	0.05530004
133	0x3da631e9	0.08114988
134	0xbe704729	-0.23464645
135	0x3e38dcc3	0.18052964
136	0xbcec20ef	-0.028824298
137	0xbbb5ade2	-0.00554441
138	0x3ea20016	0.3164069
139	0x3d0efcf1	0.034909192
140	0xbe292843	-0.16519265
141	0x3c0f0837	0.008729986
142	0xbea0bbe8	-0.3139336
143	0xbd90136e	-0.07034956
144	0x3ded8232	0.115970984
145	0x3d02c512	0.031926222
146	0xbd8e239e	-0.06940387
147	0x3dafdfcb	0.08587607
148	0x3e375859	0.17904796
149	0x3e1c7092	0.15277317
150	0x3e1f5e00	0.15563202
151	0xbde69621	-0.112591036
152	0x3dc4ea2d	0.09614978
153	0xbda55a03	-0.08073809
154	0x3b9ead25	0.004842418
155	0xbe2daeba	-0.16961184
156	0xbe0e2bee	-0.13883945
157	0xbe60b8ca	-0.21945491
158	0x3d0bbd74	0.034116223
159	0xbe820981	-0.25397876
160	0x3cfd0a72	0.03088877
161	0x3e09fb5b	0.13474791
162	0xbe023e7c	-0.12719148
163	0xbd2650e1	-0.040604476
164	0x3e3e4c75	0.18583854
165	0xbcffa968	-0.031208709
166	0xbdf59a42	-0.11992313
167	0x3e32a196	0.17444453
168	0xbde256a5	-0.110516824
169	0xbe053218	-0.1300739
170	0xbdc5e5c8	-0.09662968
171	0xbe09ec79	-0.13469113
172	0x3e6dda58	0.23227823
173	0x3dae87da	0.085220054
174	0x3d50dcdd	0.05099188
175	0x3e6b55e9	0.22981991
176	0x3b09a489	0.0021002612
177	0xbdc97571	-0.09836853
178	0xbe4d52c1	-0.200511
179	0xbe3385d1	-0.17531516
180	0x3e058966	0.13040695
181	0x3e86723a	0.26259023
182	0x3b85e919	0.0040866253
183	0xbdc56550	-0.096384645
184	0xbd02f5bd	-0.031972636
185	0x3db23ad8	0.0870263
186	0x3e66a39c	0.2252335
187	0x3dc10b50	0.09425986
188	0xbd94f315	-0.07272927
189	0x3e14687d	0.14492984
190	0xbdfdb1f2	-0.12387456
191	0x3e0c5850	0.13705564
192	0xbd915d81	-0.070979126
193	0x3e509ec1	0.2037306
194	0x3cc981ce	0.024598029
195	0x3e72c816	0.23709139
196	0x3e34cfc7	0.17657386
197	0xbe214133	-0.15747528
198	0xbd73a0f2	-0.05947966
199	0x3e11e185	0.14246185
200	0x3de0b457	0.10971897
201	0x3d919d82	0.0711012
202	0xbe18640c	-0.14881915
203	0xbca3a5d3	-0.019976532
204	0xbe3fe365	-0.18739088
205	0x3c8b4189	0.016999023
206	0xbe796564	-0.24355084
207	0x3da31c3e	0.07964371
208	0xbddcb6d0	-0.10777056
209	0xbdafac9d	-0.08577845
210	0xbcd60fe3	-0.026130622
211	0x3e508095	0.2036155
212	0xbbceb5c6	-0.00630829
213	0x3d61323b	0.054979544
214	0xbe187287	-0.14887439
215	0xbde98256	-0.11401813
216	0x3d2075f4	0.03917499
217	0x3e024145	0.12720211
218	0xbe2a74e6	-0.16646156
219	0x3e36d25f	0.17853688
220	0xbd18e678	-0.037329167
221	0xbe161713	-0.1465724
222	0xbe82bd41	-0.25535014
223	0x3dc6e158	0.0971095
224	0x3b2ab0b8	0.0026045274
225	0xbdc61638	-0.09672207
226	0x3e5fc3f0	0.21852088
227	0xbdc33ffb	-0.09533688
228	0x3d0bdf6f	0.03414863
229	0x3ca8d848	0.020610943
230	0x3e3f5f47	0.18688689
231	0x3e324f6b	0.17413108
232	0xbe367b84	-0.17820555
233	0xbd0f1cb3	-0.03493948
234	0x3e150b02	0.1455498
235	0xbdd5f8ac	-0.10447821
236	0x3df7ccc9	0.120996065
237	0xbd0c2488	-0.034214526
238	0xbd058f55	-0.032607395
239	0xbe359c53	-0.17735414
240	0x3e2626a7	0.16225682
241	0x3d9e7d0d	0.07738695
242	0x3e6ab360	0.22919989
243	0xbc11f883	-0.0089093475
244	0x3ddfbaa8	0.10924274
245	0xbe27835c	-0.16358703
246	0x3c59ea2a	0.013300458
247	0xbd6485bf	-0.055791613
248	0xbe852ab4	-0.26009142
249	0x3e00da26	0.12583217
250	0x3e4b6781	0.19863702
251	0xbe081372	-0.13288668
252	0xbd93077f	-0.07179164
253	0xbdc46245	-0.09589056
254	0xbd98abbb	-0.0745463
255	0x3e07bff9	0.13256826

psi.0.bias f4 [128]
0	0xbd0356d4	-0.032065228
1	0xbdd65862	-0.104660764
2	0x3e4dd010	0.20098901
3	0x3c2b51ad	0.010456485
4	0xbe6cec4c	-0.23137015
5	0x3e0ac4df	0.13551663
6	0xbc48ea71	-0.012262926
7	0x3d2347d8	0.039863437
8	0x3dd2e0b9	0.10296769
9	0xbe103284	-0.1408177
10	0xbd0a8832	-0.033821292
11	0xbce366a4	-0.027758904
12	0x3dc4b863	0.096054815
13	0xbd32b776	-0.043631993
14	0xbc2b436e	-0.010453088
15	0x3e172ad0	0.14762425
16	0xbaff51b9	-0.0019479311
17	0x3d9d254a	0.07673128
18	0xbe205a6b	-0.15659492
19	0xbddcdc77	-0.10784238
20	0xbe152c72	-0.14567736
21	0x3e084828	0.13308775
22	0xbe22dc4d	-0.1590435
23	0x3e5e546d	0.21711893
24	0x3c84cd56	0.016211193
25	0x3e390f33	0.18072204
26	0x3d8c764e	0.06858502
27	0xbd85d566	-0.06534843
28	0x3c7141b3	0.014725137
29	0xbd9de5d6	-0.07709853
30	0xbcbf2e6b	-0.023337563
31	0x3d82d902	0.06389047
32	0x3dcb401e	0.09924339
33	0x3da7d712	0.08195318
34	0x3dc15712	0.094404355
35	0xbd1bae8e	-0.038008265
36	0xbe662c11	-0.22477747
37	0x3e1862d6	0.14881453
38	0x3e46be2e	0.19408485
39	0x3daca300	0.08429527
40	0x3d939449	0.072060175
41	0x3d860f69	0.06545908
42	0x3e2b322d	0.1671836
43	0x3e574b5a	0.21024838
44	0x3e1ae079	0.15124692
45	0xbde1ff51	-0.11035026
46	0x3d78ef33	0.060774993
47	0x3e395291	0.18097903
48	0x3dffbda6	0.124873444
49	0x3e44d0b3	0.19220237
50	0xbdbb8b9b	-0.09157487
51	0xbe049884	-0.12948805
52	0xbc94f650	-0.018183857
53	0x3e048a17	0.12943302
54	0x3c1b1775	0.009466042
55	0x3e699826	0.22811946
56	0xbd99d652	-0.075115815
57	0xbd5c6da6	-0.053815506
58	0x3d011685	0.031515617
59	0xbe174ce5	-0.14775427
60	0xbe554591	-0.20827319
61	0x3dcab294	0.09897342
62	0xbd187814	-0.03722389
63	0x3e3749f6	0.17899308
64	0xbe3ad059	-0.18243541
65	0x3df82918	0.12117213
66	0x3c44fd81	0.012023331
67	0x3d460803	0.048347484
68	0x3d167b29	0.03673855
69	0xbd37398d	-0.04473262
70	0x3d4cd6c3	0.0500095
71	0x3dcfa501	0.10138894
72	0x3d6eb206	0.058275245
73	0xbe7a3e26	-0.2443777
74	0x3e3f5da8	0.18688071
75	0xbe42b470	-0.19014144
76	0xbe1a3ab9	-0.15061463
77	0x3e0f9fd9	0.14025821
78	0xbe0aa632	-0.13539961
79	0x3e5c1598	0.21492612
80	0x3dd8fa8e	0.105946645
81	0x3d9de879	0.07710356
82	0x3dd8bc60	0.10582805
83	0xbd4a2e53	-0.049360584
84	0xbe0e2401	-0.13880922
85	0xbca5dda3	-0.020247286
86	0xbe3f212a	-0.18664995
87	0xbd6dd0c8	-0.058060437
88	0xbd76b9ef	-0.060235914
89	0xbddaf91d	-0.10692046
90	0xbe4fe8b5	-0.20303614
91	0x3d7745f3	0.060369443
92	0x3e1f43fa	0.15553275
93	0x3ca32cc3	0.019918805
94	0x3e10839e	0.14112708
95	0x3c102aaa	0.008799234
96	0xbd81e2a4	-0.063420564
97	0xbba685d7	-0.005081873
98	0x3e3d65d1	0.18495871
99	0xbe10b40f	-0.14131187
100	0x3e6bccfb	0.23027413
101	0x3dbcc3bc	0.09217021
102	0xbe5f340d	-0.217972
103	0x3c752617	0.014962695
104	0xbdb81db1	-0.08990038
105	0xbe00b86a	-0.12570348
106	0xbd90bfa7	-0.07067805
107	0x3e4cdd85	0.20006378
108	0x3d9e0bd9	0.077171035
109	0x3db36593	0.08759608
110	0xbe3a323e	-0.18183228
111	0x3e363850	0.17794919
112	0x3e6751a6	0.2258974
113	0x3e7863f3	0.24256878
114	0xbe312ad3	-0.17301492
115	0x3e52e957	0.20596825
116	0xbe50bfb5	-0.2038563
117	0xbd3eaf0b	-0.046553653
118	0x3d99659c	0.074900836
119	0xbe4ae81f	-0.1981511
120	0xbe032096	-0.128054
121	0xbd9a3dd6	-0.075313255
122	0x3e1a0671	0.1504152
123	0xbdcf0b20	-0.10109544
124	0x3e3e6d48	0.18596375
125	0xbdfb9643	-0.122845195
126	0xbd27a0fb	-0.040925007
127	0xbdc61669	-0.09672243

psi.2.weight f4 [128, 128]
0	0xbbd1903a	-0.006395367
1	0xbcbfacf1	-0.023397895
2	0x3d3396f5	0.043845136
3	0x3d7949b7	0.060861316
4	0xbca7e6c8	-0.020495787
5	0xbd835a06	-0.06413655
6	0x3e351ed4	0.17687541
7	0xbd2e097b	-0.04248951
8	0xbcafa02c	-0.02143868
9	0xbc7b7a0a	-0.015348921
10	0xbd6967da	-0.056983806
11	0x3de205af	0.1103624
12	0x3d0d4323	0.034487855
13	0x3c445c01	0.011984826
14	0x3e0f2366	0.13978347
15	0xbe060332	-0.13087156
16	0x3e1ba779	0.15200604
17	0xbd5d72b9	-0.054064486
18	0x3ba5786e	0.0050497567
19	0x3c1dd5ad	0.009633464
20	0xbd76a673	-0.060217332
21	0xbc0ce242	-0.008598866
22	0x3d274fa2	0.04084743
23	0x3d5a13ba	0.05324147
24	0xbdd167af	-0.10224854
25	0xbd48867d	-0.048956383
26	0x3d8cc8ef	0.068742625
27	0x3d094ef3	0.033522557
28	0x3d0fe77a	0.035132863
29	0x3c79a9d9	0.015238249
30	0xbde160b0	-0.1100477
31	0x3d7396e7	0.059470084
32	0xbc541d1b	-0.012946392
33	0x3d107b15	0.03527363
34	0x3d4592f3	0.048235845
35	0x3b05cf5b	0.0020417783
36	0x3d523ac8	0.05132559
37	0xbd270da3	-0.04078449
38	0xbccba970	-0.024861068
39	0xbdb36ab5	-0.08760587
40	0xbc5c5a9e	-0.013449339
41	0xbd6510fb	-0.055924397
42	0x3d90c68d	0.070691206
43	0xbd420222	-0.047365315
44	0x3dad991c	0.08476469
45	0x3d1e7d63	0.038693797
46	0x3d0a9e34	0.03384228
47	0x3d7e6e53	0.062116932
48	0xbd1d3841	-0.038383726
49	0xbd4b44b3	-0.049626064
50	0xbd4b2f7e	-0.04960584
51	0x3d354a33	0.044260215
52	0x3e26bc65	0.16282804
53	0xbc9eb1f1	-0.019371958
54	0x3cadf4bb	0.02123486
55	0x3dd8c95d	0.10585282
56	0x3d8ae073	0.067810915
57	0xbd9dd038	-0.0770573
58	0xbd22a416	-0.039707266
59	0xbd0a6b24	-0.033793584
60	0xbd27ccbb	-0.04096673
61	0xbd1b7c13	-0.037960123
62	0x3d057921	0.03258622
63	0xbd8b7e70	-0.068112254
64	0xbd33fa2f	-0.043939766
65	0x3c706aa1	0.01467386
66	0x3dc4a295	0.096013226
67	0x3d08b926	0.033379696
68	0xbd0c5ef6	-0.03427025
69	0xbd8aac0e	-0.06771098
70	0xbd154dee	-0.036451273
71	0x3c7d241a	0.015450502
72	0x3d0d0695	0.034430105
73	0xbccd09ca	-0.025029082
74	0xbcedfd67	-0.029051496
75	0xbd95eb30	-0.07320249
76	0x3ca6f807	0.02038194
77	0x3d9aeac6	0.07564311
78	0xbdab00d7	-0.083497696
79	0xbc15ffde	-0.009155242
80	0x3e031db3	0.12804298
81	0x3becd5e6	0.007227647
82	0xbc7d2e6a	-0.0154529605
83	0x3d77f2ce	0.06053429
84	0xbe149c49	-0.14512743
85	0xbe09fe47	-0.13475905
86	0xbdba67e6	-0.09101848
87	0x3da84c2a	0.08217652
88	0xbc54837d	-0.012970802
89	0x3d9d11e4	0.07669428
90	0x3d9083f0	0.07056415
91	0xbcae166b	-0.021250924
92	0x38d2ef97	0.000100582074
93	0x3e04ffff	0.1298828
94	0x3d7372fe	0.059435837
95	0x3d7c73e2	0.061633952
96	0x3e05a8ed	0.13052721
97	0x3d8472e5	0.06467227
98	0x3dc78bbf	0.09743451
99	0xbcfc97c4	-0.030834086
100	0xbd17b34f	-0.037036236
101	0xbe0a4c67	-0.13505708
102	0x3d8b45c2	0.068004146
103	0xbd8f66dc	-0.07002041
104	0x3cbc8b01	0.023015501
105	0x3d68b1e5	0.05681028
106	0x3bd48cc0	0.0064865053
107	0x3b08fcf1	0.0020902718
108	0xbdb250f2	-0.08706845
109	0x3d41ae6c	0.047285482
110	0xbdc7acb8	-0.0974974
111	0xbd09485b	-0.03351627
112	0x3d413e9d	0.047178853
113	0x3d93e8a0	0.07222104
114	0x39c42dcc	0.00037418155
115	0x3c94916b	0.018135747
116	0xbdfd074e	-0.12354909
117	0x3d400343	0.04687811
118	0x3d60de1d	0.054899324
119	0xbc6d188a	-0.014471183
120	0x3d7876ed	0.06066029
121	0x3e1e2bc7	0.15446387
122	0x3bcabae6	0.006186831
123	0xbda2bf87	-0.07946687
124	0x3cdec60c	0.027194045
125	0xbd680bc4	-0.056651846
126	0xbcdd9cbc	-0.027052276
127	0xbd140966	-0.036141776
128	0x3d9abdc8	0.07555729
129	0x3d332068	0.043732077
130	0xbd0070ce	-0.03135758
131	0xbd42b744	-0.047538057
132	0xbda40487	-0.08008676
133	0xbc73f2a3	-0.014889392
134	0xbd3e6f92	-0.04649312
135	0xbd3d76c9	-0.04625586
136	0x3c89a730	0.016803354
137	0xbd7d2048	-0.061798364
138	0x3d90f8a9	0.07078678
139	0xbd81b52f	-0.06333386
140	0x3d4f2437	0.050571647
141	0xbcf13463	-0.029443925
142	0xbd5637e8	-0.05229941
143	0x3cd99693	0.026561057
144	0x3cbcbd9f	0.023039637
145	0x3ddac39a	0.10681839
146	0x3d60078a	0.05469469
147	0x3dcccc62	0.099999204
148	0x3d5557cc	0.052085683
149	0xbd0346e0	-0.032050014
150	0xbd875a3f	-0.0660901
151	0x3d9c183a	0.07621808
152	0x3dd14d03	0.10219767
153	0x3d9893cc	0.07450065
154	0x3d3a8f46	0.045546792
155	0x3d7e2bcf	0.062053498
156	0x3ca26095	0.019821445
157	0xbd355390	-0.044269145
158	0x3b9d19a2	0.0047943154
159	0x3d553b8c	0.05205874
160	0xbb39ae60	-0.0028332695
161	0xbc5c48cb	-0.01344509
162	0x3d0f310a	0.034958877
163	0x3dd04108	0.10168654
164	0x3d212626	0.03934302
165	0xbd281881	-0.041038994
166	0x3c71adef	0.014750942
167	0x3d44ca87	0.048044708
168	0x3db11c38	0.086479604
169	0x3d918e77	0.07107251
170	0x3cbe6976	0.023243647
171	0x3d08f9eb	0.033441465
172	0x3d65a0d4	0.05606158
173	0x3d244dd1	0.040113274
174	0x3bd283c8	0.006424401
175	0xbd61c9be	-0.055124037
176	0xbd8acd70	-0.06777465
177	0x3dcca8d1	0.09993137
178	0x3df0b1e1	0.11752678
179	0xbd8d298f	-0.06892692
180	0xbd1db005	-0.038497943
181	0xbcde9ad2	-0.027173433
182	0x3cd72bc8	0.026265994
183	0x3cd3cfec	0.02585598
184	0xbd7fbfbc	-0.06243871
185	0x3ded6b3f	0.11592721
186	0xbd6fc0c7	-0.058533456
187	0xbd8ae488	-0.0678187
188	0x3d111cd6	0.03542789
189	0xbd8ae9fa	-0.06782909
190	0xbdc66b1a	-0.09688397
191	0x3da329c6	0.07966952
192	0xbc4f646b	-0.012658219
193	0x3cd8e340	0.026475549
194	0xbd980595	-0.0742294
195	0xbd8f392c	-0.069933265
196	0x3c526b03	0.012842896
197	0xbd248e0d	-0.040174533
198	0xbce7ddb9	-0.028303968
199	0x3dba2e7c	0.090908974
200	0x3d4bc7f8	0.049751252
201	0x3bf13b94	0.0073618386
202	0xbd4a8abc	-0.049448714
203	0xbd99e5ec	-0.07514557
204	0x3d44d183	0.04805137
205	0x3ccfb41c	0.025354438
206	0x3b2926e6	0.0025810539
207	0xbd3fa2b9	-0.046786044
208	0xbd78056e	-0.060552053
209	0x3d18054b	0.037114423
210	0xbd58b7bd	-0.0529096
211	0xbcd1dce6	-0.025618028
212	0x3d81b537	0.06333392
213	0xbc663a8e	-0.014052046
214	0x3bd636ef	0.0065373103
215	0xbd0e7bdf	-0.0347861
216	0x3dc1ceae	0.09463249
217	0xbcd50792	-0.026004586
218	0xbcaf02c3	-0.021363622
219	0xbcd128c3	-0.025532132
220	0xbd3ace8a	-0.045607127
221	0x3d86e7bc	0.065871686
222	0xbd42368f	-0.047415312
223	0x3ca91303	0.020638948
224	0xbd91534f	-0.07095968
225	0x3d4dc52c	0.050236866
226	0xbd0ed1c3	-0.034868013
227	0xbc8d87fa	-0.017276753
228	0xbd0c2558	-0.0342153
229	0x3d97687a	0.07392974
230	0x3c740244	0.014893118
231	0x3da2631c	0.0792906
232	0xbd981bd7	-0.07427185
233	0x3d0259b2	0.03182382
234	0x3dbaa893	0.09114184
235	0x3c8c95d6	0.017161291
236	0xbd853636	-0.065044805
237	0xbd4c33aa	-0.04985396
238	0xbb65f4be	-0.0035088505
239	0xbc7f007a	-0.015564078
240	0x3da1e96e	0.07905851
241	0x3d627778	0.055289716
242	0x3cede8f5	0.029041747
243	0xbcedcbb5	-0.0290278
244	0xbd38c550	-0.045110047
245	0xbd8abc42	-0.067741886
246	0x3d469a91	0.04848725
247	0xbcebf746	-0.028804433
248	0x3ce92f9e	0.028465088
249	0xbdae58e3	-0.085130475
250	0xbd7daf87	-0.061934974
251	0xbd37f099	-0.044907186
252	0xbd834bf4	-0.06410971
253	0xbd0aa6c8	-0.03385046
254	0x3af2d1f6	0.0018525708
255	0x3c912098	0.017715737
