model_classif_caus.pt (torch, 115967 bytes, 15 tensors)

phi.0.weight f4 [32, 25]
00000000: 28a9 89be b8ad 82be 329d 7dbd e26a eb3c
00000010: ffcf 44be 8d81 45bd 28e8 ad3d 4cb7 35be
00000020: 585f 71be c66e a7bd 9bed eb3c 5f80 023e
00000030: 7ae6 cabe e2ef f1bd 5ad1 00bf a3e3 0cbe
00000040: 10ab 413b f36a 51be 3abd 54be 9c7b 94be
00000050: d40b 02bd f911 53be ce8a afbe eed0 d2bd
00000060: 5fae 72bc 2819 cebd 0439 28be 887f a5bd
00000070: 415d 44be 9913 67be 66fa 08bd 103d 36be
00000080: 73fd d5bc b2c5 57bd b297 87be a448 32be
00000090: b0fd 05bd 93c8 5fbe fc50 4ebe 5b70 84bd
000000a0: a42e 8cbe a0b1 6ebe 9f13 03be 3d56 65be
000000b0: 96c6 de3a 6af6 95be d121 59be 3ffe 2a3d
000000c0: 2034 ddbd 412b e53c 6f7b 443d 9b91 5bbd
000000d0: 918a a3bd 05f4 68bd 2cca 63bc f7da c93c
000000e0: 01f2 373b f879 a0bd 6529 0bbe ddd6 8f3d
000000f0: e34e e2bd cea2 75be a593 9ebe b5c3 8cbe
00000100: aa3d fabb 66fe 14be 1a68 9bbe 868c a0bd
00000110: a298 97bd cbf6 89be f331 60be 3640 65be
00000120: 1c14 0bbe 4784 02be d0a0 41be 803c 51be
00000130: 4495 cebd c8d8 dd3d 4697 3b3e 8382 08bf
00000140: a762 06be f4da 943e 5a18 1fbe 69c2 58be
00000150: c18c 6cbe b9e3 0e3e 457b aa3d bf12 30be
00000160: 7397 70be 3a02 f1be a856 273d e44d a3bd
00000170: c35c 26be 1e00 02be 514e ec3b c9e3 07bd
00000180: bd58 c5be 25e2 89be 6cca 47bd 452e 90be
00000190: 1f36 983e 6d54 3cbe 19ea 0e3e 97fd 963b
000001a0: 4f7b 403e 33f7 17be f34c 473e 428c 8ebe
000001b0: bb4b 383e 74a2 cdb9 15ae 32bd 3a6b 5cbe
000001c0: b738 a73d c954 833d 1f3f 023e f770 81be
000001d0: 3eb9 b1bc 25df efbd d850 ce3d c78d 15be
000001e0: 5748 8b3c f8e1 29bd 264a 793e 747f 3abe
000001f0: d7f5 083d 59dc a33e 2622 69bd c0fd 113e
00000200: 0297 eb3d a6d1 443d 1a6f 28be 3c8b 0f3d
00000210: e7ed 043c 8b4d d13d d123 2fbd 7c83 26bc
00000220: e762 6abe 9eb9 79bd 0ab6 71be c55b 7a3d
00000230: efb1 f5bc b3f8 3a3e 415d 79be 4634 253e
00000240: 6253 72be 74a5 8f3e 1884 863d 5535 383d
00000250: 9201 073e 24d3 723d 55b5 9d3d 0268 2dbe
00000260: 1f5b 95be 56b0 a5be a686 2cbe a92a 80be
00000270: 3721 5cbd 9999 953d 4342 d33d 052f d6bd
00000280: 5e11 b03d 0fab e7bc ce12 9e3b 3aed 31be
00000290: a752 083e 66a7 dcbc 9dff 9f3c 1166 d3bc
000002a0: 9111 a63c 7055 29be f82c 6ebe 0aa0 86bc
000002b0: 4651 eebd 5d4f 70be cf7b 09be 7763 42be
000002c0: c710 08be 0662 19bd a8a4 4f3e fa86 2dbe
000002d0: 5d14 733c 89bf 3ebd e6b9 7e3e 7e57 38be
000002e0: 09be dcbd 2ba9 3abe fe13 2d3e 34c4 2c3e
000002f0: 565c e13c a7b5 d53d 3586 99bd 1294 48bd
00000300: f3c3 0dbe fd75 1fbe fcb0 1e3d 36df 453d
00000310: 54d4 033e 9d8b 55be 2605 cc3d 4972 523e
00000320: 9c47 08be 1dbc 86bd 12a3 103e 2d4b 2dbe
00000330: 8179 423d 1141 85bd 944c 1fbd ab25 ebbb
00000340: 96d6 823e f02a eebd fc64 0cbd 39e6 2bbe
00000350: 2313 7f3e 8400 5fbe d856 d03d aff9 d6bd
00000360: 7692 b23d 507f 1ebe e7f0 043e 1f6c 09be
00000370: 948c efbc abd4 2bbd 7eab 283d 9363 813d
00000380: a8d3 473c 479c 8bbd 989c 58bd 4370 53be
00000390: 9330 5f3d e9a3 c5be c786 51be 71e0 57be
000003a0: 678e 61be 4fde dfbe bcfa 28be 6bcd 6bbd
000003b0: 83ac 2d3e 638d 18be fb16 d9bd 8433 a5be
000003c0: 1012 9d3d 19ef e3bd 4e73 9d3c 6e07 dabd
000003d0: 2d29 c73c 77e7 a0be ef58 48be 3c71 acbe
000003e0: 0179 02bd 9ef2 46bd d3c7 cfbe cf1a 8bbd
000003f0: 191e 63bd e28f 453d 8d7d 4e3c 0d71 dc3b
-0.26886868 -0.25523162 -0.06191749 0.02873749 -0.19219969 -0.048219252 0.08491546 -0.17745703
-0.23571527 -0.08175425 0.028799823 0.12744282 -0.39628965 -0.11813332 -0.50319445 -0.13758712
0.0029551424 -0.20450954 -0.20775309 -0.29000556 -0.03174956 -0.20612325 -0.34285587 -0.102937564
-0.014812081 -0.10063392 -0.16428 -0.08080965 -0.19176199 -0.2256607 -0.033441924 -0.17796731
-0.02612183 -0.05267877 -0.26482922 -0.17410523 -0.03271264 -0.21853857 -0.2014808 -0.064667426
-0.27379334 -0.23309946 -0.12800454 -0.22396179 0.0016996439 -0.29289562 -0.21204306 0.041746374
-0.10800958 0.027974727 0.047969278 -0.053605657 -0.07985414 -0.05687334 -0.013903182 0.024640543
0.002806783 -0.07835764 -0.1359001 0.07023404 -0.11050203 -0.23987886 -0.3097202 -0.27493063
-0.0076367455 -0.1455017 -0.3035286 -0.07839303 -0.07402159 -0.269461 -0.21894054 -0.22387776
-0.1358189 -0.12745772 -0.18909001 -0.20433235 -0.10087064 0.10832363 0.18319425 -0.53324145
-0.1312357 0.29073298 -0.15536633 -0.21167912 -0.23100568 0.13954057 0.08324293 -0.17194651
-0.23495273 -0.4707201 0.040854126 -0.07973841 -0.16246323 -0.12695357 0.0072114845 -0.033176217
-0.38544264 -0.26930347 -0.04877703 -0.281603 0.2972879 -0.18391581 0.13956489 0.004607867
0.18797038 -0.14840393 0.19462948 -0.27841383 0.17997639 -0.00039221684 -0.04362305 -0.21525279
0.081651144 0.06412656 0.12719391 -0.25281498 -0.021694776 -0.11712483 0.100740135 -0.14604865
0.017002268 -0.041475266 0.24344692 -0.18212682 0.033437576 0.3200405 -0.056917332 0.14256954
0.11503412 0.0480515 -0.16448632 0.035044894 0.008113361 0.10219868 -0.042758767 -0.010163184
-0.22889291 -0.060968034 -0.23604599 0.061122674 -0.029992072 0.18258934 -0.2435198 0.16133222
-0.2366462 0.28055918 0.06568164 0.044972736 0.13184193 0.05928339 0.07700602 -0.16934207
-0.29171082 -0.32361096 -0.1684824 -0.25032547 -0.053742614 0.07304687 0.10315373 -0.10458187
0.085970625 -0.02827981 0.004824019 -0.17375651 0.1331278 -0.02693529 0.019531066 -0.025805505
0.020272048 -0.16536498 -0.23259342 -0.016433734 -0.116365954 -0.23467775 -0.13426135 -0.18983255
-0.1328765 -0.037446998 0.20277655 -0.1694602 0.014836398 -0.04656938 0.24875602 -0.18002126
-0.10778434 -0.18228595 0.16902158 0.1687172 0.02750985 0.10435038 -0.07496301 -0.048969336
-0.1384428 -0.15572353 0.038743004 0.048308574 0.12873966 -0.2085404 0.099619195 0.20551409
-0.13308567 -0.065788485 0.14124706 -0.16923209 0.047479156 -0.06506551 -0.03889139 -0.007176121
0.2555434 -0.116292834 -0.034275994 -0.16787042 0.24909644 -0.2177754 0.10172814 -0.10496842
0.087193415 -0.15478253 0.12982522 -0.13420151 -0.029241838 -0.041950863 0.041179173 0.063178204
0.012196459 -0.06816917 -0.052883714 -0.20648293 0.054489683 -0.38601616 -0.2046157 -0.21081711
-0.22026978 -0.43724295 -0.16501898 -0.05756895 0.16960339 -0.14897685 -0.10600086 -0.32265866
0.07669461 -0.11129589 0.01922002 -0.10645948 0.024311626 -0.31426594 -0.19565175 -0.3368014
-0.03185368 -0.04857122 -0.4058214 -0.06792223 -0.055448625 0.04823292 0.012603176 0.006727344

phi.0.bias f4 [32]
00000000: 9bef 91bd a8cc 9cbd 9731 39bd d61f 6cbe
00000010: e7b2 ccbe ec18 a3be 5f4d d3bd 1c56 b6be
00000020: 0c5f b7be 3705 3ebd 6114 9e3d 89b4 46be
00000030: 6d56 9fbc c4f1 8abe 325c 1cbe d963 61be
00000040: 6683 5cbe 2b4a 7fbe 8984 0b3e d505 3abd
00000050: 8d65 8bbd 1103 d9bc 1907 88be f216 6cbe
00000060: 94b7 d9be 7fb9 bebd 3e4c 15bd 5fea bfbe
00000070: cbe4 04be 7a0e b03d a857 1abf 715d 35be
-0.07125779 -0.076562226 -0.04521331 -0.2305902 -0.39980242 -0.3185495 -0.10317492 -0.3561257
-0.35814703 -0.046391692 0.07718731 -0.19404806 -0.01945039 -0.27137578 -0.15269545 -0.22010745
-0.215345 -0.24930637 0.13624777 -0.045415718 -0.06806479 -0.02649072 -0.26567915 -0.23055628
-0.42522871 -0.09312724 -0.036449663 -0.37483498 -0.12977903 0.08596511 -0.6029 -0.17711426

phi.2.weight f4 [32, 32]
00000000: ad6d 343c 4931 1b3d 783f 2a3e 0dfc e53c
00000010: a2e7 12bd 7537 7ebd 7026 15bc 2862 9bbe
00000020: 31b9 c7bd a84a 80be bd91 053d 498c e03d
00000030: 9489 b1bd bee2 4ebe f5d3 d43d ac93 77bd
00000040: 2bcb b9bd b9d3 5bbe 5a25 2c3e 699e f6bd
00000050: 88b2 5b3b 8ec8 05be 47fe 60be 8153 8ebe
00000060: b52c e3bd 9d8e 17be 791a 0cbe 7c2f b6bd
00000070: 50b5 81bc 9e7f 24be e94b 353d 9410 46be
00000080: 84b5 3abe 9544 a3bd 8504 83be 986a acbd
00000090: 8f67 893d 05da 9b3d 780b 73be 84c7 40bd
000000a0: ffa2 1bbe a2bd e7bc 4be3 5fbe c7be ecbc
000000b0: ea7d 213d 347b 1cbe c9db aebd 8fc9 04bd
000000c0: 3676 613d f02b 89be d30b f8bd c6de a4bc
000000d0: 5f9f 663d a98f ddbd 826e 57be afa3 5abe
000000e0: aadb 49be 53b9 7d3d dcf5 08be c9c5 3ebc
000000f0: ebdf 463d d7ed 42be 1279 f33d 4c99 4ebd
00000100: 1b5b 453e 691d d1bc fe53 143b dc97 6b3e
00000110: 6e32 1a3e c036 1d3e 634c d4bc 5746 033e
00000120: da07 8a3d 7dae 8c3e d27e f1bd e622 a03e
00000130: ecae b4be 7784 4d3d 36ab 843e e04b 813d
00000140: 21ad f03d 6147 5d3d ed3a d73d 34ae e4be
00000150: c4e4 d1bd d204 c33e f043 5a3e f6b8 4d3e
00000160: e0d7 b13e 43e0 603e 5b6e d33e 37d7 05bd
00000170: e82a 9d3e 9618 40be ee6a 983e c9e8 d63c
00000180: 0c18 023c 6bef 85bd 8c6f 8ebd 61b7 f3bd
00000190: c95b f93c af40 ac3d bbd1 b93b bc8e 3bbe
000001a0: 340a ccbd f940 0bbd 0208 2e3d 3828 8ebd
000001b0: 7b61 91be 19fc 47be da39 e7bd 72bd 05bd
000001c0: 1920 48be 78b7 77bd 0830 64be aca9 b9bd
000001d0: f0c1 0ebe 4c0c afbe b009 6dbe 6283 b1bd
000001e0: f524 dfbd c84e b9be ef9e d7be 2d81 34be
000001f0: c5dd bebd 285f 02be 63aa e53c 10ba 8bbe
00000200: 9ee8 70bd 2265 b8bc a781 45bc 4d52 063e
00000210: 6622 0cbe 9be2 9b3c af9c 3f3d ae45 133d
00000220: a2da aebc e101 15be 9687 2fbd 09e8 643d
00000230: cabd 64be 396d 1c3d a44e 6dbe b729 25be
00000240: 81d6 03be b8b1 57be e0e7 b0bd f2a5 0dbd
00000250: cf12 eebd 9949 c5bb 8aec 30be 3a95 ff3d
00000260: c655 8fbc d51c 4bbe 015b b8bc afa8 1cbd
00000270: 9f06 1f3c 6d7f 2bbe 4fc6 223e 220e abbd
00000280: 90cc 3fbd 923e 05be 95cf 38be 2db3 3e3d
00000290: dcb7 00be 37c4 d9bd 0fb1 a53c 3462 b7bd
000002a0: 8323 5dbe de9d fabe d285 21be 893c 08be
000002b0: 23ab a73c c556 d5bb bd07 643d b567 413d
000002c0: ace0 39be ebdc d83c 36c4 01be 9f65 6cbe
000002d0: f2ed 6b3d deac 9fbe be07 2bbd 6981 74be
000002e0: 0e38 3dbe c04d f4bd 6694 35bd 4e2b 08bd
000002f0: 570c 6e3c e2de a4bc 514e 1b3c cc09 02bf
00000300: 9358 19be 5550 9dbe 6e9d 46be b5b4 533c
00000310: 9d28 b5bc c9e6 ae3c d14f eebb 2e1a 71be
00000320: 8cde 14be eaf3 33be 8ae9 0dbd d6e5 833d
00000330: 7bf0 33be 4cad 9a3b 49f5 e03c c22e 87bc
00000340: 9830 78be b8fc 71be 8820 26be 2204 bc3c
00000350: fca0 34be 2c13 763b 4f6a 22be 4ecd 8dbd
00000360: d630 97be cd12 1c3d 06cb 07bd 6add 023e
00000370: e0fd 493d 14f3 8abd 01cd a4bd c3c4 39be
00000380: 1a20 2c3e 5c68 e8bd b788 55be ad9c 6c3d
00000390: 2846 93bd 71e1 b93d 588d d4bd 0670 4dbe
000003a0: cc5b 22bd 8e60 84be c68c b9bd 741b 8ebd
000003b0: 94fd 37bd eef8 28be db15 05bb 3abc 18be
000003c0: b796 4ebd 047c 58be a672 1e39 0d78 e5bd
000003d0: 2d12 6c3d 1dbe c6bd 1ac5 25be c83e 38be
000003e0: 397e bdba d956 42bd 9707 cd3c db5c 81bd
000003f0: dcab aa3d 0c57 1c3d 677e c6bd 37ad b4bd
0.011012477 0.0378888 0.16625774 0.028074289 -0.035865434 -0.062064607 -0.0091034025 -0.30348325
-0.09752119 -0.25056958 0.03260969 0.10964257 -0.08668819 -0.20203683 0.1039199 -0.060443565
-0.09071954 -0.21467485 0.16811123 -0.12041933 0.003352316 -0.13064787 -0.21971999 -0.27798083
-0.110925116 -0.14800496 -0.13681974 -0.08895776 -0.015833527 -0.16064307 0.044261847 -0.19342262
-0.18233305 -0.07972065 -0.25589386 -0.08418769 0.06709205 0.07609943 -0.23734844 -0.047065273
-0.15198897 -0.028288666 -0.21864049 -0.028899563 0.03942672 -0.15281373 -0.085380144 -0.032418784
0.055044375 -0.26791334 -0.1211163 -0.020125758 0.056304332 -0.108184166 -0.21038249 -0.21351503
-0.19712701 0.061944317 -0.13375038 -0.011643835 0.04855339 -0.19036041 0.11888327 -0.050439164
0.19273035 -0.02552672 0.002263307 0.23007149 0.150583 0.15352917 -0.02591533 0.12819801
0.06739779 0.27476874 -0.11791767 0.31276625 -0.35289705 0.050175156 0.25911874 0.063133
0.11751772 0.05402315 0.10509286 -0.44664156 -0.10248712 0.38089615 0.21314979 0.20090088
0.34735012 0.21960549 0.41295132 -0.032675948 0.30696797 -0.18759379 0.2976908 0.026234047
0.0079403035 -0.06539806 -0.0695487 -0.11900211 0.030439274 0.08410775 0.005670754 -0.18316168
-0.099628836 -0.03399751 0.042488106 -0.06941265 -0.28394684 -0.19529761 -0.11290331 -0.032651372
-0.19543494 -0.060477704 -0.22283947 -0.090655655 -0.13941169 -0.3418907 -0.23148227 -0.086676374
-0.10895721 -0.36192918 -0.42113444 -0.17627402 -0.09319643 -0.12731612 0.028035348 -0.27290392
-0.05881559 -0.022509161 -0.012054837 0.13117333 -0.13684997 0.019028952 0.046780284 0.035955124
-0.021344487 -0.14551498 -0.042853914 0.05588535 -0.22338024 0.0381901 -0.2317453 -0.16129194
-0.12874795 -0.21063888 -0.08637977 -0.034582086 -0.11624681 -0.0060207364 -0.17277732 0.124796346
-0.017496955 -0.19835217 -0.022504332 -0.038246807 0.009706168 -0.16747828 0.15895961 -0.08352305
-0.046825945 -0.1301215 -0.18047936 0.046557594 -0.12570137 -0.10633128 0.02022603 -0.08954278
-0.21595578 -0.48948568 -0.15773705 -0.13304342 0.020467347 -0.006510588 0.055671442 0.047218043
-0.18152112 0.02647253 -0.12672505 -0.2308564 0.05759997 -0.31186575 -0.04175543 -0.23877491
-0.18478414 -0.11928892 -0.044330977 -0.033244424 0.014529309 -0.02012581 0.009479121 -0.507962
-0.14975195 -0.3072535 -0.19395992 0.012921502 -0.022114092 0.021350281 -0.0072726985 -0.23545143
-0.1453802 -0.17573515 -0.03464655 0.06440322 -0.17572205 0.0047203656 0.027460711 -0.016501788
-0.24237287 -0.23631561 -0.16223347 0.02295119 -0.17639536 0.0037548048 -0.15860866 -0.069239244
-0.29529446 0.038103867 -0.033152603 0.12779775 0.04931438 -0.06784645 -0.08046914 -0.18141465
0.16809121 -0.1134803 -0.20852934 0.057766605 -0.071911156 0.09076203 -0.10378522 -0.20062265
-0.039638326 -0.25854915 -0.090600535 -0.0693883 -0.044919565 -0.16501209 -0.0020307216 -0.14915553
-0.0504367 -0.21141058 0.00015110764 -0.112045385 0.05763452 -0.0970423 -0.1618847 -0.17992699
-0.0014457173 -0.047446106 0.025028033 -0.06316539 0.08333561 0.038168952 -0.09692078 -0.088221006

phi.2.bias f4 [32]
00000000: 643b abbe 4129 76be c704 5f3e bf2b 78be
00000010: 9f23 9abe c9c2 693d a970 83be f693 41be
00000020: e4cd d1bd 5684 963d 658e 97be c7b7 14be
00000030: c70c a1be ffd4 5b3d a895 5fbd f20b bdbd
00000040: f9cd 85be 1167 c83d 62ca f8bd 927b 7ebd
00000050: ee7c acbe 731e c6bd a4f3 813d 4582 09be
00000060: b4ad b4bd 9a8e c7bd 491e 9fbe 360a 18be
00000070: 567a 12be 1839 593c 172e 02be 783f 45be
-0.3344375 -0.24039175 0.21779166 -0.24235438 -0.30105302 0.057070527 -0.2567189 -0.18904099
-0.10244349 0.0734946 -0.29600826 -0.1452323 -0.3145506 0.053669926 -0.054586083 -0.09230794
-0.26133707 0.09785283 -0.121479765 -0.062129565 -0.33689064 -0.096737765 0.06345299 -0.134286
-0.08822194 -0.09743996 -0.31077793 -0.14847645 -0.1430448 0.013258241 -0.12712894 -0.19262493

phi.4.weight f4 [28, 32]
00000000: 0964 15bd 52b1 4e3c 7508 14be 08f7 a8be
00000010: d496 1f3d 6093 de3c 98c1 8bbc 4ab8 febd
00000020: 55bb eb3d 1b78 f3bd 4b74 3cbd bede 1f3e
00000030: f196 17be 9beb 2ebe 77f2 60be 863f a7bd
00000040: 0a5e 853d 82e7 d4bd d3a7 00bf 3c9d 993c
00000050: d7d6 293e 3fb5 51bb b9fb 54bd 61a8 343e
00000060: c219 6f3d 55bb 853e 02e1 313e c7e0 0cbe
00000070: 8775 8fbd 62db a13d 00b7 263e 8803 66be
00000080: 0498 57bc 9d63 c73d 1862 08be c3a9 e1bd
00000090: d05e 31bd aa35 723d bab5 d2bd 2111 c83d
000000a0: a7fd 0d3c ef7b 92bc 4634 753d 73a5 da3d
000000b0: e387 0c3e e758 32be 2c37 ab3c 5730 c73d
000000c0: 70fc b33d fc15 c8bc 96f4 0abd 92af b03d
000000d0: 9fbf 8cbd 0dc0 c2bd 6217 173e 3f96 b43d
000000e0: eec8 ebbd 7f4c e23d 929d 4cbd fd51 4cbe
000000f0: cc2b fb3d e788 2f3d 7624 e4bc bfb6 85bd
00000100: 90f4 15be e1ce 7f3d e6d3 b1be 3ec0 35bd
00000110: 86d8 933d bec5 443e d24a 31be 2e74 b9bd
00000120: f735 51be b173 b13e 88bc cfbd eef3 213d
00000130: 63a2 843e 45b5 353e f66d 593d bf36 0dbe
00000140: dd37 24be fced 71bb 1714 c03d 91eb 7fbc
00000150: c3b4 09be cc1c 323d a7b7 2d3e ee1c 69bd
00000160: fd0b 61be 858c bd3d acf8 343d 96ec be3d
00000170: 895f 65bd e6e4 86bd bb29 4ebe 9f5f 913d
00000180: 4764 5e3e 7212 9b3d fad9 8ebe a948 153d
00000190: a797 3bbe f3fa 063e 1310 91bd d902 483c
000001a0: a06e 513e 7a9d 97be 7d9e e13d 4f5f 15bd
000001b0: 76ba e93d bc53 abbd ac73 9ebd 00f3 c23d
000001c0: 4c6c 97bd 374a c73d 93b1 53bd acad 3abe
000001d0: e8ed 8fbe 7a2f 52bc 63c3 acbb ceb5 fcbd
000001e0: 2df7 fd3d e37b b2bd 6db9 0abe 6ba2 1cbd
000001f0: 5252 803d edf1 5d3d 5d81 dabe f52d 6b3e
00000200: 7ab9 873d 3671 1cbd 4117 95be f069 63be
00000210: a9a5 bfbd b13d 1abe 50c8 963d 55e4 233d
00000220: 80e5 5a3c b855 413e a9a4 97bc e6ef 5fbe
00000230: dd7c cebe e45c 84be f5e2 af3d a55b 993d
00000240: 3d39 99bd ebae c03d d1ce 5d3e a9d7 e83d
00000250: f9d0 85bd fb61 0f3e 41f6 873e 8d06 263c
00000260: f19b cdbd a1df 1a3b 2359 183e fea0 c4bd
00000270: e337 bcbd bec7 0f3e 0265 cfbc 3046 203e
00000280: ad32 2ebe 0890 753d 9dfe c7be f29f c9bd
00000290: 20c7 533e 3f90 6bbd 7ebd d43d 3e9e 593e
000002a0: 9dc4 b63d 90b0 e23c 22fb 093e 943a 0b3d
000002b0: 6933 45bd a236 0ebd 6a9d 553c 1b7a 39be
000002c0: 89a2 27bc 87e7 f63c 90e1 05be 5e82 41be
000002d0: 8f9b fdbd 39c5 0cbe bb58 a83e 60c3 c8bd
000002e0: 3da2 43bd 4e9a 123e 9411 52be 0056 17be
000002f0: dadb 39be 27d7 173e 18ab a0be ac6d 12bd
00000300: 9b12 e1bd 91b3 9e3d 205e 07be 8620 8fbd
00000310: 369c 04be 40cd 043e 764c 82bd 2629 a83d
00000320: dc3c 0b3d f851 c83d 8dcc 8c3d 691e 4f3d
00000330: dada c23b 08b4 30be 0c4d b8bd 43af 47bd
00000340: 709f 7c3d f663 c6bd dcc0 acbd 37ce 2fbd
00000350: c05e e9bd 4003 4ebd f2f5 c3bd ef2e 19be
00000360: 5720 263e 0323 8abc 8008 d33d f19a ebbd
00000370: ab75 08bd 6201 b4bd ece4 29be 71e7 4e3d
00000380: f472 4ebd c8a3 f13d ea91 b7bd 63f9 93bc
00000390: df5b fb3d a560 10be 8a4f 57bd 3069 103d
000003a0: bb15 edbd 87c1 9e3d 861a c93c 0775 f53d
000003b0: 6f17 5e3d e9ab 093e 107b 0e3c 3969 a63c
000003c0: fcd1 303d 998f ee3c 7afa a6bd 0d6c 01bd
000003d0: 17d6 8abb 06d8 25be 96c5 babd e0d7 303d
000003e0: 1387 57bd e45d 12bd e97e bebc a520 48bd
000003f0: b07d 3838 cc72 87be 5199 6fbd 3610 713e
-0.036472354 0.012615519 -0.14456351 -0.3300097 0.0389622 0.027169883 -0.017060086 -0.12437494
0.1151034 -0.11888143 -0.046009343 0.15612313 -0.14803673 -0.17082064 -0.21967493 -0.08166413
0.06512077 -0.10395719 -0.5025608 0.018751733 0.16585861 -0.00319989 -0.051997874 0.17642356
0.058374174 0.26119485 0.1737099 -0.13757621 -0.070048384 0.07903172 0.16280746 -0.22462285
-0.013158802 0.097357966 -0.1331867 -0.110187076 -0.04330331 0.05913321 -0.10288568 0.09768892
0.008666432 -0.017881362 0.059864305 0.10676088 0.13723712 -0.17416726 0.020900331 0.09726017
0.08788383 -0.024424545 -0.03392466 0.086272374 -0.06872486 -0.09509287 0.14755014 0.0881772
-0.11512934 0.11049747 -0.04995496 -0.19953151 0.12264213 0.04285517 -0.027849417 -0.06528997
-0.14644074 0.062453154 -0.34731978 -0.04437279 0.07219033 0.19216058 -0.17313698 -0.09055363
-0.20430742 0.34658578 -0.10143381 0.03953927 0.2590514 0.1774493 0.053083383 -0.13790415
-0.16036935 -0.0036915531 0.09378832 -0.015620128 -0.13447861 0.043484494 0.16964589 -0.056912355
-0.2197723 0.092553176 0.044182464 0.09322469 -0.055999313 -0.06586628 -0.20133106 0.070983164
0.2171794 0.075718775 -0.27900678 0.036446247 -0.1831957 0.13181667 -0.07083144 0.01220771
0.20452356 -0.29612333 0.11016557 -0.036467846 0.11412518 -0.083655804 -0.077369064 0.09519005
-0.07393703 0.09730952 -0.05168302 -0.18230313 -0.28111196 -0.012828702 -0.0052723153 -0.12339364
0.12400661 -0.08715036 -0.13547297 -0.03824083 0.06265701 0.054185797 -0.4267682 0.2296675
0.06627174 -0.038193904 -0.29119304 -0.2220838 -0.09357769 -0.15062596 0.07362425 0.040012676
0.013360381 0.18880355 -0.018511133 -0.21868858 -0.40329638 -0.2585212 0.085882105 0.07488183
-0.074816205 0.09408363 0.21660925 0.11369259 -0.06533999 0.1400222 0.26555064 0.010133398
-0.10039509 0.0023631828 0.14877753 -0.09601019 -0.09190347 0.1404104 -0.025316719 0.15651774
-0.17011519 0.059951812 -0.39061442 -0.0984496 0.20681429 -0.05751061 0.10387705 0.21251771
0.0892422 0.027672082 0.13474706 0.03399141 -0.04814473 -0.03472007 0.013038019 -0.18112986
-0.0102316225 0.030139698 -0.13074327 -0.18897387 -0.12383186 -0.1374711 0.32880196 -0.0980289
-0.047762144 0.14316675 -0.20514518 -0.147789 -0.18150273 0.14828168 -0.31380534 -0.035749123
-0.10989877 0.07749093 -0.132195 -0.06988625 -0.12950215 0.12968922 -0.0636224 0.082109734
0.033993587 0.09781259 0.068749525 0.05056611 0.0059464993 -0.17256176 -0.089990705 -0.048751127
0.06167549 -0.09687035 -0.084352225 -0.04292127 -0.11395025 -0.05029607 -0.09568395 -0.1495931
0.16223274 -0.016862398 0.103043556 -0.11504162 -0.033315342 -0.08789326 -0.16591233 0.05051369
-0.050402597 0.11798817 -0.08963378 -0.018063253 0.122733824 -0.14099367 -0.05256609 0.035256565
-0.115764104 0.07751756 0.02454878 0.11985212 0.054221567 0.13444485 0.008696333 0.020313846
0.043169007 0.029121207 -0.08153243 -0.031597186 -0.0042369473 -0.16195688 -0.09119718 0.043174624
-0.05261905 -0.035734072 -0.023253875 -0.048859257 4.3986074e-05 -0.2645477 -0.058495823 0.2354134

phi.4.bias f4 [28]
00000000: 0709 03be 06fb b5bd ec0f ad3d 3654 5c3e
00000010: 8133 dabb 6be5 043e 6a90 5fbd 2387 2a3d
00000020: 224f 3cbe 82bf d83d c533 11be dfb9 eabe
00000030: bc90 2abe 9729 10be 3ef6 44bd fa1a 15be
00000040: 37d7 70be 8204 313e c3dc c2bc 1625 3bbe
00000050: 424a d0bd 61ff febd 30e8 683e 33c4 13be
00000060: f085 28be ec0f 0bbe cc3a cebd 47e6 aebe
-0.12796412 -0.088857695 0.084503025 0.21516499 -0.006658972 0.12978141 -0.054581083 0.041632783
-0.18389562 0.10583402 -0.14179905 -0.45844933 -0.16656774 -0.14078365 -0.048086397 -0.14561072
-0.23519598 0.17286876 -0.023786908 -0.18275866 -0.101704136 -0.124510534 0.22744823 -0.14430313
-0.16457343 -0.13580292 -0.10069808 -0.34160063

phi.6.weight f4 [10, 28]
00000000: 246d 753c 92c7 e0bd 9213 d0bd da26 98be
00000010: a809 c73c 2610 6cbe 40c1 53be dbd0 783d
00000020: b4be cc3d 4319 2abe eb5d 113d 7317 fcbd
00000030: 319c a1bb bc34 5bbb 5d54 a53d 9337 5fbc
00000040: 7be7 79bd 39fe 9cbe 72e2 9dbe 90a5 993d
00000050: e10d 8fbd 0cc8 de3d d583 73bc ef82 f73c
00000060: 1d41 4bbd a479 1ebd d0ee d63d 43c6 3c3e
00000070: 6350 5bbd 05ab b43d d1f1 c13d b02c af3e
00000080: ab1a 27bd 840f b13e a222 5a3e b1fe a1bd
00000090: 8222 e8bd b0cb dabb 6626 e83b f1cd 943d
000000a0: fbe9 353d 76d3 043e a326 9a3d 8f74 473e
000000b0: 9942 133e d3a8 1a3f dc19 453d 9874 01bc
000000c0: 4045 63bd a2d3 0d3e e543 cfbd 0e10 d1bb
000000d0: 5136 b83d d411 053e f7d8 2ebe 70f6 a0be
000000e0: 6bee d0bc 95fc d0bd 0c1a a33d 99b5 1f3e
000000f0: 4e5c 14bd a9ed 963e 8e4c 8c3d a4ac b13d
00000100: ae6b 84be 82b5 f13d 391b 863d 222d aebd
00000110: 902b a4ba ae80 0d3d b5d2 c13d c493 063e
00000120: 772f abbd ab74 423e d0ad 643e 2041 05be
00000130: 5e6c 573e 214f cc3b 0d1f 69bd bbbe 02be
00000140: 7a34 b33d 73ad cebd b5f6 82bd 51a6 1bbe
00000150: 951c b23c ce48 7a3c 881a 863d 1803 653e
00000160: f507 aabc a068 4e3e aa55 323b c7ee b0bd
00000170: 7112 45bc 0710 0dbd f355 353d fb26 18bd
00000180: 9524 343b 8473 0a3e 8c2d 2fbd 1900 abbc
00000190: e7f4 103e 3b5d 473e 784f 7e3e 7a2c f0bd
000001a0: 28c1 843c e1fe b1bd e002 a1bc 96e4 babd
000001b0: 0c13 f13d f9fd c13d c19f c9bd 0562 38be
000001c0: 1825 34bd 7480 3d3c 3e7a e63b 3a02 8abc
000001d0: 0957 113d fddc 9a3d 0e52 d0bc 88d9 9a3d
000001e0: e6c4 06be e9fa debc 129f 39bd 4a18 eb3d
000001f0: d9d7 a03d 988f 953d 8b65 f03c 7985 003d
00000200: 8320 063c ad7e 263e 4663 103e e7bc e3bd
00000210: 6177 d23d 3ff6 623d d4b4 eabd c714 713d
00000220: 13fc b43d 0d55 f73c 98f3 22bd b4b7 debd
00000230: f5b1 713c be17 bb3b 457a 143e 85dd a6bd
00000240: c523 7d3d a092 1c3d 5221 14bd 7c7b d2bd
00000250: 6623 2e3e b540 023e 5fb7 87bd 0222 e2bc
00000260: 44e5 c1bd e33d fabd 1bf6 bbbc 570a 183e
00000270: 82eb 70be ef62 0e3d 2275 04be eb26 e9bc
00000280: c32e 183d 24b9 88bd f9e0 9a3d 07e0 0a3d
00000290: 1589 00be e4c1 0cbe 3bc0 54bb 59ca 813c
000002a0: fda5 553d 58c5 09bd 572e e7bd 220c e1be
000002b0: 22f4 8b3d 1c99 88be 84f0 f23c 5f7d f6bd
000002c0: 4fe6 62bb 21de 523d 83d3 20be 90c8 bfbd
000002d0: aa25 203c b0dd 9a3d f406 14be 65bf 72be
000002e0: a7c5 72bb 9e4a cebe c629 84be 0c17 043e
000002f0: a5ea 9ebd 3ce6 60bc c212 93bd 6deb e73d
00000300: aa69 243a 8e3b 0fbe a7c4 ea3d 3201 733e
00000310: 6367 263d ac9a 99bd ad64 3b3c 6deb 8d3b
00000320: e3cd b93d 82de b0bd 5442 203d eedd 63bd
00000330: b64a 073d e817 0dbd 69dc 15bc 9421 a53b
00000340: fcc3 12be ca86 b93d 47ef 563d c4d1 843d
00000350: 3b9a a8bd 41c1 59be 6079 bdbc 747d 523d
00000360: ce88 bd3d 94d2 a03c 4be5 b83d 7ccd 9c3c
00000370: f583 bb3d 8f53 113d e5a4 413c cc5f 2b3d
00000380: b885 063c c91e c7bd d461 45bd 55dd 033e
00000390: ad45 00be 054d 663c d11f e0bc 176f 18be
000003a0: d3c6 45be dc0d f9bd 3ebf 433d c63c e4bd
000003b0: 0d48 b73c 124b 1dbe b207 3dbd 4a11 06bd
000003c0: af87 08bd b044 823d 2697 6bbd 1e77 5e3c
000003d0: 199a 773e 7e3f 0bbe 1b21 16be 12c7 e33c
000003e0: 6a18 e43d 88aa 293c 7f6f db3c edb1 8e3d
000003f0: 42f6 a23c 85d7 43bd a0bf 19be 6790 2f3e
0.014979634 -0.10975565 -0.10159983 -0.2971714 0.024296597 -0.23053035 -0.20679188 0.060746055
0.09997311 -0.16611199 0.035489958 -0.1230916 -0.0049319495 -0.003344818 0.08072732 -0.01362409
-0.061011773 -0.30662706 -0.30836827 0.07502282 -0.06985069 0.10878 -0.014862974 0.030213801
-0.049622644 -0.038690224 0.104947686 0.18435006 -0.05354346 0.08821682 0.09469951 0.3421378
-0.040796917 0.3458215 0.21302274 -0.07909907 -0.11334707 -0.0066771135 0.0070846556 0.07265843
0.044412594 0.12971291 0.075269006 0.19478057 0.14380874 0.60413855 0.048120365 -0.007901333
-0.055485964 0.13850263 -0.10120372 -0.0063800877 0.08994735 0.12995082 -0.17074953 -0.31438017
-0.025504312 -0.10204426 0.079639524 0.15596618 -0.03622084 0.29478195 0.06850539 0.08675507
-0.25863403 0.11802198 0.06548161 -0.08504702 -0.001252519 0.034546547 0.09464017 0.13142306
-0.083586626 0.18989818 0.22331929 -0.13013124 0.21037433 0.006235019 -0.056914378 -0.1276807
0.087502435 -0.100916766 -0.06394712 -0.15200163 0.021742145 0.015276147 0.06548029 0.22364461
-0.020755747 0.20157099 0.0027211704 -0.08639293 -0.012028323 -0.034439113 0.04427142 -0.03714655
0.0027487625 0.13520628 -0.042768046 -0.02087407 0.14155923 0.19469158 0.24835002 -0.11727233
0.016205385 -0.086911924 -0.019654691 -0.091256306 0.11771211 0.094722696 -0.09844924 -0.18006141
-0.043980688 0.01156627 0.0070336154 -0.016846765 0.035483394 0.075616814 -0.025429752 0.07561022
-0.13161048 -0.027219253 -0.045317717 0.11479242 0.0785367 0.07302779 0.029345294 0.03137729
0.008186462 0.1625926 0.1410037 -0.11120015 0.10276676 0.05541062 -0.114602715 0.058857705
0.08837142 0.030191923 -0.03978309 -0.10874882 0.014751901 0.0057096174 0.14499767 -0.0814772
0.06180169 0.03822577 -0.03616459 -0.10277459 0.17005691 0.12719996 -0.06626772 -0.027604107
-0.09467557 -0.12218835 -0.0229445 0.14847694 -0.23527339 0.03476232 -0.12935308 -0.02846094
0.03715397 -0.06675938 0.075624414 0.033905055 -0.12552293 -0.13745838 -0.003246321 0.015843557
0.052160252 -0.033635467 -0.112881355 -0.4395457 0.06833674 -0.26679313 0.029655702 -0.120356314
-0.0034622138 0.05148137 -0.15705685 -0.09364426 0.009774605 0.07561815 -0.14455777 -0.23705824
-0.003704408 -0.40291303 -0.2581312 0.12899417 -0.07759599 -0.013726767 -0.07181312 0.11324201
0.00062718487 -0.13987562 0.1146329 0.23730925 0.04062594 -0.075002044 0.011437577 0.0043310435
0.09072473 -0.0863619 0.039125755 -0.05563157 0.033030234 -0.034446627 -0.009146788 0.005039403
-0.14332575 0.09058912 0.052474286 0.06485322 -0.08232542 -0.21265127 -0.023129165 0.051389173
0.09254609 0.019631661 0.09028109 0.019140951 0.09156028 0.03548008 0.011819099 0.041839406
0.008210592 -0.09722669 -0.048189 0.128774 -0.12526579 0.014056449 -0.027358921 -0.14886127
-0.19314127 -0.121608466 0.047789805 -0.11144404 0.022373224 -0.15360668 -0.046149917 -0.032731332
-0.033332523 0.06360757 -0.057517193 0.013578204 0.24179877 -0.13598439 -0.14661066 0.027804885
0.11137469 0.010355599 0.026786564 0.069675304 0.019892816 -0.047812957 -0.15014505 0.17144929

phi.6.bias f4 [10]
00000000: 33c0 1cbe 576c 443e 34bb ee3d 5cc6 ea3d
00000010: 58d2 8d3d ee4d 87bb be98 13be f88f 2dbd
00000020: 4e79 73bd bb28 063c
-0.15307693 0.19181953 0.116568 0.11463615 0.069248855 -0.004129163 -0.14413735 -0.042373627
-0.059441857 0.008188422

psi.0.weight f4 [128, 11]
00000000: 7eaf 05be 1960 59ba 99e0 973e 626f f3bd
00000010: 4a4e f3bd 1649 a7be 6ce1 503e 7370 b73d
00000020: bc29 8fbe bf10 72bd 6198 e6bd 3e5a a5bd
00000030: b252 6ebe 8246 9abe ea64 833e 72e3 c93e
00000040: aeb1 a2bd 07ab 6b3e 1e12 a7bd 5ce6 ee3e
00000050: fabc 17bd a942 2ebf b7e4 913e 4b0b bc3d
00000060: dbf2 853e 7db3 ea3d bf62 8cbd 7791 cdbd
00000070: 007f 293e 69ab 683b 2766 2bbe 118c 303e
00000080: f1f3 b63d 4ac8 c33e 40fa 8a3c de7b 483e
00000090: f9c5 da3e 1167 343d 04a2 3dbe 3efb 403e
000000a0: 2a12 7ebd a292 debe a188 fcbd a327 9fbd
000000b0: 8fd1 1e3e 5244 70bb 7ff6 a53e b555 ba3e
000000c0: f09c f93d 5408 01be 7a4e 36be a446 343e
000000d0: 987b 233d 2f6c 943e 8259 a0be 49ba 113e
000000e0: 5b6a 953e c0fe 123e f924 103e 3887 363e
000000f0: de44 973e 1460 95bc e3e4 4dbe 8d2f 473e
00000100: 9fed 24be d9ba d4be a919 773e c5bc 553e
00000110: 535a 1fbe 2e3a e03c 187f 8cbe ef54 5fbe
00000120: b1a4 97be ea48 04be 4c70 7cbd 2419 1abd
00000130: 30ab afbe daa8 83be d331 9fbc eab4 d8bd
00000140: faaa 033e 9d95 653d 14d6 a9be 43f4 323d
00000150: 8255 4e3d e724 5d3e f045 3fbe 5cca 933e
00000160: 338f 39be 4123 a33e f6cb 973d 110b d3bd
00000170: 38ac b9be fb1f 91be e36a acbe fde3 0b3d
00000180: a6cb d4bd 48a2 42be bdff eebe 36cb 68be
00000190: 129b ddbd a104 91bd b910 e73e 6794 963e
000001a0: 6ce0 ecbe a8b6 9fbe b5d5 cb3d c7c6 2b3e
000001b0: 6d6a 9c3e 6bc8 113f a860 783d c492 1a3d
000001c0: d2b4 f03d 3bf5 07be f072 ab3d f0f4 6fbe
000001d0: f2a5 5ebe 2163 ba3d c8c2 22b9 3cfa 27bd
000001e0: 13e0 5f3e de50 b0be 2c76 383e 8b15 1b3d
000001f0: 3b14 893e 64eb 193e cc3a 89bb 907c 743d
00000200: 9a6e 37be ab8f cc3d d2f8 843e 4ca6 aabe
00000210: c2e3 c33c 7ea6 2ebe 06f9 c6bd 3617 22be
00000220: b872 1d3e 70b8 a53c 876b b6be 8d22 243e
00000230: 1466 983b 367c e23c e4e2 e4bc 5992 e2bd
00000240: 6d89 07bf 24cf 7e3e 6e12 f9bd 1c6d 8ebe
00000250: c845 43be c322 5ebe 2092 df3e 4ad1 f83e
00000260: 6181 01be a81c d83e 89da 5a3d 0a41 98be
00000270: c8e9 52be b6ed e73c 504e 53bd 8d4c 353e
00000280: fae1 b13c 4995 923d 60db 003e 2085 773d
00000290: fa0b 0cbf d397 d83d e4d8 1a3e 9537 3a3d
000002a0: ec3d 6b3e 6677 ef3d 50aa 8d3d 61a6 423e
000002b0: 80c5 7bbc 1b52 f8bd 83c1 7fbe f4d3 92be
000002c0: b303 5abe 4ae9 2ebd 7299 543d 7fdb 123c
000002d0: ef79 e9bd 0f3f 20be 13b2 6bbd 8758 b83d
000002e0: cc34 06be ccc6 edbd 3b0a 3f3e 7925 15be
000002f0: 313a b1bd 798f 6b3e a4eb be3e 1e26 bcbd
00000300: 1228 8dbc 3d94 95be 0e80 003d b57d cbbd
00000310: b23e 3c3d 048a 1cbf 5701 053e 6890 063e
00000320: 5e63 cbbc ebe6 9d3d 02d2 88be 5203 9c3e
00000330: 8f56 3abd 5d2f b53e 0d1d 863d 694d 38bd
00000340: 5a5e 89bd c455 b6bd 5e13 b2bc 399b 953e
00000350: 77e5 d8bd 07ab 803d ea04 adbd 7cb9 5d3d
00000360: 4acf 333e a53b 30be 69bc 923d 601a 9ebd
00000370: 5aac bcbd 2924 3e3d 0c9c e2bd 617d c53d
00000380: bd2b 063e 2008 1b3e 2050 5abd ef71 fdbe
00000390: ca98 b3bd 36cf 2c3e d81c 313e f762 01bd
000003a0: a182 0f3d bbbf 493e c148 85be 624c 223e
000003b0: 794f 17be ef0e 38be 6e16 bcbd 7027 00be
000003c0: c2dd 41be 4a53 b33d 5762 a9bd 713d c2bd
000003d0: 3213 173e 35bc 233e fc6f b33d 0309 a83e
000003e0: 0621 943d 84e4 523e db07 103e 9ee5 2e3e
000003f0: c2dc 8fbe cf33 1e3e 7746 a1be 0ac8 b7b9
-0.13055226 -0.0008292213 0.29663542 -0.11886479 -0.11880167 -0.32672948 0.20398492 0.08956995
-0.27961528 -0.059098 -0.11259533 -0.08073853 -0.23273733 -0.30131918 0.2566293 0.3943134
-0.07944046 0.2301446 -0.081577525 0.46660125 -0.037045456 -0.68070465 0.28494808 0.091818415
0.26161847 0.11460016 -0.06854772 -0.10037511 0.16552353 0.003550256 -0.16738187 0.17240931
0.08933247 0.38238746 0.016965032 0.19578502 0.42729166 0.044043604 -0.18518835 0.18845841
-0.06202904 -0.43471247 -0.123307474 -0.07771232 0.15509628 -0.0036661816 0.32414624 0.36393514
0.121881366 -0.12600833 -0.17803374 0.17605072 0.03991279 0.28988788 -0.3131829 0.14231218
0.29182705 0.14354992 0.14076604 0.1782502 0.2954473 -0.01823429 -0.20106845 0.19451733
-0.1610627 -0.41548803 0.24130882 0.20872791 -0.155618 0.027371492 -0.27440715 -0.21809743
-0.29617837 -0.1291844 -0.061630532 -0.037621632 -0.34310293 -0.2571476 -0.019432938 -0.105813816
0.12858191 0.056050885 -0.3317114 0.043689977 0.050374515 0.21596108 -0.18679023 0.28865325
-0.18121032 0.31862834 0.07411949 -0.10304845 -0.36264205 -0.28344712 -0.33675298 0.034152973
-0.10390405 -0.19007218 -0.46679488 -0.22733769 -0.10820593 -0.07080961 0.45129946 0.29410097
-0.4626497 -0.31194043 0.09952871 0.16775046 0.30549946 0.5694644 0.060639054 0.037737623
0.11753239 -0.13277142 0.08371532 -0.2343328 -0.2174299 0.091009386 -0.00015522086 -0.041010126
0.21862821 -0.34436697 0.18013829 0.03786234 0.26773247 0.150312 -0.0041879173 0.059689105
-0.17913285 0.0998834 0.25971085 -0.3333 0.023912314 -0.17055699 -0.09715466 -0.15829167
0.15375793 0.020229548 -0.35628912 0.16028805 0.0046508405 0.027647119 -0.027940221 -0.1106307
-0.5294407 0.24883705 -0.12161718 -0.2781762 -0.19069588 -0.21692948 0.43666172 0.48597175
-0.1264701 0.42209363 0.053431068 -0.2973712 -0.20596993 0.028311592 -0.051588356 0.17704983
0.0217142 0.0715738 0.12583685 0.060429692 -0.54705775 0.10575833 0.151218 0.045463163
0.2297284 0.11692695 0.0691725 0.19008781 -0.015366912 -0.121250354 -0.24976163 -0.28677332
-0.21290474 -0.04270295 0.05190415 0.008963465 -0.1140021 -0.15649055 -0.05754287 0.0900126
-0.13106078 -0.11610183 0.18656246 -0.14565076 -0.08653677 0.23003949 0.37289155 -0.09186958
-0.017231021 -0.2921466 0.031372122 -0.09936086 0.04595823 -0.61148095 0.12988792 0.13141024
-0.024827655 0.0771006 -0.26722723 0.30471283 -0.045492705 0.35387698 0.0654851 -0.0449957
-0.06707449 -0.08903077 -0.02173775 0.29219988 -0.10590642 0.06282621 -0.08448203 0.05413197
0.17559543 -0.17210253 0.07164843 -0.077198744 -0.09212561 0.046421204 -0.1106492 0.09643055
0.13102622 0.15139818 -0.05329907 -0.49500987 -0.087693766 0.1687592 0.1729616 -0.03158852
0.035036687 0.19702046 -0.2603207 0.1584945 -0.1477641 -0.17974447 -0.091839656 -0.12515044
-0.1893225 0.087561205 -0.0827071 -0.09484375 0.14753416 0.15989764 0.08761594 0.32819375
0.07232861 0.20594984 0.14065497 0.1707978 -0.28098112 0.15449451 -0.31499073 -0.0003505352

psi.0.bias f4 [128]
00000000: 96d6 52be 8999 06bf 40e1 3abe b930 11be
00000010: b809 3c3b d096 ef3d 40df 20be 9a8e 78bd
00000020: c059 4e3e 9acc 12be 1a91 c9be c6ae a1be
00000030: 0fed 8cbd bf09 edbc ef23 14be f5f8 f5bd
00000040: f695 c5be 01a9 04bd 5f26 87be 3bb7 1dbe
00000050: a826 bdbc edaf 4abe 1cbb 7cbe d046 dabd
00000060: b3ab 19be ac9a 04bd b174 ddbe f41c 44be
00000070: 9926 bbbe 38d0 633e 4cb7 2e3e 3fb3 b93c
00000080: d451 28bd 4cba 513d a87c c3be 3754 fe3b
00000090: 357a ce3b 2856 80be f762 1dbe a45b 8bbe
000000a0: 410a 50be 4c65 a3bd cec5 273d 4736 c9be
000000b0: a0cd 56bd 7658 a7bd 4087 39be acc2 55bc
000000c0: eb52 57be 86fb d23d 8775 643d 07a1 35be
000000d0: 822c 303d 769a 06be 8928 243c e058 2cba
000000e0: d4ae 043e 1f59 21bd 521f 28be ab3c 0dbe
000000f0: 4f26 1d3e 9e66 b1be 6503 14be c7b0 0ebd
00000100: fe42 253e 1e3e d8bd 2ff2 fd3d 4476 61be
00000110: 9390 e33d 86e2 0ebd 4680 93bc 6e8d 013e
00000120: bb86 21be afe8 443e 30b1 44be f90b 89bd
00000130: f7a0 9bbe c1c1 f53d 9154 31be a86d ce3d
00000140: 06b8 8e3e 0648 ecbd 395f 92be d788 a4be
00000150: 9355 9c3e 97be b5be aa89 27bd 8fa8 babe
00000160: 7203 babd c957 c43d b9e3 a1be 6d3b 48be
00000170: f221 20bf 5925 43be c389 03be a648 06be
00000180: 82ce 0bbd 98c3 acbd f674 63be 52fc 90be
00000190: 84f1 6bbb 5c6a b5bb b214 92bc c1b6 ecbe
000001a0: 0ee9 6b3c 8508 23be 35ec 68be e246 25be
000001b0: 21a7 9ebe b397 853d c1c9 0e3e 7137 aa3e
000001c0: cfba 52be 9e3b 113d 7b4c 5d3d 1e5d febd
000001d0: 1734 3abe 4a6d 17bf de07 8b3d fe8a 7cbd
000001e0: 1c18 6abd 330b 2cbe edea 36be 0c94 2c3e
000001f0: b118 0e3d ef6d 34bc 50d5 0bbd af9d 86bd
-0.2058967 -0.52578026 -0.18249989 -0.14178742 0.0028692316 0.11698687 -0.15710163 -0.06068287
0.20151424 -0.14335862 -0.39368516 -0.31578654 -0.06881153 -0.028935311 -0.14466833 -0.120103754
-0.38590974 -0.032387737 -0.26396462 -0.15401928 -0.023089722 -0.19793673 -0.24680752 -0.10658038
-0.15006904 -0.03237407 -0.4325309 -0.1915167 -0.36552885 0.22247398 0.1706211 0.022668479
-0.041093662 0.051203057 -0.38181043 0.007761504 0.0063011893 -0.25065732 -0.15369783 -0.27218354
-0.20316412 -0.07978305 0.040960126 -0.39299223 -0.052442193 -0.081711695 -0.18118 -0.013046902
-0.21027724 0.103018805 0.055776145 -0.17737208 0.043011196 -0.1314486 0.01001943 -0.00065745227
0.12957317 -0.039391633 -0.16418198 -0.13792674 0.15346645 -0.34648603 -0.1445442 -0.034836557
0.16138837 -0.10558723 0.123997085 -0.22017771 0.1111156 -0.034884 -0.018005501 0.12651607
-0.15774052 0.19229387 -0.19208217 -0.06691737 -0.30396244 0.11999846 -0.17317416 0.10079509
0.27874774 -0.11537175 -0.28588274 -0.3213565 0.30534038 -0.3549697 -0.04090277 -0.36456725
-0.090826884 0.09587056 -0.3161905 -0.19553919 -0.62551796 -0.19057216 -0.1284552 -0.1311365
-0.034132488 -0.08435744 -0.22212586 -0.28317505 -0.0036002109 -0.0055363607 -0.017832134 -0.4623318
0.014398826 -0.15921219 -0.22746356 -0.16140321 -0.30986884 0.06523075 0.1394415 0.33245423
-0.20579074 0.035457246 0.054028016 -0.124201044 -0.18183933 -0.59151137 0.0678861 -0.06165599
-0.0571519 -0.16801147 -0.17863055 0.1685335 0.034691516 -0.011012538 -0.034138978 -0.065730445

psi.2.weight f4 [128, 128]
00000000: 2bc6 723c 44cc d13c 8399 cb3c 7b82 12be
00000010: 0575 edbc 2208 44bc d074 273e 047e 94bd
00000020: 43d5 bfbd 0e23 873d 28f5 6e3d b0ba 5c3e
00000030: a726 51be 3d12 ddbc fc12 e5bd 0842 0ebe
00000040: c73d 5d3d c9c1 323e c2f1 0fbe 7ddd 9abd
00000050: 6c9c fdbd dded e93d e608 a0bd 3200 a8bd
00000060: 0184 15be 5818 b9bd 4c01 f4bb bcd7 de3d
00000070: 55a5 873e 956c 67bc b340 38be 1b7f b63d
00000080: 5ed9 113c 84c6 f939 965b c33d a331 2ebc
00000090: 66a3 413b eedb 87bc d657 01be 8609 b33d
000000a0: f3e6 49bd 93cc 62be 0541 6c3e 7f09 403e
000000b0: d8d9 cb3c 9b2d 7fbe 13ec e43d 654d 7bbe
000000c0: 4691 a83c 552e d2bd 52ca 30be fcf9 c6bd
000000d0: 1b69 1ebd 39d3 a53d 01c3 c83c db56 b7bd
000000e0: 6046 243b 93e2 68be cf7b 58be 5288 ad3d
000000f0: ea3d 363e 1f38 1b3e d241 703e 51b4 303e
00000100: 4a7f 71be 8bb1 b2bb a45a b73c 406b 32be
00000110: ef0d 14be 38b7 8fbe 0829 4bbe 7a4a b5bd
00000120: dfbb ff3d 48dc 8cbc 008d febd de01 1dbd
00000130: d564 77bd 34ae 8cbe ff64 adbd 2921 a7bc
00000140: 2af7 71be 75aa 8d3e e35d 063e 955b 203e
00000150: 42ec e9bd 0865 a0bc 0f24 8b3e 5dc4 3e3e
00000160: 0cf6 af3c a0db 01be 122f 433e a5f7 21bd
00000170: 275d 983d 5834 5e3e 4c35 3c3e f254 0e3e
00000180: 2a68 763e 0bc0 9c3d c4fd 08bc c5d5 573e
00000190: 55e9 c93c d327 edbd 1258 733c 7d73 983e
000001a0: 4015 f3bd c9ad a53d ee87 303e f702 343c
000001b0: eb2e 78bd 244a aebd bc3f 23be 8d44 2cbd
000001c0: 1fa2 4b3e 44a7 06bd eba5 44bc 133d 493e
000001d0: 91ed 1c3e 1e13 2a3e 1253 0ebe 7fd3 56bd
000001e0: f284 f639 449f 84be a107 febb 527e 2bbd
000001f0: 8067 2cbe 5489 41be 83a4 06b8 391b 9dbd
00000200: d26e 05be 9ce1 433d bd4b 063d 7b43 f0bd
00000210: 2608 7dbd 4ba7 e2bd 174f 583d 1233 febc
00000220: 04c8 0a3d fb6e 3b3c a5b4 ac3d 53c1 13bd
00000230: 1b66 02bd 4589 46bd bafb 8fbd 36c0 f9bd
00000240: 46ff a83c 3cf6 e53d 9046 3d3e 968a 883c
00000250: 7d8a 6dbd a68a 37bd 780f e2bd 6886 98bd
00000260: ce2b 343d 0e8c 1e3e 8fc0 aebd 8e8d ad3d
00000270: 3b4d a03e 400c c03b f434 ba3c ff0f 06bd
00000280: 968f 83bd 6b78 11bd 5e2f bebc 3175 3ebd
00000290: 4041 babd 1978 c2bd 4c99 1d3e ac32 40bd
000002a0: f89f 823d 7685 7a3c ee7b 61bc 2cca b73d
000002b0: 5118 d2bc 49fd 06be 742f 29be 5762 59bd
000002c0: c2a5 1b3d 21cb 01bd f108 9fbc 29cb e53c
000002d0: b0ce 383c 7397 b4bd cdee 523e 66dd a23c
000002e0: 18e6 c3bd 2f08 b0ba d310 733c 4ff1 d03d
000002f0: c47a c9be 626e 09be 8d2e f5ba 1a34 cebc
00000300: 1a8c b5bd 3f1f b0bd 769f 793b 1fec 97bd
00000310: a529 7b3c 5f8f 093d 9392 67bd 106e c1bd
00000320: 967e 5dbc 1cd4 ecbc ccb3 c9bb 31ab 023e
00000330: 20b2 833d 1d74 3a3c d5a4 0bbd dadf 523e
00000340: 77ea e63b 8571 fe3d cab7 b03b 6ff5 e73c
00000350: 14f7 d33b 846d a5bd ac35 c53d 84ca 893d
00000360: bd9f 26bd 5ccd 10bd aef5 843d 35fe 0abe
00000370: 6481 18be 8af5 a13d bf22 3abd 15e8 a03d
00000380: e990 dc3c 2b7d 7f3c a48c 0dbe e121 ff3c
00000390: 2643 ea3d 6d6d adbd a1c6 c5bd 46c9 33bd
000003a0: 0675 093c aa72 4b3e db4c af3d 70cf 7dbd
000003b0: 8d3d ffbd 7a54 46bc 4856 89bd 24bb 89bc
000003c0: 9235 42bd 2cb6 b93c 9e47 053e 624c 153e
000003d0: 821e 0cbd dda6 7dbd a350 dc3c 6dfd cebd
000003e0: 5706 5abd 9ca4 07be 55b0 b0bb 936b cdbd
000003f0: 4200 0d3d 5509 8abc b4a3 09be 9df1 c23c
0.014817755 0.025610097 0.024853474 -0.14307587 -0.028986463 -0.01196483 0.16353154 -0.07250598
-0.09366848 0.06598483 0.058339268 0.2155559 -0.20424901 -0.026986236 -0.111852616 -0.13892376
0.054013994 0.17456736 -0.14057067 -0.07561777 -0.12383351 0.11422322 -0.07814197 -0.08203162
-0.14601137 -0.09037846 -0.0074464437 0.10880992 0.26493326 -0.014125009 -0.17993431 0.08910962
0.008901922 0.00047640887 0.09538953 -0.0106319515 0.0029546856 -0.016584363 -0.12631163 0.08742051
-0.049292516 -0.22148351 0.23071678 0.18753622 0.02488415 -0.24919741 0.1117784 -0.24541242
0.020577084 -0.102627434 -0.17264679 -0.097156495 -0.038674455 0.08096928 0.024507048 -0.08952113
0.002506636 -0.22742681 -0.21140979 0.08473267 0.17797056 0.15158127 0.23462608 0.17256285
-0.23583713 -0.0054532937 0.022382088 -0.17423725 -0.1445844 -0.28069472 -0.19839871 -0.08852096
0.124870054 -0.017194882 -0.12429237 -0.03833186 -0.060398895 -0.27476656 -0.08466529 -0.020401554
-0.23629442 0.2766911 0.13121752 0.15659936 -0.11422016 -0.019579425 0.27175948 0.18629594
0.021479629 -0.12681437 0.19060925 -0.039542813 0.074396424 0.21699655 0.18379706 0.13899592
0.24063173 0.07653817 -0.008361284 0.2107764 0.024647394 -0.115798615 0.014852541 0.2977561
-0.118692875 0.080897875 0.17239353 0.010987035 -0.06059162 -0.08510235 -0.15942281 -0.042057563
0.19886063 -0.03287436 -0.012002449 0.19652204 0.15325 0.16608855 -0.13898876 -0.052447792
0.00047019828 -0.2590276 -0.0077523743 -0.041868515 -0.16836357 -0.18900043 -3.2101303e-05 -0.07671208
-0.13030556 0.04782258 0.032787073 -0.11731621 -0.06177535 -0.11067065 0.0528098 -0.031030212
0.033882156 0.011440034 0.08432893 -0.03607304 -0.031835657 -0.048470754 -0.07030435 -0.121948645
0.020629536 0.11228606 0.18483949 0.016667645 -0.0579934 -0.04480996 -0.11038107 -0.07447511
0.043987088 0.15483114 -0.085328214 0.08474265 0.31308922 0.0058608353 0.022730328 -0.0327301
-0.06423871 -0.03551523 -0.023215946 -0.04649848 -0.09094477 -0.09495563 0.1539051 -0.046923324
0.06378168 0.015290609 -0.013762457 0.08974108 -0.02564636 -0.13182558 -0.16522008 -0.0530723
0.037999876 -0.03168786 -0.019413443 0.028050976 0.011279747 -0.08817949 0.20598908 0.019880962
-0.09565371 -0.0013430173 0.014835554 0.10202276 -0.39351475 -0.13421014 -0.001870589 -0.025171328
-0.08864613 -0.0859971 0.003808943 -0.074180834 0.015329753 0.033583995 -0.05653627 -0.09444821
-0.01351895 -0.028909735 -0.0061554667 0.12760617 0.06430459 0.011380223 -0.034092743 0.20593205
0.0070469934 0.12423996 0.005393003 0.028315274 0.006468663 -0.08077529 0.09629378 0.0672808
-0.040679682 -0.035352096 0.06492172 -0.13573535 -0.14893109 0.07908161 -0.045443293 0.07856766
0.026924567 0.015593807 -0.13823181 0.031144084 0.11438589 -0.08468137 -0.09657026 -0.04389312
0.008389717 0.1986796 0.08559581 -0.061965406 -0.12462912 -0.012105102 -0.0670591 -0.016812868
-0.04741437 0.022669874 0.13015601 0.14579919 -0.034208782 -0.06192671 0.02689392 -0.10106931
-0.053228702 -0.13246387 -0.005392114 -0.10030284 0.034424074 -0.016850153 -0.13441354 0.02379685

psi.2.bias f4 [128]
00000000: f27c 80be 107b c5bd 9776 783c a94b 17be
00000010: 7a39 4bbe 3204 433e 3506 1dbe b5ad 8bbd
00000020: 78fd 803d da63 ebbe 6562 81be 361a 97bd
00000030: df4b 0ebe aea1 37be b364 4abe 200c 21be
00000040: a19d d03d 4ac7 fbbd 2e10 0ebd 97ea c0bb
00000050: 5649 94bd 6260 94bd 338e 40be ba3f dcbc
00000060: 3ae4 25be 3125 0fbe 21c0 90bd 5d45 ad3d
00000070: 469b 333e 3404 b2be aaf7 3abe 5c9e b2bd
00000080: 8c1c ee3d 5638 b5bd e08d 7ebe 7297 10bd
00000090: 9b9a 613e abda 923e ad28 3bbe e0b4 ebbe
000000a0: 7588 10bc acf2 34be bd00 49be 9de3 24bd
000000b0: 0ba4 98be ddd8 1abd 37e5 d9be ae8a 05be
000000c0: ccdb 20bd 3af7 32be cf37 423e 5521 d2bd
000000d0: 1961 3abe 5233 9dbe f683 abbb 4bef 5ebe
000000e0: f2ba adbc ac47 29bd 810a a5bd 0a17 4ebe
000000f0: ee2a acbd 17c0 8e3c 7cc8 47be b6bb 73be
00000100: b1d7 4dbb 068c 0abe 96a7 3fbe 0648 12be
00000110: e75f 0abd a062 babd 4419 f4bd 701f 94bd
00000120: 9f2d 013e 8adf fcbc 35cc e4bd 2388 8bbe
00000130: 2de7 30be 8641 e8bd cc1b 9fbc e629 efbe
00000140: 2b13 00bf c3eb 86bd ef8d 5bbe 1985 94be
00000150: 9e8b 19bc c16c 3d3e 2da9 6abc ba9e 84be
00000160: 86f6 db3c c478 83bd 5fd6 cabc 9827 e9bd
00000170: 3d87 15be b4c9 82be ecb2 053d 5dae 8dbe
00000180: 03bd 79be 0d9d 1d3c d1f4 273e 7cf1 b7be
00000190: b3cb bcbd 67c3 813d db70 88be 08d1 d3ba
000001a0: 8715 d4bd 93a4 93be 5d29 303c a55d 383e
000001b0: 8182 29be 11f4 dabd 49ad 9cbd 0517 e0bd
000001c0: 0c70 6abd 7bed efbc cd37 a7bd ec01 363d
000001d0: 2af7 453d e0f4 febc 97cf 00bb 7e60 25bd
000001e0: cfbd 94bd 9cd1 f6bd c06c abbd 642f 91bd
000001f0: 1f8c 1abf 3383 c8bd a26d 57be cb50 4bbe
-0.25095326 -0.09642613 0.015164993 -0.14774956 -0.19846144 0.19044569 -0.15334399 -0.06820241
0.06298345 -0.45974618 -0.25270382 -0.07378046 -0.1389613 -0.1793277 -0.19764976 -0.15727282
0.10186315 -0.12293871 -0.0346834 -0.0058873403 -0.0724055 -0.07244946 -0.18804245 -0.026885856
-0.16200343 -0.13979031 -0.07067896 0.084604956 0.17539701 -0.34768832 -0.18258539 -0.08721611
0.11626539 -0.08848636 -0.24858809 -0.03530068 0.22031634 0.28682455 -0.18277235 -0.46036434
-0.008821596 -0.17670697 -0.19629188 -0.04025613 -0.29812655 -0.037804473 -0.4255769 -0.13041183
-0.039272115 -0.17477122 0.18966602 -0.10260264 -0.18201102 -0.30703217 -0.005234237 -0.2177097
-0.021207307 -0.041328117 -0.08058644 -0.20125976 -0.08406626 0.01742558 -0.19510072 -0.23802075
-0.003140908 -0.13529977 -0.18716273 -0.14285287 -0.033782866 -0.091008425 -0.119188815 -0.07232559
0.1261506 -0.03086831 -0.11171762 -0.27252302 -0.17275687 -0.113406226 -0.019422434 -0.46711653
-0.5002925 -0.06587937 -0.21440862 -0.29007795 -0.009371666 0.18498518 -0.014322561 -0.2590235
0.02685095 -0.064195186 -0.024760423 -0.11384505 -0.1460237 -0.25544512 0.032641336 -0.2767209
-0.24388508 0.009619963 0.16401984 -0.35926425 -0.0921854 0.06336098 -0.26648602 -0.0016160319
-0.103556685 -0.28836498 0.010752049 0.18004473 -0.1655369 -0.10691083 -0.07650239 -0.109418906
-0.057235762 -0.029288044 -0.0816494 0.044435427 0.048331417 -0.031122625 -0.0019654983 -0.040375225
-0.072627656 -0.120516986 -0.08370352 -0.07089117 -0.6037006 -0.09790649 -0.21037915 -0.19855039
