weight_checkpoint_2022-2-19_17-8-27_l88MFXz0a0S7gJhQKzTt.pt (torch, 121663 bytes, 15 tensors)

phi.0.weight f4 [32, 20]
0.15597646 0.1718291 0.011775505 0.022218183 0.19813208 0.105708905 0.16043337 0.055846654
0.16401404 0.21416515 -0.22312574 0.15926702 -0.1877594 0.1024425 -0.084522866 0.13562539
0.055088636 -0.20365314 -0.21813163 0.031783078 0.07599057 -0.032133017 0.12784852 0.08331026
-0.11228963 0.13734855 0.11991751 -0.1693931 0.21807018 0.043076746 0.20546287 -0.0022187661
0.1431659 0.11819167 0.06340459 0.20106386 -0.109749176 -0.16501266 0.16756918 0.18480127
-0.178423 0.14538173 0.20659567 0.21705122 -0.08150117 -0.15599637 -0.18363595 -0.02833051
-0.07754219 0.02883932 0.1994549 -0.025524274 0.1629521 -0.022716755 0.0500736 -0.1970227
0.0301593 0.13451093 0.07997988 0.05891044 -0.058253292 -0.15906799 0.18906207 0.10107969
-0.070281416 0.20935868 0.13393113 0.111924686 -0.12589638 -0.12812877 0.07292636 -0.013941545
0.12558748 -0.14255689 -0.14172912 -0.076285385 -0.08039345 0.0781126 0.014862617 -0.09075512
-0.1714247 -0.17424832 -0.10797282 0.21760759 0.10134779 0.12012649 -0.14841466 -0.15283939
0.004112862 -0.10305226 0.16708316 -0.18850793 -0.04691228 0.2202215 -0.11007956 -0.14214143
-0.10346556 0.21421207 0.09459281 0.06242136 -0.004240891 0.030877413 -0.21691917 0.14795096
-0.09573502 -0.032461926 -0.09221184 0.18566653 -0.21137638 -0.0322881 -0.18845731 0.015361831
-0.14444526 0.13227034 0.1885405 0.18614031 0.16532482 0.06288248 -0.059672166 0.12416837
-0.0118645355 -0.027473733 0.20107193 -0.1772926 0.06015557 0.060557436 0.034422606 0.19185975
0.1789317 0.078736834 -0.21735033 -0.090313725 0.115247354 0.17257017 -0.0056392383 0.19062263
0.009422685 -0.009600161 -0.19568618 -0.029090207 -0.07337223 0.044984385 0.20103694 -0.07395824
0.20037971 -0.0200881 -0.042721182 -0.032568283 0.054595556 0.009242117 0.119965546 0.08389381
-0.057077043 -0.15499884 -0.14557658 -0.202678 0.18547852 0.17086242 -0.1608095 0.21171673
0.1862324 0.02519907 -0.0064399047 0.10982152 0.14083806 -0.06744383 0.06528675 -0.08367507
-0.08417698 0.1581264 0.07190375 -0.07643109 0.21976134 0.049353518 0.13483728 -0.14236858
0.108568266 -0.14981158 0.1338357 -0.005303666 -0.053053956 0.09411471 -0.15773061 0.05328211
0.11372508 -0.15408367 -0.0043413304 0.027365856 -0.049780652 0.031350076 0.053474188 -0.21204571
-0.18417801 -0.21720614 -0.19475825 0.112562984 -0.018613996 -0.058557436 -0.051159915 0.1621077
-0.19386135 0.0849729 0.11582123 0.19099987 0.17029902 0.0028041853 -0.15433295 -0.079025544
-0.17073607 0.15699005 -0.04164436 -0.17676318 -0.16075046 0.21586962 0.10789451 -0.22149007
-0.087375805 0.17722888 -0.114213 -0.2098758 -0.099861346 0.065829225 -0.14179492 0.009500201
-0.16540234 -0.07204471 0.036316063 0.009520086 -0.20437497 0.18167192 0.010666508 0.21296388
-0.18389292 -0.18932752 0.098707594 -0.22257371 0.050180893 -0.011283142 0.17659591 0.1764778
-0.119942784 -0.03901805 0.17177674 -0.12906615 0.009800694 -0.1386252 -0.01579747 -0.07276088
0.024651235 -0.07876877 0.16261439 -0.15125754 0.18911208 -0.05213451 -0.15754943 -0.053335577
00000000: 4bb8 1f3e f8f3 2f3e 0cee 403c e802 b63c
00000010: 23e3 4a3e e97d d83d a548 243e 76bf 643d
00000020: 4cf3 273e 1c4e 5b3e 137b 64be e516 233e
00000030: 0044 40be 60cd d13d 531a adbd 62e1 0a3e
00000040: 9fa4 613d 738a 50be e65d 5fbe f92e 023d
00000050: f2a0 9b3d e99d 03bd b9ea 023e 929e aa3d
00000060: 1bf8 e5bd 19a5 0c3e 5097 f53d 6375 2dbe
00000070: ca4d 5f3e 3e71 303d dc64 523e b868 11bb
00000080: 159a 123e 790e f23d 44da 813d afe3 4d3e
00000090: 2dc4 e0bd 14f9 28be 4197 2b3e 8b3c 3d3e
000000a0: 85b4 36be f3de 143e d18d 533e ad42 5e3e
000000b0: 16ea a6bd 83bd 1fbe 100b 3cbe 6315 e8bc
000000c0: 71ce 9ebd 7040 ec3c e83d 4c3e 4818 d1bc
000000d0: eadc 263e 7d18 babc fa19 4d3d 52c0 49be
000000e0: a310 f73c 3cbd 093e 7ecc a33d 134c 713d
000000f0: 019b 6ebd b8e2 22be 7d99 413e de02 cf3d
00000100: b4ef 8fbd 1f62 563e 3e25 093e c538 e53d
00000110: fbea 00be 3034 03be 6a5a 953d 146b 64bc
00000120: 019a 003e 6ffa 11be 7021 11be 833b 9cbd
00000130: 52a5 a4bd 80f9 9f3d 5582 733c d2dd b9bd
00000140: f589 2fbe 276e 32be db20 ddbd 86d4 5e3e
00000150: 6e8f cf3d e104 f63d 03fa 17be ee81 1cbe
00000160: 30c5 863b 100d d3bd d917 2b3e 3908 41be
00000170: 1727 40bd bf81 613e 6471 e1bd 868d 11be
00000180: c0e5 d3bd 695a 5b3e e0b9 c13d 8aad 7f3d
00000190: 2cf7 8abb a1f2 fc3c 0f20 5ebe 7580 173e
000001a0: b910 c4bd ccf6 04bd 90d9 bcbd 5e1f 3e3e
000001b0: 0d73 58be 8740 04bd f4fa 40be 30b0 7b3c
000001c0: 75e9 13be e071 073e c310 413e 919b 3e3e
000001d0: e94a 293e 88c8 803d cd6a 74bd fd4b fe3d
000001e0: 7863 42bc 9810 e1bc cde5 4d3e 318c 35be
000001f0: b065 763d 130b 783d b8fe 0c3d e276 443e
00000200: df39 373e c740 a13d 1691 5ebe 67f6 b8bd
00000210: ce06 ec3d 3cb6 303e 5cc9 b8bb 9432 433e
00000220: 9b61 1a3c fe49 1dbc f561 48be 964e eebc
00000230: 2e44 96bd 8c41 383d a1dc 4d3e 6b77 97bd
00000240: 5730 4d3e cd8f a4bc 68fc 2ebd 5266 05bd
00000250: 979f 5f3d 406c 173c 7fb0 f53d 85d0 ab3d
00000260: 9ec9 69bd 04b8 1ebe 0712 15be d28a 4fbe
00000270: 15ee 3d3e 8ff6 2e3e 3fab 24be 45cc 583e
00000280: b5b3 3e3e 486e ce3c d605 d3bb 1bea e03d
00000290: da37 103e fe1f 8abd 0fb5 853d d65d abbd
000002a0: fb64 acbd e3eb 213e 4642 933d e787 9cbd
000002b0: 1e09 613e ea26 4a3d c912 0a3e 12c9 11be
000002c0: 0a59 de3d 3568 19be 3a0c 093e 60ca adbb
000002d0: 1b4f 59bd 37bf c03d 2284 21be 573e 5a3d
000002e0: b2e8 e83d 1cc8 1dbe b841 8ebb 5c2e e03c
000002f0: cce6 4bbd f068 003d c007 5b3d 8322 59be
00000300: 2999 3cbe 496b 5ebe b56e 47be 6c87 e63d
00000310: 617c 98bc ecd9 6fbd 0f8d 51bd 90ff 253e
00000320: 9783 46be 4606 ae3d ae33 ed3d 7895 433e
00000330: de62 2e3e 6cc6 373b 7509 1ebe 25d8 a1bd
00000340: 70d5 2ebe 00c2 203e 4793 2abd 6801 35be
00000350: c59b 24be ed0c 5d3e ccf7 dc3d 4bce 62be
00000360: 16f2 b2bd 7d7b 353e 81e8 e9bd afe9 56be
00000370: 1b84 ccbd 79d1 863d b032 11be bba6 1b3c
00000380: 3b5f 29be 2d8c 93bd 27c0 143d 23fa 1b3c
00000390: ac47 51be 3408 3a3e 94c2 2e3c 3413 5a3e
000003a0: 6d4e 3cbe 13df 41be 3527 ca3d 5dea 63be
000003b0: 7b8a 4d3d eddc 38bc 8fd5 343e 99b6 343e
000003c0: 90a4 f5bd 64d1 1fbd 3ee6 2f3e eb29 04be
000003d0: 1793 203c c4f3 0dbe b269 81bc a803 95bd
000003e0: 63f1 c93c 8551 a1bd 6384 263e 42e3 1abe
000003f0: 99a6 413e ff8a 55bd a354 21be 6876 5abd

phi.0.bias f4 [32]
0.05687211 0.05209847 -0.09615144 0.13076691 0.01757228 -0.16989513 -0.16327971 0.0537786
0.03981112 -0.0073174736 0.0061249905 0.11279833 -0.08566222 -0.13836545 0.079818666 0.19399752
0.1480578 -0.03127744 -0.21065398 0.0034491806 -0.042309906 -0.14527924 -0.13202694 0.050521236
-0.004202959 -0.043586463 -0.20844328 -0.15889575 -0.011885007 0.19279623 0.002582807 -0.05183714
00000000: bbf2 683d 3565 553d 0ceb c4bd c3e7 053e
00000010: bef3 8f3c fdf8 2dbe cc32 27be f346 5c3d
00000020: fc10 233d 6bc7 efbb 25b4 c83b d002 e73d
00000030: ad6f afbd acaf 0dbe f877 a33d 49a7 463e
00000040: 779c 173e c61c 00bd adb5 57be a60b 623b
00000050: 274d 2dbd 15c4 14be 1232 07be 5bef 4e3d
00000060: fab8 89bb b887 32bd 2872 55be 91b5 22be
00000070: 55b9 42bc 606c 453e 5044 293b 2e53 54bd

phi.2.weight f4 [32, 32]
-0.05286281 0.11371808 -0.02833895 -0.083972834 0.06320118 0.10170007 0.14612252 0.1275863
0.0496854 -0.01739097 0.09257159 0.12580097 0.11754678 -0.060300697 0.10558923 0.034015626
0.125451 -0.12345107 0.13350594 0.13330366 -0.11915222 -0.07661296 -0.14160125 -0.044910945
0.04608077 -0.03126373 0.099608935 0.14400965 0.07598491 -0.047193807 0.06349153 -0.042147186
-0.15829167 -0.11735252 -0.029892778 0.090824015 0.15517317 0.1453882 0.15543173 -0.01247199
0.14510481 0.07669481 -0.12957244 0.12225646 0.03089659 0.034204908 0.026451003 0.036560766
-0.010635483 -0.06693231 -0.1704953 -0.06601756 -0.029592102 -0.029994836 -0.15604118 -0.03279204
-0.17455709 -0.10771885 -0.03712901 0.017932262 -0.03893728 0.09255079 -0.1638739 -0.012686475
-0.08906356 0.08101263 -0.17388558 0.11732494 -0.09777321 -0.148546 0.002318203 0.047866553
-0.12064514 0.15428229 0.065247074 -0.008584007 0.15807645 0.112688325 0.0036860157 0.10114658
0.07791941 0.13578081 0.0609714 0.0326366 -0.0096140755 0.087102026 0.16824171 0.17363174
0.0040209144 0.16066909 -0.13621512 0.021986704 -0.04412758 0.0011928822 -0.027410919 0.045177057
-0.10885774 0.0112933535 0.036166612 0.13062343 0.0009852247 -0.16180535 -0.1260805 -0.1323579
-0.020925973 -0.15119994 -0.115140006 0.06523036 0.04877617 0.17319398 0.06378228 0.0780481
0.14786544 -0.14345431 0.04770351 0.10507867 0.13363808 -0.08808314 -0.078587584 -0.13686989
0.14200044 0.12200185 0.15224878 -0.09288704 -0.12420587 -0.036970183 0.02731335 -0.04187298
-0.14625089 0.09950308 -0.16012919 0.065510005 0.022078078 -0.1576243 0.01535867 0.089021936
0.0016573404 -0.14157765 -0.02769678 0.042272065 0.0073992587 0.08852693 0.14650385 0.09314462
-0.031669877 -0.15456262 -0.1293354 0.007605483 0.037481256 0.014571809 -0.007823698 -0.1193977
0.055541307 -0.038967796 0.05680628 0.099763505 0.08159259 0.0214715 -0.010876458 -0.09671884
0.13010725 0.16838188 0.05146035 0.1647218 -0.12739314 -0.03045407 0.14534108 -0.05491812
-0.010532076 0.04453143 -0.13989457 -0.16373704 0.08084174 0.14779507 -0.028259378 0.061265692
0.020050794 -0.013407207 0.17669189 -0.07009678 0.050225407 -0.10860256 -0.13933231 0.045291953
0.09269348 0.041153636 -0.0839707 0.00739772 0.026938494 -0.03879712 -0.16047291 0.1313102
-0.018203223 0.110294424 0.15762863 0.09705846 -0.09352708 -0.13858199 -0.045848288 0.08898582
0.10734465 -0.024856757 -0.13922876 0.16411261 0.008261309 0.112930395 0.1286052 -0.1386617
0.1277597 -0.12141518 -0.014784988 -0.037175607 0.022221357 -0.16362667 0.15973106 -0.15721862
-0.011718468 -0.0048224423 -0.15544188 0.13424996 0.09313387 -0.10149481 0.11812542 0.154692
0.0067404187 -0.094268925 -0.17131299 -0.07105002 -0.06112113 0.017548345 -0.08072605 -0.14213671
0.114158824 -0.14511296 0.11784817 0.117032774 0.023709394 0.07167261 -0.05745749 0.1264333
-0.027941758 -0.16337237 -0.16769801 -0.033372317 0.12956452 0.048588697 -0.13272469 -0.07194096
0.03183385 0.03980287 -0.0192727 0.094674 0.16191961 0.056440573 -0.1455926 0.10708678
00000000: ad86 58bd 06e5 e83d 1627 e8bc f3f9 abbd
00000010: 9f6f 813d 2048 d03d 24a1 153e fca5 023e
00000020: eb82 4b3d 8277 8ebc 2c96 bd3d f8d1 003e
00000030: 5ebc f03d ddfd 76bd 2b3f d83d f853 0b3d
00000040: 3a76 003e ead3 fcbd c8b5 083e c180 083e
00000050: 1406 f4bd 41e7 9cbd ebff 10be 8af4 37bd
00000060: 31bf 3c3d 660e 00bd c5ff cb3d 4477 133e
00000070: fa9d 9b3d 4b4e 41bd d907 823d 87a2 2cbd
00000080: 3617 22be 8556 f0bd b3e1 f4bc f101 ba3d
00000090: b7e5 1e3e a5e0 143e 7f29 1f3e 5157 4cbc
000000a0: 5b96 143e 2b12 9d3d a3ae 04be 9861 fa3d
000000b0: d81a fd3c 721a 0c3d c6af d83c bec0 153d
000000c0: 7340 2ebc cf13 89bd 5296 2ebe 3734 87bd
000000d0: 236b f2bc bbb7 f5bc 42c9 1fbe f250 06bd
000000e0: 18bf 32be b39b dcbd 9714 18bd aee6 923c
000000f0: b37c 1fbd 458b bd3d 8fce 27be efda 4fbc
00000100: f566 b6bd f3e9 a53d 100f 32be 0f48 f03d
00000110: 523d c8bd 711c 18be feec 173b b80f 443d
00000120: cd14 f7bd 2dfc 1d3e 42a0 853d efa3 0cbc
00000130: cbde 213e 23c9 e63d 1591 713b f025 cf3d
00000140: 3694 9f3d 200a 0b3e 26bd 793d f5ad 053d
00000150: 5b84 1dbc 8c62 b23d 8e47 2c3e 85cc 313e
00000160: e0c1 833b 7086 243e fa7b 0bbe 761d b43c
00000170: 1fbf 34bd 7c5a 9c3a dd8c e0bc 940b 393d
00000180: cff0 debd c207 393c 7123 143d 26c2 053e
00000190: a822 813a 4db0 25be 3f1b 01be d488 07be
000001a0: f26c abbc 28d4 1abe 86ce ebbd 7f97 853d
000001b0: 85c9 473d c359 313e 49a0 823d afd7 9f3d
000001c0: 0a6a 173e b0e5 12be c164 433d 7c33 d73d
000001d0: 6cd8 083e ef64 b4bd 87f2 a0bd 9f27 0cbe
000001e0: 9068 113e 1bdc f93d 1be7 1b3e 8f3b bebd
000001f0: a65f febd 0c6e 17bd 3fc0 df3c 0083 2bbd
00000200: cbc2 15be 45c8 cb3d e8f8 23be 1c2a 863d
00000210: 16dd b43c 4468 21be eea2 7b3c 2251 b63d
00000220: 1e3b d93a bbf9 10be 5ce4 e2bc 7925 2d3d
00000230: 7b75 f23b 9b4d b53d 1b05 163e 9bc2 be3d
00000240: 46b8 01bd aa45 1ebe 8070 04be 6a37 f93b
00000250: f285 193d 99be 6e3c f82e 00bc c886 f4bd
00000260: 487f 633d b29c 1fbd b4ad 683d cf50 cc3d
00000270: 041a a73d 00e5 af3c 2c33 32bc 8714 c6bd
00000280: d63a 053e 4d6c 2c3e 17c8 523d d5ac 283e
00000290: 5973 02be d07a f9bc 4bd4 143e d3f1 60bd
000002a0: ba8e 2cbc 9766 363d 8640 0fbe afaa 27be
000002b0: 5b90 a53d 9757 173e 3680 e7bc bcf1 7a3d
000002c0: 9041 a43c e7a9 5bbc b8ee 343e e78e 8fbd
000002d0: 28b9 4d3d 056b debd 21ad 0ebe 0e84 393d
000002e0: 14d6 bd3d b790 283d d5f8 abbd 9368 f23b
000002f0: 1eae dc3c bbe9 1ebd 0353 24be 2e76 063e
00000300: ed1e 95bc 0be2 e13d 6669 213e 96c6 c63d
00000310: 208b bfbd 70e8 0dbe 6acb 3bbd 333e b63d
00000320: 83d7 db3d 66a0 cbbc fc91 0ebe 230d 283e
00000330: 715a 073c 0d48 e73d 15b1 033e 55fd 0dbe
00000340: 70d3 023e 86a8 f8bd bc3c 72bc 7345 18bd
00000350: 9009 b63c c08d 27be 8a90 233e ebfd 20be
00000360: d1fe 3fbc 9405 9ebb 282c 1fbe d278 093e
00000370: f8bc be3d 83dc cfbd bdeb f13d 9467 1e3e
00000380: bbde dc3b 1110 c1bd ac6c 2fbe ac82 91bd
00000390: 265a 7abd 8cc1 8f3c b353 a5bd 498c 11be
000003a0: 1acc e93d 7e98 14be 625a f13d e1ae ef3d
000003b0: 343a c23c 17c9 923d 8c58 6bbd bb77 013e
000003c0: 1de6 e4bc 164b 27be 07b9 2bbe 69b1 08bd
000003d0: 90ac 043e f104 473d fbe8 07be c855 93bd
000003e0: 3664 023d 5608 233d c8e1 9dbc 71e4 c13d
000003f0: 41ce 253e 3b2e 673d 3a16 15be 5050 db3d

phi.2.bias f4 [32]
0.046382185 -0.15397662 0.16541593 0.0007464418 -0.021930374 0.09427413 -0.07221873 -0.06581529
-0.12895867 0.16325808 -0.041693304 -0.09189022 -0.062101886 0.058090746 -0.020056631 0.046267018
0.11117266 -0.00075270055 0.11901427 0.11846649 -0.14838664 0.17078643 0.15019605 0.09308647
0.032862443 0.085917406 -0.14009519 -0.082926996 0.039146267 -0.007873115 0.15793958 0.11213651
00000000: 3ffb 3d3d 0cac 1dbe cb62 293e dcac 433a
00000010: 54a7 b3bc cc12 c13d 6ae7 93bd 2bca 86bd
00000020: be0d 04be 202d 273e 99c6 2abd f130 bcbd
00000030: 8c5e 7ebd 90f0 6d3d ce4d a4bc 7c82 3d3d
00000040: 7eae e33d e150 45ba c1bd f33d 8f9e f23d
00000050: abf2 17be a3e2 2e3e fecc 193e 1fa4 be3d
00000060: c59a 063d 77f5 af3d 1d75 0fbe a1d5 a9bd
00000070: d657 203d 3dfe 00bc eaba 213e d4a7 e53d

phi.4.weight f4 [28, 32]
0.014266771 -0.06719249 0.11401089 0.10351057 0.121714614 -0.036587764 -0.11317518 -0.035305
0.045024656 0.14665562 0.069954306 -0.0074149794 -0.009113539 -0.09666059 -0.029724106 -0.030319326
-0.06722643 0.03770573 -0.029564539 -0.16432822 -0.0027493443 -0.078890115 -0.082800075 0.0038751499
0.052461468 0.07836452 -0.15248017 -0.011723104 0.023261605 0.007983941 -0.00024592684 0.058771946
-0.1287446 -0.10488389 0.09678676 0.03499417 0.13486005 0.0956779 -0.10052478 -0.03105976
-0.056389764 -0.12299932 -0.08593247 0.11056494 0.15055883 -0.08631854 0.16034374 -0.14114317
0.09515237 -0.06630829 0.060613193 0.14736089 0.08539695 0.077752486 0.0897235 -0.17200479
-0.035184357 0.145737 0.045765154 -0.13205844 -0.11587578 -0.08508186 -0.1759574 -0.0018683276
-0.046766415 -0.07505589 -0.069030255 0.06617951 0.0031150524 0.034001295 -0.14594962 -0.11396718
0.033423483 0.04639993 -0.174555 -0.13843912 -0.13197698 -0.13317409 -0.16629724 0.045448676
-0.07651937 0.085304186 -0.046157815 0.1629975 0.025459435 -0.10134789 0.17518947 -0.06966267
-0.072233 -0.14128713 -0.08312315 -0.06263913 0.14801373 0.0005896344 0.1430892 -0.02173298
0.14587843 0.11147706 0.019035876 0.16064368 -0.10335193 0.050013516 0.14593306 -0.14454374
0.0048272894 0.02662897 0.14544114 0.033803478 -0.02789683 -0.014945209 0.052608013 0.15855311
0.008481758 0.13943408 0.04515139 0.009617869 -0.018536437 0.14676453 -0.11496834 0.0055056848
-0.012016362 -0.01539755 0.07335286 0.08043132 0.011704243 -0.12665138 0.026047278 -0.11953006
-0.16280149 -0.007897413 0.09011485 0.079515085 -0.114262 0.020784339 0.09710305 -0.083407246
-0.101321064 0.14636667 -0.08352285 0.16701637 -0.011130751 -0.10010361 0.069789894 0.06996296
-0.03699585 0.13594814 0.036956 -0.12070096 -0.095329 0.12958969 -0.031609017 0.033534728
-0.11151641 -0.076284654 -0.08285179 -0.1199624 0.06948702 0.10606016 0.081600934 -0.021584392
-0.010684079 0.16133265 -0.06633534 0.12987958 -0.08120635 -0.0037836912 0.13984534 0.113325834
-0.039486624 -0.054845713 -0.060294416 0.11396402 -0.010402031 -0.07001049 0.024948362 0.0713281
0.09655029 -0.12472498 -0.07857312 0.13655752 0.10806709 -0.117262036 -0.08702161 0.17345852
0.15314277 0.08680114 -0.069741085 -0.06674923 -0.06375779 0.07424875 0.1272132 -0.05423429
0.0266445 -0.10697574 0.020031618 0.17136116 0.076569125 0.045713503 0.14887886 0.063112505
0.007741491 -0.1454954 -0.17283839 0.14461483 0.0812374 -0.0600577 0.15259662 0.06912249
-0.08199587 0.1643132 0.030604934 0.04569966 0.1286602 -0.06027486 -0.03280757 0.09187587
-0.023999743 -0.17224734 -0.13418475 0.09497042 -0.08439801 -0.13990395 0.17540853 0.020389866
0.12701014 -0.11833827 -0.076554626 0.16915958 -0.13754462 -0.13577436 0.14050665 -0.07529479
-0.10584315 0.04282872 0.16213408 -0.14468583 -0.16349263 0.031144097 0.122044586 0.018130941
-0.046152443 0.123154335 -0.047517978 0.061479922 -0.15318954 0.1556572 -0.12055136 -0.13067065
0.02549979 -0.10772937 -0.06446548 0.08564492 -0.16469954 -0.004335267 0.07273891 -0.06825195
00000000: 2dbf 693c 379c 89bd 8b7e e93d 5afd d33d
00000010: 8345 f93d 0ddd 15bd 64c8 e7bd fa9b 10bd
00000020: c66b 383d e42c 163e 3444 8f3d 5bf9 f2bb
00000030: f450 15bc fdf5 c5bd f87f f3bc 3c60 f8bc
00000040: 03ae 89bd 5371 1a3d 5531 f2bc a845 28be
00000050: 582e 34bb 2491 a1bd 1693 a9bd 3af6 7d3b
00000060: d6e1 563d 947d a03d c323 1cbe 4312 40bc
00000070: 1f8f be3c 13cf 023c beef 80b9 daba 703d
00000080: a0d5 03be 5dcd d6bd 2338 c63d 0c56 0f3d
00000090: c118 0a3e c6f2 c33d f0df cdbd 0a71 febc
000000a0: f4f8 66bd 11e7 fbbd 5dfd afbd df6f e23d
000000b0: 182c 1a3e c6c7 b0bd 2631 243e d687 10be
000000c0: 3fdf c23d a4cc 87bd 8a45 783d c6e5 163e
000000d0: 99e4 ae3d b23c 9f3d f4c0 b73d 0622 30be
000000e0: 791d 10bd 153c 153e 3e74 3b3d 543a 07be
000000f0: 4850 edbd 663f aebd 2d2e 34be ace2 f4ba
00000100: 248e 3fbd e7b6 99bd bc5f 8dbd 1f89 873d
00000110: e825 4c3b f144 0b3d d173 15be a067 e9bd
00000120: 10e7 083d da0d 3e3d 8cbe 32be fcc2 0dbe
00000130: f924 07be ca5e 08be d349 2abe 6428 3a3d
00000140: 30b6 9cbd f6b3 ae3d fa0f 3dbd d1e8 263e
00000150: 4e90 d03c 7c8f cfbd de64 333e 4dab 8ebd
00000160: e5ee 93bd 93ad 10be 783c aabd f248 80bd
00000170: e990 173e b291 1a3a fa85 123e 5d09 b2bc
00000180: 2861 153e 164e e43d 20f1 9b3c c77f 243e
00000190: 2daa d3bd f9da 4c3d 7a6f 153e 4603 14be
000001a0: 3d2e 9e3b ff24 da3c 86ee 143e 8475 0a3d
000001b0: e587 e4bc c0dc 74bc 807b 573d bf5b 223e
000001c0: 12f7 0a3c cfc7 0e3e aaf0 383d 4494 1d3c
000001d0: bad9 97bc 7149 163e 8574 ebbd 0869 b43b
000001e0: 46e0 44bc 0146 7cbc 063a 963d 2db9 a43d
000001f0: 27c3 3f3c e6b0 01be 1a61 d53c 2dcc f4bd
00000200: 6fb5 26be 2764 01bc 228e b83d ced8 a23d
00000210: 3202 eabd eb43 aa3c f7dd c63d 6bd1 aabd
00000220: 6b81 cfbd 25e1 153e 070e abbd 5706 2b3e
00000230: c15d 36bc 1f03 cdbd 01ee 8e3d be48 8f3d
00000240: f688 17bd fd35 0b3e 2d5f 173d 1132 f7bd
00000250: da3b c3bd 29b3 043e 7578 01bd b65b 093d
00000260: b762 e4bd 213b 9cbd 33ae a9bd d9ae f5bd
00000270: 364f 8e3d 1236 d93d 641e a73d c0d1 b0bc
00000280: 460c 2fbc 6334 253e d3da 87bd 27ff 043e
00000290: 844f a6bd cef7 77bb 9e33 0f3e 6017 e83d
000002a0: babc 21bd e6a5 60bd 47f7 76bd f865 e93d
000002b0: 486d 2abc a961 8fbd 8260 cc3c 7814 923d
000002c0: 29bc c53d cf6f ffbd f2ea a0bd bcd5 0b3e
000002d0: 4752 dd3d 1427 f0bd 6338 b2bd 1c9f 313e
000002e0: 75d1 1c3e ccc4 b13d 6ad4 8ebd d2b3 88bd
000002f0: 7293 82bd bb0f 983d 2d44 023e c624 5ebd
00000300: 9145 da3c 1916 dbbd 5919 a43c 4d79 2f3e
00000310: 46d0 9c3d 153e 3b3d b373 183e 2141 813d
00000320: 55ac fd3b bffc 14be 8cfc 30be e915 143e
00000330: cb5f a63d 10ff 75bd 4a42 1c3e 1890 8d3d
00000340: 73ed a7bd b841 283e 33b7 fa3c 912f 3b3d
00000350: 80bf 033e c6e2 76bd 3b61 06bd 6b29 bc3d
00000360: 1c9b c4bc 9b61 30be ba67 09be da7f c23d
00000370: ddd8 acbd fb42 0fbe 4b9e 333e a608 a73c
00000380: f20e 023e 565b f2bd acc8 9cbd 2b38 2d3e
00000390: 7fd8 0cbe 6f08 0bbe fae0 0f3e 2834 9abd
000003a0: 4bc4 d8bd 2b6d 2f3d 7a06 263e 8628 14be
000003b0: 9d6a 27be e821 ff3c 83f2 f93d 5787 943c
000003c0: 580a 3dbd 5738 fc3d 36a2 42bd 5fd2 7b3d
000003d0: b8dd 1cbe 9a64 1f3e a2e3 f6bd 87ce 05be
000003e0: f0e4 d03c 37a1 dcbd 7a06 84bd 9b66 af3d
000003f0: ffa6 28be db0e 8ebb 23f8 943d aec7 8bbd

phi.4.bias f4 [28]
-0.0751064 0.09015274 0.0010212392 0.1603696 -0.11887872 0.15717942 0.13501827 -0.029183595
-0.13717952 -0.09686806 -0.09244167 -0.078922145 -0.14718497 -0.1265148 -0.11361307 0.15428807
0.035577293 -0.041955207 0.11829733 0.0612718 0.027744068 -0.01944449 0.13836157 -0.14969228
0.012841828 0.15943441 -0.082494974 0.15241478
00000000: 62d1 99bd 00a2 b83d 1adb 853a ee37 243e
00000010: b076 f3bd a4f3 203e 3b42 0a3e 6f12 efbc
00000020: ca78 0cbe c362 c6bd 0f52 bdbd efa1 a1bd
00000030: a8b7 16be 198d 01be f8ad e8bd b1fd 1d3e
00000040: 7fb9 113d 39d9 2bbd df45 f23d 24f8 7a3d
00000050: 8747 e33c 0d4a 9fbc a8ae 0d3e ef48 19be
00000060: 8866 523c c642 233e 20f3 a8bd 9f12 1c3e

phi.6.weight f4 [20, 28]
-0.18897381 -0.15388 -0.007328974 0.0541535 0.14889921 0.06490105 0.07915765 -0.02127651
-0.051853076 0.16926719 0.014320833 -0.084586106 -0.011314345 -0.029044451 -0.11462172 0.019342331
0.015960181 -0.10954435 0.060705964 0.09086539 0.07383997 -0.12703098 0.14891014 0.062184032
-0.096678175 0.072035246 0.14555283 -0.043394864 0.110718824 -0.011500159 -0.15895796 0.034661535
0.0070404974 0.043917116 -0.06166734 -0.034239914 -0.11124813 0.18841024 0.15740159 0.16063635
0.07835168 -0.11478694 0.12772778 0.016279906 0.04509069 0.07258696 0.112752736 -0.13191198
-0.14817114 -0.1493138 -0.15208554 0.037076693 0.14556761 -0.0834805 0.09575192 0.07474183
-0.024965744 0.15859675 0.16197251 -0.1546388 0.07523912 0.12574576 -0.16453706 -0.05267874
-0.16878991 0.16282023 0.1785058 -0.08960943 -0.047744587 0.17401084 0.13602975 0.10495582
0.047420897 0.08814797 0.12875901 -0.119967714 -0.0030604657 -0.11002412 -0.050894916 0.028421944
-0.011109673 -0.091542006 -0.104633644 0.055305827 -0.09847268 -0.09612488 0.13425198 0.13191338
-0.15130085 0.075989656 -0.020736976 -0.020127604 -0.013127433 -0.02143423 0.088411056 0.060141534
0.16101064 -0.115984485 0.02117074 0.091917515 0.04419701 -0.13008578 -0.1721452 -0.09878481
-0.18097626 0.044208273 -0.17958759 -0.087828465 0.06094127 -0.011810128 0.08136726 -0.04633987
0.089237034 -0.030829333 -0.15906127 -0.09274827 0.1165971 -0.07275133 -0.17541881 -0.10319998
0.11569241 0.021662692 -0.09296193 -0.047076594 0.09439656 0.06291521 0.03134073 -0.084914975
-0.024314785 0.058496848 -0.022358889 -0.01033429 0.0687346 -0.086075954 0.008128689 0.17444503
-0.18295364 0.10520812 0.029660175 0.15527277 0.026086241 0.02356772 0.0148239145 -0.0016969546
0.17158346 -0.117807016 0.1107398 0.08066918 0.035726316 0.07555159 0.17596282 0.15329953
0.056262746 0.121770866 -0.13223213 0.031054303 -0.032829452 0.047439236 -0.14640266 0.113936044
0.126301 -0.14434788 -0.03456892 0.024650505 0.016954767 0.021549037 -0.03388669 -0.0055647492
-0.017441517 0.07820146 0.009780428 0.03791998 0.0633909 -0.08887289 0.101501204 -0.13517664
-0.15539467 -0.065368965 0.033860646 -0.11361656 0.15022418 -0.113974296 0.07408628 0.048371237
0.09025593 -0.04316534 -0.11765826 0.15672271 -0.07313465 -0.09429147 0.100857474 0.067837
0.0024377122 0.1629973 0.03037088 0.07903661 -0.15186144 0.18608539 0.15087071 0.1672265
0.0076096104 -0.17091338 0.18708022 -0.121943526 0.17808641 -0.11804782 -0.14367293 -0.11832503
0.012984828 0.1237647 0.017072389 -0.048360895 6.983816e-07 0.098717496 0.02062519 -0.14529653
-0.041863717 -0.04764796 -0.07466625 -0.106718674 -0.16725838 -0.03439705 0.1453103 -0.019683344
-0.116392456 0.10194686 0.027594453 0.026658643 0.10691253 -0.053276513 0.07024628 -0.012972641
-0.17802033 0.029778562 0.013838994 0.091863036 0.09009329 0.044931754 -0.12520905 0.08228406
0.04852862 0.17895287 -0.18372871 0.13342758 0.104261406 0.0063914303 0.14334051 -0.007815949
0.06774353 -0.05403964 0.1538803 0.059529055 -0.12566878 -0.01578081 -0.13615057 0.0039889077
00000000: 5a82 41be b892 1dbe e427 f0bb 0fd0 5d3d
00000010: 0979 183e d7ea 843d 681d a23d 134c aebc
00000020: e463 54bd 6154 2d3e eda1 6a3c 7b3b adbd
00000030: cd5f 39bc a1ee edbc cbbe eabd cf73 9e3c
00000040: edbe 823c ca58 e0bd d1a6 783d a217 ba3d
00000050: 6939 973d 6914 02be e67b 183e afb4 7e3d
00000060: 35ff c5bd 3787 933d cd0b 153e d0be 31bd
00000070: 8dc0 e23d 2a6b 3cbc e0c5 22be 41f9 0d3d
00000080: f9b3 e63b 6fe2 333d e596 7cbd 273f 0cbd
00000090: 0fd6 e3bd 9dee 403e e22d 213e db7d 243e
000000a0: d876 a03d 6a15 ebbd 12cb 023e 705d 853c
000000b0: 04b1 383d 79a8 943d e8ea e63d ef13 07be
000000c0: 2dba 17be b7e5 18be 50bc 1bbe bbdd 173d
000000d0: ad0f 153e d3f7 aabd 9519 c43d 3f12 993d
000000e0: f684 ccbc 3067 223e 1fdc 253e a259 1ebe
000000f0: f816 9a3d 7fc3 003e 677c 28be aac5 57bd
00000100: 43d7 2cbe 59ba 263e 39ca 363e 2685 b7bd
00000110: d48f 43bd e62f 323e 624b 0b3e 14f3 d63d
00000120: 6a3c 423d ec86 b43d 67d9 033e a2b1 f5bd
00000130: 1892 48bb 5354 e1bd 3077 50bd 23d5 e83c
00000140: 5905 36bc 607a bbbd 2a4a d6bd 5d88 623d
00000150: 0bac c9bd 1fdd c4bd 5a79 093e 4d14 073e
00000160: 9cee 1abe 77a0 9b3d 97e0 a9bc a5e2 a4bc
00000170: 7214 57bc d796 afbc db10 b53d f856 763d
00000180: f9df 243e 4689 edbd 426e ad3c 403f bc3d
00000190: ed07 353d 3535 05be d546 30be b14f cabd
000001a0: d751 39be bc13 353d cfe5 37be 69df b3bd
000001b0: 8e9d 793d 447f 41bc e1a3 a63d e0ce 3dbd
000001c0: e8c1 b63d cc8d fcbc f5e0 22be cef2 bdbd
000001d0: 76ca ee3d a6fe 94bd fda0 33be 835a d3bd
000001e0: 24f0 ec3d f575 b13c d362 bebd 63d3 40bd
000001f0: fc52 c13d b1d9 803d 235f 003d e7e7 adbd
00000200: cd2f c7bc 649a 6f3d fd29 b7bc 2751 29bc
00000210: bac4 8c3d 9748 b0bd 312e 053c b8a1 323e
00000220: 3358 3bbe 5b77 d73d e5f9 f23c d3ff 1e3e
00000230: d0b2 d53c 1711 c13c 01e0 723c 596c deba
00000240: 93b3 2f3e ce44 f1bd 8ccb e23d e235 a53d
00000250: c255 123d cbba 9a3d 992f 343e 8dfa 1c3e
00000260: c473 663d 0163 f93d dc67 07be 9865 fe3c
00000270: 2d78 06bd a54f 423d 94ea 15be 4d57 e93d
00000280: 0d55 013e eecf 13be 2498 0dbd dbef c93c
00000290: b9e4 8a3c 9b87 b03c c5cc 0abd 8058 b6bb
000002a0: 83e1 8ebc 1628 a03d 173e 203c fb51 1b3d
000002b0: 17d3 813d fd02 b6bd dddf cf3d bf6b 0abe
000002c0: c81f 1fbe 2ae0 85bd 76b1 0a3d cdaf e8bd
000002d0: 5ed4 193e 5b6b e9bd 8cba 973d eb20 463d
000002e0: 1ad8 b83d 24ce 30bd d0f6 f0bd eb7b 203e
000002f0: 9fc7 95bd e31b c1bd 5d8e ce3d 20ee 8a3d
00000300: 06c2 1f3b c4e8 263e 5acc f83c f2dd a13d
00000310: 9181 1bbe 2b8d 3e3e da7d 1a3e 6c3d 2b3e
00000320: 0a5a f93b eb03 2fbe f591 3f3e 87bd f9bd
00000330: 495c 363e 0ec3 f1bd ff1e 13be 6554 f2bd
00000340: 51be 543c 5978 fd3d 65db 8b3c 1316 46bd
00000350: 6b78 3b35 662c ca3d 29f6 a83c 9dc8 14be
00000360: 4a79 2bbd 822a 43bd 9eea 98bd 528f dabd
00000370: c845 2bbe ece3 0cbd 39cc 143e f73e a1bc
00000380: 2b5f eebd 84c9 d03d c30d e23c 3a63 da3c
00000390: f5f4 da3d 7938 5abd 48dd 8f3d 338b 54bc
000003a0: f64a 36be 2cf2 f33c f3bc 623c b022 bc3d
000003b0: d582 b83d 5c0a 383d cd36 00be 8c84 a83d
000003c0: f2c5 463d 6c3f 373e 6123 3cbe 3da1 083e
000003d0: 0187 d53d 346f d13b dbc7 123e 770e 00bc
000003e0: 1fbd 8a3d ab58 5dbd cc92 1d3e bdd4 733d
000003f0: 51af 00be c246 81bc 0e6b 0bbe 62b5 823b

phi.6.bias f4 [20]
-0.18523654 0.10430189 -0.0025352829 0.11906991 -0.122026004 0.16264437 -0.15247722 -0.12854992
-0.098746404 0.031926963 0.028294547 0.017210262 -0.13933481 0.049003296 -0.16766085 0.13048138
-0.1542744 0.04401336 0.04749265 -0.16565073
00000000: a6ae 3dbe 3b9c d53d fd26 26bb edda f33d
00000010: c5e8 f9bd 3f8c 263e fd22 1cbe 97a2 03be
00000020: 8e3b cabd d9c5 023d f7c9 e73c 89fc 8c3c
00000030: c9ad 0ebe aeb7 483d 49af 2bbe e99c 053e
00000040: 1cfa 1dbe 5a47 343d a787 423d 58a0 29be

psi.0.weight f4 [128, 21]
-0.07570392 -0.13377543 -0.07126449 0.18984252 0.0665694 0.115499035 0.19307755 0.15461607
0.07365954 -0.08738515 0.18405028 0.18384746 -0.00584882 0.051346034 0.092613176 0.18901117
0.03892524 -0.17755416 0.0067700134 0.031715572 -0.025825938 0.16150169 -0.18601449 -0.20977898
-0.1100861 0.16776007 0.1781382 -0.00830133 -0.15029365 -0.01384938 0.17372207 -0.00071872975
-0.09489262 -0.17579138 -0.00079253037 -0.030951189 0.13709857 0.08913243 -0.129914 0.18615364
0.017094864 -0.05106064 -0.07201902 -0.14957878 -0.09504391 0.15284967 -0.16335495 0.12278656
-0.07735682 0.06917981 0.08808015 -0.13631277 -0.0639234 0.12737697 -0.0992224 0.19087641
0.18102342 -0.05802341 0.11446661 0.16175993 -0.018440364 0.07891067 -0.06184372 -0.16139597
0.054298706 -0.1076045 -0.08352996 -0.008624393 -0.07329829 0.21399401 0.03766413 -0.020200185
0.05579683 -0.109789304 -0.18322058 -0.048977368 0.08956313 -0.18607572 -0.1917741 0.07398674
-0.043474864 0.08439662 0.1337525 -0.013352026 -0.15570268 0.13661562 0.026971187 0.18296364
-0.107229516 0.033745285 0.0100869555 -0.13336512 -0.019381434 -0.123598285 0.19906999 -0.1224476
-0.0048555164 -0.122657634 0.21126007 0.047422584 0.14083311 0.056567326 0.17092368 0.12579884
0.0595263 -0.17799895 -0.053848803 0.112371884 0.03023579 0.08273475 -0.060991667 0.041547205
0.06404077 0.014915028 0.08325041 -0.16733608 -0.058150724 -0.010930576 -0.18115252 -0.072785504
0.046734396 0.10670781 -0.16440746 0.065491915 -0.13919565 0.0819103 0.1855182 0.18205288
0.18199101 0.18657091 -0.06672371 0.19146103 0.030156292 -0.08827926 0.103890724 -0.058143206
0.019941714 -0.19667223 -0.094312415 -0.10107103 -0.14674571 0.0331143 -0.14558503 -0.1028032
0.0686533 0.17990129 0.012460775 -0.012836255 0.10943571 -0.08286403 -0.059456553 -0.091581084
-0.028911047 0.15989509 -0.17782122 -0.06627698 0.074822895 -0.16288051 0.15902299 0.051848225
0.092652924 0.05191711 -0.051678486 0.034814443 0.20497413 0.02683961 -0.12738782 0.13978863
0.03367518 0.039136603 0.1654156 -0.15627722 0.045439437 0.21556838 0.035016257 -0.14746556
0.15999898 0.11336163 -0.110939 -0.004401137 -0.18974802 -0.056003224 -0.0139929755 0.057685368
0.19237101 0.06270997 -0.10280822 -0.11037924 -0.14840996 0.085373305 -0.12342769 -0.18836185
0.020103492 0.021400817 -0.20595326 -0.0110653015 -0.12927204 0.20071441 0.05209408 -0.12353016
0.102252 -0.13498884 -0.051523786 -0.018882882 -0.081849605 0.18997128 0.18007377 -0.019217053
0.08046092 -0.10754532 -0.07994591 0.0037812588 0.04240654 -0.013895581 0.019840522 -0.19353999
-0.2007444 -0.13676877 -0.15845066 0.0813272 -0.18245383 -0.13919081 0.11991401 0.07400706
0.15556833 0.01496526 -0.18540616 0.022548849 -0.042081993 -0.015298364 -0.011608517 -0.17424937
0.04526858 0.09690841 -0.09412082 -0.13488376 0.18318062 -0.15829617 0.047294494 -0.06328919
0.12861972 0.19174792 -0.056217395 -0.122060284 0.089533865 -0.16539168 -0.000118543976 0.14699101
0.2036102 -0.04053754 -0.013403975 0.19757737 -0.09608141 0.069884315 -0.14422655 0.096668854
00000000: a80a 9bbd 6dfc 08be 1ef3 91bd 1466 423e
00000010: 8a55 883d c28a ec3d 1fb6 453e ad53 1e3e
00000020: d0da 963d fcf6 b2bd ad77 3c3e 8242 3c3e
00000030: 75a7 bfbb 3850 523d faab bd3d 258c 413e
00000040: 1370 1f3d c2d0 35be fdd6 dd3b 30e8 013d
00000050: eb90 d3bc b360 253e 957a 3ebe 4dd0 56be
00000060: d274 e1bd 4cc9 2b3e dc69 363e 4d02 08bc
00000070: 94e6 19be 83e8 62bc 33e4 313e 2369 3cba
00000080: 1057 c2bd a802 34be d0c1 4fba 598d fdbc
00000090: 9163 0c3e 108b b63d 2d08 05be 0f9f 3e3e
000000a0: 870a 8c3c f624 51bd b57e 93bd 2e2b 19be
000000b0: 62a6 c2bd a084 1c3e 8546 27be 8577 fb3d
000000c0: 416d 9ebd 25ae 8d3d 5e63 b43d 9395 0bbe
000000d0: 46ea 82bd 1c6f 023e 1d35 cbbd 1b75 433e
000000e0: 345e 393e f5a9 6dbd 786d ea3d 65a4 253e
000000f0: 3f10 97bc eb9b a13d d74f 7dbd fc44 25be
00000100: 5268 5e3d c05f dcbd c111 abbd 534d 0dbc
00000110: 6a1d 96bd 3f21 5b3e b445 1a3d dc7a a5bc
00000120: 388b 643d 37d9 e0bd 2d9e 3bbe 7e9c 48bd
00000130: e06c b73d a28a 3ebe 6e60 44be 5c86 973d
00000140: b312 32bd 23d8 ac3d 6af6 083e 75c2 5abc
00000150: 8670 1fbe f7e4 0b3e aef2 dc3c d25a 3b3e
00000160: 269b dbbd 7f38 0a3d c243 253c de90 08be
00000170: d0c5 9ebc 1921 fdbd 01d9 4b3e cfc5 fabd
00000180: 061b 9fbb ed33 fbbd 8f54 583e 2f3e 423d
00000190: 8e36 103e 24b3 673d 9e06 2f3e 69d1 003e
000001a0: d9d1 733d 5b45 36be 9090 5cbd 3b23 e63d
000001b0: 0cb1 f73c d670 a93d 66d2 79bd 672d 2a3d
000001c0: cf27 833d 295e 743c 317f aa3d 265a 2bbe
000001d0: 742f 6ebd 2916 33bc 0c80 39be 9110 95bd
000001e0: 916c 3f3d a089 da3d 6e5a 28be a020 863d
000001f0: 4e89 0ebe 96c0 a73d 7cf8 3d3e 126c 3a3e
00000200: da5b 3a3e 720c 3f3e 71a6 88bd 5c0e 443e
00000210: 540a f73c c2cb b4bd a9c4 d43d 9227 6ebd
00000220: ce5c a33c 7264 49be de26 c1bd 54fe cebd
00000230: 8244 16be dca2 073d 3e14 15be 7c8a d2bd
00000240: 1a9a 8c3d 0b38 383e 4728 4c3c 284f 52bc
00000250: d41f e03d 9eb4 a9bd b788 73bd dd8e bbbd
00000260: dcd6 ecbc 8abb 233e c416 36be 3abc 87bd
00000270: bf3c 993d 26ca 26be ecd6 223e ce5e 543d
00000280: d1c0 bd3d 09a7 543d d2ac 53bd 9799 0e3d
00000290: bde4 513e bede db3c f471 02be c024 0f3e
000002a0: fcee 093d b44d 203d b562 293e 2307 20be
000002b0: b41e 3a3d f5bd 5c3e 356d 0f3d 3601 17be
000002c0: c6d6 233e 242a e83d fd33 e3bd 6a37 90bb
000002d0: 4e4d 42be a363 65bd cb42 65bc 7e47 6c3d
000002e0: e8fc 443e 166e 803d 1e8d d2bd 830e e2bd
000002f0: c8f8 17be 33d8 ae3d a8c7 fcbd eee1 40be
00000300: 14b0 a43c c450 af3c 69e5 52be 3d4b 35bc
00000310: e45f 04be 1488 4d3e 9a60 553d 61fd fcbd
00000320: 7f69 d13d 843a 0abe 9b0a 53bd 46b0 9abc
00000330: c4a0 a7bd d587 423e 4265 383e 156d 9dbc
00000340: b2c8 a43d b940 dcbd aeba a3bd ffce 773b
00000350: 7bb2 2d3d 4aaa 63bc 9788 a23c 592f 46be
00000360: f18f 4dbe 1d0d 0cbe e440 22be e08e a63d
00000370: 2dd5 3abe 0988 0ebe 7a95 f53d 0391 973d
00000380: 4e4d 1f3e da30 753c 1ddb 3dbe 5db8 b83c
00000390: 2b5e 2cbd fda5 7abc a631 3ebc 6d6e 32be
000003a0: 8c6b 393d eb77 c63d 6bc2 c0bd f81e 0abe
000003b0: b393 3b3e 6418 22be dfb7 413d c39d 81bd
000003c0: e3b4 033e 9159 443e 3644 66bd befa f9bd
000003d0: 885d b73d 705c 29be d09a f8b8 d084 163e
000003e0: 317f 503e b10a 26bd 599c 5bbc b951 4a3e
000003f0: 55c6 c4bd 821f 8f3d 20b0 13be 52fa c53d

psi.0.bias f4 [128]
0.06691447 0.007847055 -0.11909716 0.06431225 0.117328696 0.20617196 0.03426069 -0.21493706
0.07677412 0.14033492 -0.121872626 -0.19585156 0.037660383 -0.07382142 0.19021527 -0.12916514
-0.054562148 0.19232963 -0.051488146 -0.035206493 -0.113881715 -0.15664405 -0.09781098 0.16625664
-0.18066786 0.033199493 -0.04300839 -0.19292997 -0.17115736 0.04120484 0.023670504 -0.016821565
0.12836011 -0.11877354 0.21190006 -0.15811925 0.032389533 0.18413424 0.13987237 0.1346985
0.049820103 -0.013263971 0.20498459 0.0071335016 -0.04579395 0.20086443 0.12627643 0.1753323
0.025757132 0.050569244 -0.07779885 -0.0061166817 0.008693173 -0.0869292 -0.15410236 -0.20301887
-0.064529255 0.016220052 0.040117525 -0.03469163 -0.17078136 0.09672678 -0.2150932 -0.10128312
-0.06345003 -0.015133568 0.15043038 -0.15568408 -0.0035201604 -0.09966726 0.21082209 -0.09113332
-0.11807836 -0.0076083275 -0.19026297 -0.08401035 -0.05825743 -0.06987476 0.019127982 0.08627382
-0.073194854 0.066116735 -0.0044672634 0.04021315 0.046835586 -0.0018025604 0.16500145 -0.083045736
0.20550312 0.20807004 -0.19795062 0.15956227 0.12088353 0.033902902 -0.1591372 -0.06095278
0.06108243 0.15022255 0.107030384 0.057639036 -0.009673677 0.14230573 0.031455956 0.021806369
0.11519842 0.11912163 -0.17642584 0.10400157 0.096128054 0.15524176 0.13462655 0.14089528
0.17549714 0.16156292 -0.023047842 0.05006008 -0.20987213 0.0003685867 -0.1080036 -0.000334743
0.1614336 0.20841014 -0.0841708 0.020436909 -0.11319792 0.14372902 0.10527535 -0.015744263
00000000: 740a 893d ef90 003c 36e9 f3bd 24b6 833d
00000010: 074a f03d be1e 533e f054 0c3d 7618 5cbe
00000020: c03b 9d3d f5b3 0f3e 5b98 f9bd 508d 48be
00000030: c641 1a3d af2f 97bd cbc7 423e de43 04be
00000040: 8f7c 5fbd 0ff2 443e 3ce5 52bd af34 10bd
00000050: d13a e9bd 4c67 20be 2051 c8bd 2e3f 2a3e
00000060: ff00 39be 31fc 073d 9129 30bd 6f8f 45be
00000070: e043 2fbe 68c6 283d a5e8 c13c 61cd 89bc
00000080: d570 033e 8b3f f3bd 54fc 583e 03ea 21be
00000090: e3aa 043d b08d 3c3e b43a 0f3e 67ee 093e
000000a0: 2a10 4c3d 2051 59bc 7be7 513e 26c0 e93b
000000b0: 7092 3bbd 68af 4d3e 9c4e 013e 4f8a 333e
000000c0: 9f00 d33c b221 4f3d 0155 9fbd 726e c8bb
000000d0: cf6d 0e3c f007 b2bd 02cd 1dbe 2ee4 4fbe
000000e0: ea27 84bd eadf 843c 4652 243d d018 0ebd
000000f0: 4fe1 2ebe b118 c63d 6441 5cbe 866d cfbd
00000100: 17f2 81bd c9f2 77bc 6c0a 1a3e a66b 1fbe
00000110: 7eb2 66bb 591e ccbd bfe1 573e 1ba4 babd
00000120: 11d3 f1bd 474f f9bb 4cd4 42be 9e0d acbd
00000130: 589f 6ebd 801a 8fbd 49b2 9c3c 54b0 b03d
00000140: 2fe7 95bd 3668 873d 1f62 92bb 8bb6 243d
00000150: acd6 3f3d e443 ecba 24f6 283e e213 aabd
00000160: 696f 523e 5010 553e 91b3 4abe 4b64 233e
00000170: c991 f73d c5dd 0a3d ddf4 22be 9fa9 79bd
00000180: 9231 7a3d f1d3 193e bf32 db3d e916 6c3d
00000190: 587e 1ebc 98b8 113e f6d7 003d 45a3 b23c
000001a0: 26ed eb3d 0bf6 f33d faa8 34be c6fe d43d
000001b0: c9de c43d b2f7 1e3e 8bdb 093e da46 103e
000001c0: 86b5 333e c070 253e d4ce bcbc cc0b 4d3d
000001d0: b8e8 56be df3e c139 fe30 ddbd 7280 afb9
000001e0: da4e 253e 7869 553e be61 acbd 4e6b a73c
000001f0: 50d4 e7bd b32d 133e 9a9a d73d 1dfa 80bc

psi.2.weight f4 [128, 128]
0.074450396 -0.070543624 0.08729693 -0.008014265 0.013038075 0.012034727 0.016555587 0.054495927
-0.07737436 0.010001711 0.00912592 -0.06990375 0.08699072 0.06943809 -0.03526748 -0.05178224
-0.013460849 0.06664891 0.06986484 0.013570864 -0.07723674 -0.07993139 -0.04158959 -0.04687682
-0.050554447 0.06650353 0.028062783 0.048935484 -0.003089996 0.083698526 0.0012221638 0.014886909
-0.041545928 0.014195122 -0.0025587983 -0.009957109 0.06846597 0.009303527 -0.061900802 0.069474645
0.044004828 0.004477007 0.069665186 0.03944791 -0.032211773 -0.045198195 0.037925724 0.050335854
0.010942712 0.06485318 -0.064971566 0.012463982 -0.07698186 -0.037025373 0.054672576 0.035621632
-0.06828968 -0.051452007 0.03791538 0.075866506 -0.068280995 -0.049928408 0.05561716 0.0404617
0.07917809 -0.008877053 0.00043182608 -0.07043991 -0.012743268 -0.054731224 -0.015276536 0.04296084
-0.0019133615 -0.079877704 -0.059611037 -0.0054067136 0.062868595 -0.055541884 0.0072707 0.025452418
0.08113867 -0.041583378 -0.06826969 -0.031177605 -0.009197643 0.0833662 0.008918252 0.08566296
0.057910737 0.05536803 0.055989128 0.037743904 -0.024314348 -0.028225387 -0.04857185 0.05294269
0.052933596 -0.010139846 -0.08643914 0.08576989 0.08098806 0.04992806 0.087520234 -0.034723166
-0.046812598 0.07932438 -0.046059467 0.049701426 -0.016126258 -0.032369234 0.058782663 0.044420682
-0.08395483 0.02334124 0.011868889 0.01290448 0.08338609 0.04574722 -0.06958645 -0.009084227
-0.0040515447 -0.049182683 0.015300834 -0.06527107 0.06795509 -0.080086574 0.021367777 -0.024516389
0.0676902 0.0077063404 0.006079978 0.0114068445 -0.08059828 -0.0028572613 0.06732268 -0.085740216
0.041737456 0.04463294 -0.04220952 -0.047962587 -0.06685 0.056128886 -0.027528603 -0.08477647
0.031805404 0.077490956 -0.024771092 -0.07667791 -0.03919124 -0.045303393 -0.0447057 0.0790383
0.06239511 -0.07420413 0.06426859 -0.02755935 0.032828927 -0.063478716 0.021265425 0.064651735
0.048780803 0.043526936 0.048462816 0.07057819 -0.052350283 0.052840967 0.049598314 0.08535017
0.058879737 -0.01876779 -0.0023940252 -0.01787627 0.06929259 -0.06838453 -0.065416574 0.06173097
-0.07733333 0.08352692 0.030780159 -0.017405868 0.07638469 0.08643152 0.07674101 -0.015427548
0.020294718 0.083363935 0.081705034 0.058506988 0.025579354 0.007405591 -0.04940956 -0.08416616
0.074933484 -0.08253043 -0.06867687 0.012808027 -0.004815193 0.08458803 -0.0031537537 -0.037045836
0.05351516 -0.026425093 0.017887492 -0.03585088 0.06266153 0.026258213 0.031717695 -0.030578276
-0.0589197 -0.08581053 0.030021042 -0.07065621 0.079408616 0.054803 -0.016061151 0.06750594
-0.05784405 -0.057951387 0.043718103 -0.07287745 -0.051248387 -0.05174518 0.00012910634 0.065531224
0.031800367 0.042402647 0.08502597 -0.059132945 -0.050738115 0.026754545 0.017109323 -0.08107032
0.013298352 0.079953454 0.022374423 -0.045297336 0.035730306 -0.014244392 -0.036447436 0.031151958
-0.0055897785 -0.0007665985 0.019244093 -0.06282135 0.057167742 0.07761754 -0.08116213 -0.026597137
-0.036304705 0.014847692 -0.035801493 0.008825498 0.08589343 -0.019729223 0.047540676 0.07999904
00000000: 7379 983d 2d79 90bd bcc8 b23d 444e 03bc
00000010: a69d 553c 4e2d 453c 959f 873c 1f37 5f3d
00000020: 7376 9ebd 37de 233c e284 153c b329 8fbd
00000030: 3128 b23d 8f35 8e3d a274 10bd 9d19 54bd
00000040: e58a 5cbc 397f 883d 4c15 8f3d 5458 5e3c
00000050: 4c2e 9ebd 12b3 a3bd d959 2abd e901 40bd
00000060: 2e12 4fbd 0133 883d ece3 e53c 9370 483d
00000070: 8881 4abb 226a ab3d 0331 a03a 39e8 733c
00000080: 102c 2abd a892 683c 83b1 27bb 2423 23bc
00000090: e337 8c3d d26d 183c b28b 7dbd b948 8e3d
000000a0: 683e 343d dbb3 923b 9fac 8e3d 2294 213d
000000b0: 7ef0 03bd be21 39bd 0158 1b3d f82c 4e3d
000000c0: 1049 333c bed1 843d d00f 85bd bb35 4c3c
000000d0: aaa8 9dbd eba7 17bd 5af0 5f3d fde7 113d
000000e0: 76db 8bbd 57bf 52bd 284d 1b3d e65f 9b3d
000000f0: e8d6 8bbd bb81 4cbd d2ce 633d 2bbb 253d
00000100: 1f28 a23d 0f71 11bc b766 e239 cd42 90bd
00000110: 24c9 50bc d92d 60bd 704a 7abc b5f7 2f3d
00000120: c2c9 faba ec96 a3bd b42a 74bd cd2a b1bb
00000130: 40c1 803d e37f 63bd 0d3f ee3b 9781 d03c
00000140: 082c a63d 5553 2abd fbd0 8bbd 2d68 ffbc
00000150: b6b1 16bc e6bb aa3d dc1d 123c 1070 af3d
00000160: cf33 6d3d 96c9 623d db54 653d 5a99 1a3d
00000170: e22e c7bc ed38 e7bc 47f3 46bd 6fda 583d
00000180: e6d0 583d 9921 26bc 0107 b1bd 20a8 af3d
00000190: 11dd a53d 5e81 4c3d cf3d b33d e139 0ebd
000001a0: 91be 3fbd d274 a23d daa8 3cbd b993 4b3d
000001b0: 371b 84bc 9a95 04bd 17c6 703d 76f2 353d
000001c0: 83f0 abbd 2136 bf3c bb75 423c 506d 533c
000001d0: 54c6 aa3d 7061 3b3d 5783 8ebd 02d6 14bc
000001e0: d2c2 84bb c873 49bd 59b0 7a3c d7ac 85bd
000001f0: 0a2c 8b3d 6e04 a4bd 7a0b af3c 98d6 c8bc
00000200: 29a1 8a3d 7885 fc3b 8d3a c73b c6e3 3a3c
00000210: b610 a5bd e440 3bbb 79e0 893d 9198 afbd
00000220: e5f4 2a3d 08d1 363d e4e3 2cbd 6b74 44bd
00000230: a7e8 88bd 67e7 653d aa83 e1bc 499f adbd
00000240: 6246 023d 94b3 9e3d bfec cabc 4f09 9dbd
00000250: fe86 20bd 0d90 39bd 531d 37bd d5de a13d
00000260: 0492 7f3d 56f8 97bd 409f 833d 25c4 e1bc
00000270: a077 063d 2101 82bd d434 ae3c 2168 843d
00000280: 61ce 473d 4d49 323d f280 463d 4c8b 903d
00000290: 406d 56bd c56f 583d 9a27 4b3d 12cc ae3d
000002a0: e12b 713d e9be 99bc 14e5 1cbb 4171 92bc
000002b0: 46e9 8d3d 300d 8cbd 20f9 85bd 9dd9 7c3d
000002c0: f060 9ebd 2910 ab3d ac26 fc3c c096 8ebc
000002d0: 946f 9c3d 0203 b13d 642a 9d3d d4c3 7cbc
000002e0: 1c41 a63c b6ba aa3d f854 a73d 06a5 6f3d
000002f0: cb8b d13c 9aaa f23b ae61 4abd 4f5f acbd
00000300: ba76 993d b705 a9bd 75a6 8cbd c2d8 513c
00000310: c4c8 9dbb 7d3c ad3d 35af 4ebb 60bd 17bd
00000320: b632 5b3d 7079 d8bc ca88 923c 5fd8 12bd
00000330: b054 803d 771b d73c 6aea 013d 4b7f fabc
00000340: c955 71bd 6ebd afbd b0ee f53c 34b4 90bd
00000350: fca0 a23d 1c79 603d ad92 83bc 8e40 8a3d
00000360: e2ed 6cbd 6f5e 6dbd c111 333d c640 95bd
00000370: d4e9 51bd c1f2 53bd b860 0739 3c35 863d
00000380: 1a41 023d 66ae 2d3d 1922 ae3d 6335 72bd
00000390: c5d2 4fbd 592c db3c da28 8c3c 3208 a6bd
000003a0: 55e1 593c a3be a33d 914a b73c b389 39bd
000003b0: f159 123d 4f61 69bc e849 15bd 6432 ff3c
000003c0: 762a b7bb 8ef5 48ba caa5 9d3c 7ba8 80bd
000003d0: b928 6a3d f2f5 9e3d 5538 a6bd 3de2 d9bc
000003e0: 3eb4 14bd bc43 733c 96a4 12bd d298 103c
000003f0: e5e8 af3d 2e9f a1bc 03ba 423d 89d6 a33d

psi.2.bias f4 [128]
-0.018022666 -0.052341476 0.07980827 0.046505265 -0.0015180346 -0.058720842 -0.0771746 0.021323672
0.023565903 0.013946972 -0.038776018 -0.0073106973 -0.022002077 -0.057674095 0.06336954 -0.01106968
-0.07263625 0.013185452 -0.028616002 0.036883045 0.07573671 -0.011180684 0.030136766 0.031682733
-0.05283926 -0.059329845 0.06337915 -0.013093371 -0.073788635 -0.009114941 0.0031506137 0.008650978
0.054643482 0.06352985 -0.07154041 0.037099108 -0.06413356 0.0322524 0.04555183 -0.024164084
0.06590347 0.013850866 0.06843905 0.038903657 -0.02217429 0.046340365 0.049323972 0.05355147
-0.040293083 -0.017941123 -0.026173994 0.06606486 -0.08073088 -0.056635752 0.05682945 -0.0067894463
-0.01088927 -0.07384071 0.021273442 -0.013632787 0.05882858 -0.05835581 -0.035556007 -0.030374011
-0.05452289 -0.0102738 -0.002853489 -0.072003335 0.06974884 0.05230804 -0.0685074 -0.08542817
-0.0819797 -0.053486753 0.05492787 0.08414825 0.07342183 0.0342356 -0.05536408 0.06960616
-0.08461781 0.058982383 0.042291697 -0.024574362 -0.044183563 0.05466564 -0.0112018315 0.021044027
-0.0368354 0.00069156656 -0.021473344 0.023083448 -0.027145404 -0.06615791 0.047368757 -0.0101244105
-0.044839032 0.008559361 0.02106845 0.048083473 0.08098526 -0.03603588 0.014419374 -0.016971387
-0.0315464 0.03212632 -0.0831367 0.010202098 -0.06427213 0.05734653 0.038982905 -0.01309452
0.03924002 -0.0045183003 -0.031175813 -0.04538676 0.036751956 0.024391677 -0.03694266 -0.041581776
-0.02806017 0.0875666 -0.048643805 -0.035046674 0.021133957 -0.08726953 -0.015250426 -0.03596713
00000000: 45a4 93bc 0464 56bd 8572 a33d 4e7c 3e3d
00000010: caf8 c6ba 4485 70bd b70d 9ebd fbae ae3c
00000020: 480d c13c d781 643c 9ad3 1ebd 938e efbb
00000030: b33d b4bc ac3b 6cbd e4c7 813d 9a5d 35bc
00000040: 50c2 94bd cb07 583c 1b6c eabc ad12 173d
00000050: d91b 9b3d 302f 37bc 61e1 f63c c1c5 013d
00000060: fb6d 58bd da03 73bd eecc 813d 9485 56bc
00000070: 7f1e 97bd d556 15bc 877a 4e3b d5bc 0d3c
00000080: d8d1 5f3d f01b 823d c783 92bd 3cf5 173d
00000090: 7558 83bd 181b 043d 8e94 3a3d c2f3 c5bc
000000a0: 66f8 863d beee 623c c629 8c3d 7159 1f3d
000000b0: dba6 b5bc 65cf 3d3d ef07 4a3d c958 5b3d
000000c0: 5c0a 25bd 43f9 92bc d86a d6bc 034d 873d
000000d0: 3b56 a5bd e4fa 67bd ffc5 683d 017a debb
000000e0: e968 32bc cc39 97bd a445 ae3c 0e5c 5fbc
000000f0: 3df6 703d 8006 6fbd 2da3 11bd ebd2 f8bc
00000100: 6553 5fbd 7153 28bc 9a01 3bbb 7c76 93bd
00000110: 7bd8 8e3d f540 563d 9c4d 8cbd f7f4 aebd
00000120: f9e4 a7bd ed14 5bbd 0cfc 603d eb55 ac3d
00000130: 2f5e 963d a13a 0c3d 72c5 62bd ad8d 8e3d
00000140: 1a4c adbd 8397 713d 0f3a 2d3d 2c50 c9bc
00000150: d3f9 34bd 14e9 5f3d e387 37bc 8664 ac3c
00000160: b7e0 16bd 3f4a 353a dee8 afbc 8019 bd3c
00000170: 0a60 debc cc7d 87bd be05 423d dbe0 25bc
00000180: 22a9 37bd 903c 0c3c be97 ac3c 2df3 443d
00000190: 9adb a53d 5c9a 13bd 3d3f 6c3c 9407 8bbc
000001a0: cc36 01bd e396 033d 9343 aabd b326 273c
000001b0: 1ba1 83bd 32e4 6a3d 8aac 1f3d 668a 56bc
000001c0: 25ba 203d 400e 94bb 6b64 ffbc 78e7 39bd
000001d0: 3889 163d 0ed1 c73c 3051 17bd a751 2abd
000001e0: 71de e5bc 1e56 b33d ba3e 47bd 1a8d 0fbd
000001f0: 1f21 ad3c 5eba b2bd ecdc 79bc 4552 13bd
